ABvsE/CNN1D_best.pt (torch, 220469 bytes, 22 tensors)

backbone.0.weight f4 [32, 1, 7]
00000000: 8500 853e a5bd 9a3e f560 b1bd 66aa b03e
00000010: 5fc5 babd b129 813d 6d30 4cbe 1332 6f3e
00000020: 58d5 ab3e ac6f 8fbe 4231 a33e 7b09 6d3d
00000030: dd90 8b3e 0046 5c3d d28f 1f3e 0d26 8abd
00000040: 2e07 913e 8561 323d b5aa 45be 0ac7 9d3d
00000050: cde9 43be ea0a 3bbd b82a 20be b77e 7e3e
00000060: 8b8d 9abe 0a21 31be 44e2 dabd 0c42 65be
00000070: 667c 813d 930c b5be c4c1 b73e 7967 9abe
00000080: d5cb 9e3e d09b 9e3d ea79 ecbd 0b92 583e
00000090: e669 0e3d 7add 9e3e ebf3 2a3d 33fc 01be
000000a0: 817e ab3d 04b9 ffbd fb65 3c3e b117 b03e
000000b0: c58c 603e c73c 32be 75c7 513e 459b 583d
000000c0: 1dd7 3b3e 4304 62be 8bd8 b7be 4fae 00be
000000d0: 814c 88be 332c ab3e 0f4a 033e be16 2d3e
000000e0: ab78 d83d 5988 11bc d576 973e bb57 8bbe
000000f0: e552 a53c 2603 80be 69d8 103e 7a95 0dbe
00000100: 2d15 d83d 9d20 adbd 1311 a03e d706 61be
00000110: a1ca 59be 6a9f 69be 5851 a93e e560 fb3d
00000120: b193 b93e aacd a0be 8fdd c1be ec91 9abe
00000130: d4c0 89be 5ea2 113e 7daa ff3d d1ea 9c3e
00000140: 7e94 4ebe 50b1 87be e55d 423e 5cf2 2cbe
00000150: a3b9 4f3e a0c6 dbbd bc63 493e df43 a1be
00000160: f9f2 50be 46ab f43d 1bfb a83d ac03 06be
00000170: 9b22 473e bbe0 6b3e 4531 98be 6cd2 5fbe
00000180: 77b7 af3e 4d17 02be e62a 1cbe 3364 bcbe
00000190: bee1 5cbe a6e0 bd3d f9a1 46bd bd4c 8abe
000001a0: d1b1 823c 2738 68be 9647 96be bd17 4abe
000001b0: 95be a4be b4d5 62be ae92 ce3e af88 cb3d
000001c0: ec2f b63d d958 c0be 4da5 88be bfcb 18be
000001d0: 0f33 1a3d e3bd a3be ee87 0dbe 9e9d 54be
000001e0: 32f8 e63c 8a8a e2bd ee70 a83b 6e21 7cbe
000001f0: 341a 91be 395e 80be 96cb cdbd 3aa7 8fbe
00000200: dbde aa3e ddf8 6fbd f109 aa3e 836d e73d
00000210: f872 a7be 7198 913e 5e32 a9bd 4015 03be
00000220: f286 94be 959d b4be da1a e33d d5f6 bdbd
00000230: 5e13 333e ffa2 90be 484f 993e 8470 8dbe
00000240: 0dc2 8ebd 4bc6 9b3d 0a68 443e e738 993e
00000250: 767e b63e a112 92be b04d cb3d 3e9e 31be
00000260: 08ed 56bd 9ca4 8fbe 2cd6 b13e 201e 91be
00000270: 02da 3b3e 36fc c33d 63f3 a03d 3241 67be
00000280: 5a54 b33e 77e0 c23d ed7a 823d 5667 a6be
00000290: dcc9 203e c2fc 7cbd 1587 35be ae91 a53e
000002a0: 0908 c63d 1449 4ebe 9c04 42be 9889 7bbc
000002b0: 0787 603e d28b a9bd d40c 5fbe bf07 01be
000002c0: 3f6e 8abe 92b0 0d3e cef9 923e d732 bbbe
000002d0: 5211 a63d 23d0 4d3e ddca 053d 2b8f 2cbe
000002e0: aea4 2b3e 5829 4b3e b32c 183e 9648 85bd
000002f0: 09fd cfbd bfe4 f63c b035 b5bd 40b8 0cbe
00000300: c073 5e3e 1989 9d3e f27f 50bd 3635 c6bd
00000310: 223b 0dbc 6593 98bc 7346 d53d c85a f03d
00000320: 1ec6 adbe 34d2 0ebe de52 a13e d059 213e
00000330: b19a c1bb edb9 5bbe 4ec9 63be 4e6c b6be
00000340: d6f7 04be 0156 ff3d c8a2 603e 5552 203e
00000350: cd2f b3be ffc1 74be 342a 86bd df2c b93e
00000360: f203 393d 3e81 babd 75d8 2f3e 3f74 efbd
00000370: 05c1 58be 803b 9d3e 2e4b 20be ebf7 c8bd
0.2597696 0.30222812 -0.08661071 0.34505004 -0.09119677 0.0630678 -0.19940348 0.23358946
0.33561206 -0.28014886 0.31873518 0.05787037 0.2725896 0.053777695 0.15582207 -0.06745539
0.2832579 0.043550033 -0.19303401 0.07703979 -0.19132157 -0.045664705 -0.15641296 0.24853025
-0.30186114 -0.1729776 -0.10687688 -0.22388476 0.06322555 -0.35361156 0.3589002 -0.30157068
0.31014886 0.077445626 -0.11546691 0.21149461 0.03476896 0.31028348 0.041736525 -0.12693863
0.08373738 -0.12486461 0.18398277 0.34393075 0.219287 -0.17405997 0.20486243 0.05288245
0.18343778 -0.22071938 -0.35907397 -0.12566493 -0.26620868 0.3343216 0.1282122 0.16903207
0.105698906 -0.0088826055 0.2958285 -0.2721537 0.020181129 -0.25002402 0.14145054 -0.13826552
0.10550914 -0.08453486 0.31263027 -0.21975265 -0.21268703 -0.22814718 0.33069873 0.122743405
0.36245492 -0.3140691 -0.37864348 -0.30189455 -0.2690493 0.14222094 0.1248369 0.306479
-0.20173833 -0.26502466 0.1898113 -0.16889328 0.20285659 -0.10731244 0.19666952 -0.31497094
-0.20405187 0.1194673 0.082510196 -0.13087338 0.19446795 0.23034947 -0.2972509 -0.21857613
0.3431966 -0.12704201 -0.1525074 -0.36795196 -0.21570489 0.09271364 -0.048494313 -0.27011672
0.01595393 -0.2267767 -0.2935149 -0.19735618 -0.32176653 -0.22151834 0.40346283 0.0993818
0.08895859 -0.37567785 -0.26688614 -0.14921473 0.03764635 -0.3198081 -0.13821384 -0.20763251
0.02819452 -0.110615805 0.0051404154 -0.24622127 -0.28340304 -0.25071886 -0.100485966 -0.2805727
0.3337315 -0.058586944 0.3321071 0.113001846 -0.32704902 0.28436616 -0.0826156 -0.12801075
-0.29009205 -0.35276476 0.11089106 -0.09275595 0.17487857 -0.28249356 0.299433 -0.27624905
-0.06970606 0.07606181 0.19180313 0.29926226 0.35643357 -0.28529838 0.09926927 -0.17345521
-0.052472144 -0.28055274 0.34733713 -0.28343296 0.18344882 0.0956959 0.07858922 -0.22583464
0.35025293 0.095154695 0.063711025 -0.32500714 0.15702003 -0.061764486 -0.17727311 0.32337707
0.09669501 -0.20145065 -0.18947071 -0.015352629 0.21926509 -0.08278622 -0.21782237 -0.12600611
-0.27037236 0.13836887 0.2870621 -0.36562225 0.08108772 0.20098929 0.03266417 -0.16851489
0.16762039 0.1983999 0.14860801 -0.06507985 -0.101556845 0.030138372 -0.08848131 -0.13742161
0.21723843 0.3076866 -0.05090327 -0.09678118 -0.008620055 -0.01862497 0.10413828 0.11736065
-0.33940214 -0.13947374 0.31508535 0.15756917 -0.005908333 -0.21457644 -0.2224476 -0.35629505
-0.12985167 0.12467576 0.21937096 0.15656407 -0.34997407 -0.23902129 -0.06551018 0.36167046
0.04516978 -0.09106682 0.17172416 -0.11692094 -0.21167381 0.30709457 -0.15653679 -0.098129116

backbone.0.bias f4 [32]
00000000: fe4b c0be a9f7 803e 368d 923e c275 0c3e
00000010: 0d23 86be 763e bfbe 691b 9dbe 65f9 8f3e
00000020: 02f5 383e 2c02 a33e fc1a 4b3e 6af2 c33d
00000030: 97be 233a f28e 91be 252e a5be e9f3 b4be
00000040: 3b14 1e3e e904 3ebe 0780 9ebd c956 5ebe
00000050: 5449 87bd 3f4e 88be 6e4f 7cbe dc16 023e
00000060: 3ee4 e1bd e326 713e 4ff8 f5bd 613e 8dbe
00000070: 4329 95bd abb2 3bbe 04b3 f3bd 9b1b babe
-0.37557977 0.2518895 0.2862336 0.13716796 -0.26198617 -0.3735234 -0.30684975 0.2811996
0.18062213 0.31837595 0.19834512 0.09567721 0.00062463566 -0.2842937 -0.32261768 -0.3534234
0.15437405 -0.1855656 -0.07739263 -0.21712793 -0.06605783 -0.26622197 -0.24639675 0.12704033
-0.11029862 0.2354999 -0.12010252 -0.27586654 -0.07283261 -0.18329875 -0.11899379 -0.36349186

backbone.1.weight f4 [32]
00000000: eb9c 813f 6009 803f 2574 7d3f e31b 7c3f
00000010: 0c85 7e3f f2c3 7f3f e47c 7d3f 47cd 823f
00000020: 7e07 7e3f 623b 803f af9c 803f ebda 793f
00000030: 7c90 803f c0cd 813f bda4 803f f3c0 7d3f
00000040: fc25 7a3f 34a0 813f 9c53 803f bd44 7b3f
00000050: 1869 7e3f 65ba 7e3f 7de0 7f3f 1425 823f
00000060: 129f 7f3f 45db 803f aee0 783f a0c2 7e3f
00000070: 7b1a 833f 0780 7b3f 363d 813f 6015 7d3f
1.0126013 1.0002861 0.9900535 0.9848005 0.99421763 0.99908364 0.9901869 1.0218896
0.9923018 1.0018122 1.0047816 0.9759967 1.0044093 1.0140915 1.0050274 0.9912254
0.9771421 1.0127015 1.0025516 0.9815176 0.9937911 0.99503165 0.99951917 1.0167565
0.998521 1.0066916 0.97217834 0.99515724 1.0242456 0.9824223 1.0096805 0.9886074

backbone.1.bias f4 [32]
00000000: 58f4 a93c 1e2d a03c 332b 8dbc 15f5 4fbc
00000010: b764 fe3c 46f2 3d3c 2df3 253c 1320 15bc
00000020: 54c8 ae3c 3f80 a43c f055 c73c 6d8c 09bb
00000030: 0a5b 0d3d 0456 c13c f402 a5bc b1a9 8ebc
00000040: a660 01bd d6fb 06bd e01b 5f3c be15 a53c
00000050: 2e3d d43c c3e5 97bb 3953 b13b a67d b93c
00000060: 6307 68bc 2fb9 383a f874 c5bb 18f2 3d3c
00000070: 8130 d33c 255e 0e3c b8f9 bf3c 4172 583b
0.020746395 0.019552764 -0.017232513 -0.012692709 0.031053884 0.011593407 0.010128778 -0.009101885
0.021335758 0.020080684 0.02433297 -0.0020988241 0.03451065 0.023600586 -0.02014301 -0.0174149
-0.03158631 -0.032955013 0.013617486 0.020151969 0.025908079 -0.004635544 0.0054115322 0.022642922
-0.014161917 0.00070466375 -0.0060259067 0.011593364 0.025779964 0.008689438 0.023434505 0.0033027085

backbone.1.running_mean f4 [32]
00000000: 632c c0be 5ac8 803e 645b 923e 1087 0c3e
00000010: c248 86be 6702 bfbe caf1 9cbe fbcb 8f3e
00000020: 8af6 383e baba a23e dbf4 4a3e a9dc c33d
00000030: dd47 19b9 8db8 91be 0314 a5be fcec b4be
00000040: 97e2 1d3e 25ce 3dbe ec65 9dbd 593b 5ebe
00000050: a363 87bd 4025 88be ee30 7cbe d1a7 013e
00000060: 3424 e2bd 4abb 703e d92a f6bd ca43 8dbe
00000070: d7e2 95bd 8a80 3bbe 4931 f1bd ad90 b9be
-0.37533864 0.25152856 0.2858535 0.13723397 -0.26227385 -0.3730652 -0.3065322 0.28085312
0.18062797 0.31783086 0.19819967 0.09563572 -0.00014617988 -0.28461114 -0.3224183 -0.35337055
0.15418468 -0.18535669 -0.07685456 -0.21702327 -0.06610801 -0.2659092 -0.2462804 0.12661673
-0.110420614 0.23508945 -0.12019891 -0.2759078 -0.07318657 -0.18310753 -0.117769785 -0.3624319

backbone.1.running_var f4 [32]
00000000: 9f44 eb3e b602 1c3f 7e48 ec3d 02ad d83e
00000010: 07a2 d33c 245a 823e 7f8e 253f eca7 163f
00000020: 83cd 673d 9e3f 593e df85 833f e077 193e
00000030: 2f1c 6e3d 5618 1c3c 3b7d 203f efe5 623f
00000040: d5e4 623f 9043 413f b535 cb3d d527 df3e
00000050: 705d 053d e0e9 bf3e 4dad 203e d294 203d
00000060: 0ac7 d03d 7b9d 9a3d 925e b93d b250 953d
00000070: 7341 aa3c 4617 053f 467a b73d d032 df3c
0.4595079 0.60941637 0.11537264 0.42319494 0.025834097 0.25459397 0.64670557 0.5884998
0.056592476 0.21215674 1.0275229 0.14987135 0.058132347 0.0095272865 0.62691087 0.886321
0.8863042 0.7549372 0.09922353 0.43585077 0.032559812 0.3748312 0.15691109 0.039204426
0.10194214 0.07549568 0.09051241 0.07290782 0.020783162 0.5198864 0.08958869 0.027245909

backbone.4.weight f4 [64, 32, 5]
00000000: 6345 a53d 3c3e 03bd 2a85 343d 92a8 073d
00000010: f1e9 693d 67e4 08bd f08c 903d a458 11bd
00000020: 54dc c73c baeb 963d dcaa b03c a24c a93c
00000030: 0e5a 7fbc 6d0d 8bbd 885b 353d 9bd7 92bd
00000040: ab18 373d d0ba 803d 05c5 b03d 80d5 cb3a
00000050: d1b2 d0bd 8704 8ebc 233f d33c 7f8f afbd
00000060: 9459 11bd ab38 3dbc 64fd 703c d454 15bd
00000070: 3b4f 16bd 88e5 edbc 2309 33bd 89cd a33d
00000080: 7870 893d 6d16 85bc 8b0d 30bc 4834 5dbd
00000090: 9e2a 94bd 7e80 94bd fb3f bf3b 53e4 21bd
000000a0: 8e82 2cbd a838 49bc 496f 3bbd 35e5 35bd
000000b0: 4270 a8ba b030 04bd 7367 55bd 41b8 1bbd
000000c0: 04e4 4cbd ec7a a83d f1d1 c2bc b76a 4c3c
000000d0: d522 28bd a1bd 393a 0043 b03d 1f32 8a3d
000000e0: ab23 3fbd 89d8 e13c 940b 803d b57f ba3c
000000f0: 1c1c 4f3d 6fc8 8a3d fa65 10bd 3dc5 97bb
00000100: 2bed 76bd 2ba9 24bc 317c 3a3d 1bfa 483c
00000110: c3a2 a6bd 4e3d aabd 2594 38bd 47c9 92bd
00000120: b6b8 66bd f76d 6dbc 330e 743d 9164 3e3c
00000130: 4678 4bbd 70aa 85bd 3868 aa3c 7f8f 36bd
00000140: 8ca9 363b 1a1f 2d3d 1659 01bd e79a 79b9
00000150: a0b1 7b3b b726 2bbc cadf 29bd 067e 85bd
00000160: 9bb3 4fbd 4dc0 bcbc ca10 273d 4734 97bd
00000170: 9d3c a3bd f4cb 963c 1028 aa3c d4dd 383d
00000180: baa2 643d c9b0 ca3c 346e a2bd 54e3 7b3c
00000190: e7bf 7a3c d036 cebc a3ac 88bd d0c3 333d
000001a0: af76 88bc 0797 e1bc 3fbd 7dbd 2ed6 003b
000001b0: e078 de3c 393f d53c 3a90 263d 4daf 3bbd
000001c0: 68e2 8fbd b147 613a ffa0 953d 5bfa 813c
000001d0: cc09 7dbd b00a 02bd 9c9e b5bd ee27 bbbc
000001e0: b141 803c b035 183d 063f 9a3d 7b59 8bbd
000001f0: 8639 783d 40dc 8ebd 5790 743c eced 7b3d
00000200: fa42 3fbc e5c5 5d3d be81 42bd 7974 0dbd
00000210: ae3c 0f3d 6178 b5bc 87cc 9bbc dd55 18bd
00000220: 797e 0c3d daad d83c a0c4 713c 5807 66bd
00000230: d788 c2bd a9fc a3bc a748 b7bb 0328 88bd
00000240: 348d f9bc 8673 5d3d d328 503b 9ef6 91bc
00000250: e558 7abc cd46 76bd 1558 c9bd 0b79 76bd
00000260: 8aad 81bd 8c90 0bbb 721f 5dbc 599d d2bc
00000270: b9e1 993d 265b 133d 0000 8a3d 90b2 8fbc
00000280: 72d4 f3bc eb69 633c c926 93bd 01db 6ebd
00000290: bc3c 2abb 3296 04bd e32e 86bd 908b 143d
000002a0: e1f8 763d 5f46 9c3c e284 35bc 21ea b1bd
000002b0: 5ae2 49bd 14ec 983c 9e60 503d 9a3a 3abc
000002c0: 964f 34bd 162c f73c b99c 5ebd a64e 963d
000002d0: 52eb 7abd 72ae 57bc a7ff 41bc 1fac 70bb
000002e0: 9e62 ccbc 1527 723d 8c84 9abc da78 2b3d
000002f0: c1f5 8b3d d96d 1cbd 444d 66bd be11 553d
00000300: 0354 533d 7e69 82bd e13b 86bb fc87 9ebd
00000310: 82ac 4fbd 8ca0 fa3b 6efb 373c c73c 6b3c
00000320: d803 c2bc 05a5 6d3d a4d3 eabb 92c3 66bd
00000330: 5e80 bbbb 3f9b 8b3a 27bd e33b ae70 76bd
00000340: 5baa 383d 4466 84bc 2f06 95bd 8fbc 6bbd
00000350: 0179 563d d661 793d 7f85 ad3d e995 4f3d
00000360: bff1 3a3d 018a 0bbd cfa4 54bd 35a3 343d
00000370: c8f2 4bbd b0f7 86bd 40e6 17bd 0d42 923c
00000380: 465e 173d d02a 3ebd ad69 a0bd a8a3 a4bc
00000390: e8b3 64bd 6f13 5fbd 1e3a 5b3d 2467 4bbc
000003a0: a2d6 833d 2e80 703d 4723 cf3c 78ac 333d
000003b0: df3d e03c dab0 29bc 2b54 94bc 554e bcbb
000003c0: 8679 0d3d 818a 8a3d 6160 09bd c6df 32bd
000003d0: c89d cfba 9632 0fbd 8c93 bc3b 85f4 4d3d
000003e0: 4b84 893d df5d 753d c68c acbd f89c 8cbd
000003f0: ee31 9dbc c397 52bc eef6 543c f140 97bd
0.08069875 -0.032041773 0.044072308 0.033119746 0.05710787 -0.033420946 0.07058132 -0.035484925
0.024397053 0.0736918 0.021565847 0.020666424 -0.015585436 -0.0678967 0.044276744 -0.0717003
0.04470126 0.06285632 0.086313285 0.0015551299 -0.101903565 -0.017336143 0.025786942 -0.085722916
-0.03548582 -0.011549155 0.0147088505 -0.03645785 -0.036696654 -0.029040113 -0.043709885 0.07998187
0.06710905 -0.016246045 -0.010745416 -0.054004937 -0.07234691 -0.072510704 0.0058364845 -0.039524388
-0.042116694 -0.012281574 -0.045760427 -0.044408042 -0.0012850838 -0.032272995 -0.05210061 -0.038017515
-0.05002214 0.082265705 -0.023781748 0.012476615 -0.041048843 0.0007085447 0.08606529 0.06747841
-0.046664875 0.027569072 0.06252208 0.022765974 0.050563917 0.06776511 -0.035253502 -0.004631667
-0.060284775 -0.010050098 0.045528594 0.012266661 -0.08136513 -0.08312474 -0.045063157 -0.07167297
-0.056328498 -0.01449155 0.059583854 0.011620657 -0.04967525 -0.06526649 0.020801648 -0.044570442
0.0027872054 0.04226599 -0.0315791 -0.00023804196 0.0038405433 -0.010446242 -0.041473188 -0.06518178
-0.050708394 -0.023040915 0.040787496 -0.07383018 -0.079705454 0.0184078 0.020771056 0.045133427
0.05581925 0.0247425 -0.07931176 0.0153740235 0.015304542 -0.025172621 -0.06673553 0.043887913
-0.016658155 -0.027537836 -0.061948057 0.001965891 0.027157247 0.026031123 0.04066489 -0.045821477
-0.070256054 0.00085937517 0.07306098 0.01586645 -0.06177692 -0.031748474 -0.08868143 -0.022846188
0.015656324 0.037160575 0.07531552 -0.068041764 0.060601734 -0.06975603 0.014926991 0.061506197
-0.011673683 0.054143805 -0.047487013 -0.034534905 0.034969978 -0.022152128 -0.019018425 -0.03719126
0.0343003 0.026450086 0.014756352 -0.056159347 -0.094987564 -0.020017939 -0.0055933776 -0.06648257
-0.030462839 0.05406525 0.0031762614 -0.017817792 -0.015279983 -0.060126115 -0.098312534 -0.06017403
-0.06331928 -0.0021295873 -0.013496267 -0.025709795 0.07513756 0.035975598 0.06738281 -0.0175412
-0.029764388 0.013880233 -0.07185132 -0.058314327 -0.0025976142 -0.0323698 -0.06551912 0.03626591
0.060295943 0.019076524 -0.011079045 -0.08687235 -0.04928813 0.018667258 0.05087339 -0.011366511
-0.04402121 0.030172389 -0.05434868 0.0733922 -0.061259575 -0.01316415 -0.011840737 -0.0036723686
-0.024949368 0.059119303 -0.018862031 0.0418633 0.06833983 -0.038190696 -0.05622603 0.052018873
0.05159379 -0.06367777 -0.0040964936 -0.07740781 -0.050701626 0.007648533 0.011229379 0.014357752
-0.023683473 0.058018703 -0.007166343 -0.056338854 -0.0057220897 0.0010651125 0.006950039 -0.060166053
0.04508434 -0.016162045 -0.0727657 -0.05755287 0.052361492 0.06088432 0.08472728 0.050680075
0.045640703 -0.034067158 -0.051914986 0.04410096 -0.04979208 -0.065902114 -0.037084818 0.017853761
0.03695514 -0.046427548 -0.07832656 -0.020097569 -0.055835634 -0.054461893 0.05352222 -0.012414727
0.06437422 0.05871599 0.025285376 0.04386565 0.027373252 -0.010357106 -0.01810654 -0.0057466426
0.034539722 0.06764699 -0.03353918 -0.04367044 -0.0015839869 -0.034960352 0.0057548936 0.05028202
0.06714686 0.059903976 -0.08425288 -0.06865877 -0.019188847 -0.012853566 0.012998326 -0.073854335

backbone.4.bias f4 [64]
00000000: b357 953d 9ec5 d6bc e587 ac3c 94af a139
00000010: 32a8 573d 64bb 0b3d 724e 7bbb c9ab 313d
00000020: 9c18 8abb 572e 51bc 743c febc c772 84bd
00000030: efa5 873d a02a 4ebd 5111 99bd 6a07 12bd
00000040: 9240 833c 7afe f1bb f447 113d 3d01 343d
00000050: a9ba 3f3d 285c 87bd 0c7d 063d 4c00 1e3d
00000060: a869 33bd f241 2c39 8470 1e3c a5b3 1d3c
00000070: 730a 313d a08b 893d bdbb 9b3d 7abf 913c
00000080: 9cf9 373d 0c93 093d c065 2ebd e501 5d3d
00000090: ddfc ccbb b887 033d 34a3 5abd cac7 803d
000000a0: ed57 953c 65e5 943c a976 8dbd f269 d7bb
000000b0: 7e13 e0bc 7bb7 943d e51e 9cbd 3b29 a0bc
000000c0: 2885 1bbd 53a1 6abd b67a fc3c 0334 5bbd
000000d0: 6b9d 183d 3044 183c 2b01 2abd 0a08 13bc
000000e0: 1af8 d33b 0934 13bd 7048 50bd 7605 3abd
000000f0: 0b47 963c a55a 8fbd be40 4d3d 61b3 553d
0.07292118 -0.026217278 0.021060893 0.0003083913 0.052650638 0.034114257 -0.0038346318 0.043376718
-0.0042143594 -0.012767396 -0.031034686 -0.064672045 0.06623446 -0.05033362 -0.07474006 -0.0356516
0.016022 -0.0073850723 0.03546901 0.043946493 0.046808872 -0.06609374 0.032834098 0.038574502
-0.043801934 0.00016427765 0.0096703805 0.00962535 0.043222856 0.067160845 0.076041676 0.017791498
0.04491578 0.0335875 -0.042577505 0.053956885 -0.0062557296 0.032111853 -0.0533783 0.06288107
0.018230403 0.01817579 -0.06907398 -0.006573909 -0.027353045 0.072615586 -0.0762308 -0.01955091
-0.037968785 -0.057282757 0.030820232 -0.0535164 0.0372595 0.009293601 -0.04150502 -0.008974085
0.006468785 -0.035938296 -0.05085033 -0.045415364 0.018344423 -0.06999711 0.05011057 0.052173022

backbone.5.weight f4 [64]
00000000: 326d 843f 8774 843f ac80 823f df5e 823f
00000010: ab91 7f3f 044e 7b3f 1065 7a3f 68a9 763f
00000020: 3141 773f 1230 7a3f 5694 843f add2 773f
00000030: 202a 833f a9cc 773f 311f 793f a951 803f
00000040: 84a8 7a3f b2e6 7f3f 259f 823f d75f 7f3f
00000050: fa1a 853f 2fe5 763f 3be3 773f 09d8 7d3f
00000060: 9ecd 803f bcfe 7d3f 2e4e 843f fe1c 7c3f
00000070: afdf 803f bf33 773f 199e 7b3f 9a25 783f
00000080: b712 803f f557 7a3f 66fb 7b3f ddfd 7c3f
00000090: b36a 7c3f d951 793f 15df 783f 0f49 7b3f
000000a0: 4bc4 803f 1de2 7b3f 7c8c 7f3f 8740 7b3f
000000b0: 1c8f 7b3f e482 823f cf46 843f a039 7a3f
000000c0: 71cd 813f 7c59 753f fc15 783f eab3 803f
000000d0: 2ff3 7e3f 18ab 7a3f cfd0 763f d806 7c3f
000000e0: 65cc 7a3f cf13 7a3f ad4f 783f 94e3 813f
000000f0: f11d 7b3f a50c 7b3f 575c 7a3f 82ce 843f
1.0345824 1.0348061 1.0195518 1.0185202 0.99831647 0.9816592 0.9781046 0.96352243
0.9658385 0.977296 1.0357769 0.9680584 1.024723 0.9679666 0.9731322 1.0024921
0.97913384 0.9996139 1.0204817 0.99755615 1.0398858 0.96443456 0.968311 0.9915777
1.0062749 0.9921682 1.0336359 0.9848174 1.0068263 0.96563333 0.9828811 0.96932375
1.0005711 0.9779046 0.9843048 0.98824865 0.9860031 0.97390515 0.97215396 0.98158354
1.0059904 0.98391896 0.9982374 0.98145336 0.9826524 1.0196195 1.0334109 0.9774418
1.0140821 0.9583967 0.96908545 1.0054905 0.9958982 0.9791732 0.96412367 0.9844794
0.9796813 0.97686476 0.96996576 1.0147576 0.9809256 0.9806617 0.9779715 1.0375521

backbone.5.bias f4 [64]
00000000: a3fa e4bc a1af fbbb 4fe0 ddbc 36ac 4bbc
00000010: 1ffb e5bc 556b 97bb 91c3 6fbc 172c debb
00000020: e24b aabc f375 033c de94 9bbc 7045 35ba
00000030: cc9a e1bc 1326 d6bc 960f e2b9 0367 413c
00000040: bb8e e3bc 5820 9dbc 80a0 a03c 65a2 92bb
00000050: 7240 55bc aa7f 533a 2b8b 7fbc 4861 2a3c
00000060: fc90 793c 8d39 113c aaa0 d7bc 19e1 2c3c
00000070: 819f 383a 1ccf e9bc accd 6d3c 1f04 85bc
00000080: bf86 77bc f846 adb9 b511 3bba 7280 89bc
00000090: 9315 afbb 41f4 0bbd 7d3c b2bb 4fe3 393b
000000a0: 62d2 903c a4ff b8bc 2fec 04bd d3ac f8bb
000000b0: 549e 7f3c 30e9 a8bc 47da dbbc e5e3 bfbc
000000c0: 1e02 a5bc 5f62 90bb 3e5e 403c ceb6 553c
000000d0: d908 a23c 0786 8cbc ba6c 09bd a46f ed3b
000000e0: 58cc c43b 514b 4dbb 11b6 863c f27e 603c
000000f0: 79ad cabc b4e4 d93b 6381 10bd b33b 04bd
-0.027951544 -0.0076808487 -0.027084498 -0.012431195 -0.028073845 -0.0046209493 -0.014634029 -0.0067801583
-0.020788137 0.008023727 -0.018991884 -0.0006914949 -0.027539633 -0.026141202 -0.00043117692 0.011804345
-0.02777802 -0.019180462 0.019607782 -0.0044749253 -0.013015853 0.00080680347 -0.015597145 0.01039917
0.015232321 0.008863819 -0.026321728 0.010551714 0.0007042811 -0.02854114 0.014514368 -0.016237317
-0.01510781 -0.00033050007 -0.00071361224 -0.01678488 -0.005343148 -0.034168486 -0.0054393397 0.0028364246
0.017678443 -0.022582836 -0.032451805 -0.0075889616 0.015601713 -0.020619005 -0.026837481 -0.023424098
-0.020142611 -0.004406258 0.011741219 0.013044072 0.01977961 -0.017153753 -0.033550955 0.0072459746
0.006005805 -0.003132541 0.016444238 0.013702141 -0.024740921 0.006649578 -0.035279643 -0.032283496

backbone.5.running_mean f4 [64]
00000000: bb35 0fbf a562 06bf c2b5 5abf 6462 7b3e
00000010: ff77 bdbe 4978 4a3e 1828 dc3e 86e0 b9be
00000020: c7ca aa3b 9d70 2cbf 9f4c 28bf 08c2 ecbd
00000030: 7ff4 1cbf bc06 e9bd f1bc 8e3e dc8b 92bf
00000040: 1b17 59be a7cf f5be 39af db3e 8444 49bf
00000050: ba45 0cbf f97b 0cbf 524e 33be e14a ab3e
00000060: 5557 19bf 12a3 32bf c07c 45bf a409 60bf
00000070: dc2d 213f 0cf0 48be 8f69 1bbe ed23 843e
00000080: 9461 d4be 20b1 c63e 4523 5d3e 61c5 abbd
00000090: c6ef 5fbf 046b 8ebe adc3 f4be 1752 6a3f
000000a0: 98e2 f83e e98b 073e bcaf 1bbf 643d 0bbf
000000b0: f6cc b2be b66c 5fbe db41 30bf cc1c acbd
000000c0: b98e 7abf f777 cdbe cd7a fbbd 22f6 47bf
000000d0: 3432 1dbf e2fd 63bd ac52 73be 6353 93be
000000e0: 02c4 5cbf 1d1a f1be 7ef3 93be 41c5 e9be
000000f0: 9936 11bf 2e99 53bf 566f 43be afa6 a8be
-0.5594136 -0.5249427 -0.8543359 0.24549252 -0.37005612 0.19772448 0.4299934 -0.3630411
0.005212161 -0.67359334 -0.65741915 -0.11560446 -0.6131057 -0.113782376 0.27878526 -1.1448932
-0.2120022 -0.4800999 0.42907122 -0.7862017 -0.54793894 -0.5487667 -0.17510346 0.33455566
-0.59898883 -0.69780076 -0.7714348 -0.8751471 0.629606 -0.1962282 -0.15176986 0.2580866
-0.41480696 0.3880701 0.21595486 -0.083872564 -0.8747524 -0.2781602 -0.4780554 0.9153151
0.48610377 0.13236965 -0.60815024 -0.5439055 -0.34921998 -0.21818814 -0.6885049 -0.0840393
-0.9787403 -0.40130588 -0.12279282 -0.78109944 -0.6140473 -0.055662043 -0.23762006 -0.28774557
-0.86236584 -0.47090235 -0.28896707 -0.45658305 -0.56723934 -0.8265561 -0.1908544 -0.3293967

backbone.5.running_var f4 [64]
00000000: 2eed 453e 36e2 053e 81a2 8b3e 77bc 1e3e
00000010: efb4 813e b305 ff3e d6ad 153f a127 943e
00000020: e7db 0b3f c837 793e 0488 303e 14df f63e
00000030: dd04 383e 23f2 c13e d3fa f23d 9a7b a53e
00000040: 8df9 523e 449d 4f3e 162d 0a3e 3e1d 3d3e
00000050: 75b7 2f3e f29a b73e fdca a33e 8268 853e
00000060: e8e4 7b3e 5e27 5f3e 08f9 5a3e f280 943e
00000070: c4bd 5a3e 4d48 113f b293 a23e 7c12 da3e
00000080: a24b 123e cb38 a93e 1648 893e f230 fb3d
00000090: 08f0 593e da69 583e c4ed 973e aae0 ef3e
000000a0: 329f 353e 3748 b33e edd7 413e 987a 7f3e
000000b0: 3ca0 8e3e 6f1e cc3d 7877 253e 3db0 7d3f
000000c0: d7f4 993e 0500 4d3f 196e e63e 96a5 213e
000000d0: d08c 4d3e bd35 b13e b36c 0c3f 5b33 fb3e
000000e0: a961 a03e 42d2 2c3e 44b2 0d3e a555 423e
000000f0: b047 493e 9905 d73e 6fa0 a03e 03cb 083e
0.19328758 0.13074574 0.27272418 0.15501581 0.25333354 0.49809036 0.5846838 0.28936484
0.5463242 0.24337685 0.17239386 0.4821707 0.17970605 0.37880048 0.11864247 0.32320863
0.20603009 0.20274836 0.13493761 0.18468186 0.17159827 0.358604 0.31990805 0.26056296
0.2459904 0.21792361 0.2138406 0.29004627 0.21361452 0.5675095 0.31753308 0.42592227
0.14286664 0.33051142 0.2681281 0.12265195 0.21282971 0.21134129 0.29673588 0.46851093
0.1773651 0.35016033 0.18930025 0.2494911 0.27856624 0.09966742 0.16158855 0.99097043
0.3006961 0.80078155 0.45005873 0.15785822 0.20073247 0.34611312 0.5485336 0.4906262
0.3132451 0.16877082 0.13837534 0.18977983 0.19656253 0.41996458 0.313724 0.13358693

backbone.8.weight f4 [128, 64, 3]
00000000: 0c9c b53d 7e2a a43d ac14 9abc b459 48bb
00000010: da10 a03d 8e80 9b3c 447a 0dbd aaf6 34bc
00000020: 5c16 9b3d 5016 debc f4a2 643d 506d 86bc
00000030: e2e3 6b3d 25b5 2b3d 2d83 8b3d 5d52 a33b
00000040: eaf8 353d 72c5 a43d 2f48 023c c7ff 15bd
00000050: f402 22bd 8260 d73c 8dca 81bd 8cbb 8fbd
00000060: da5e 45bd bf2b c4bc d168 1a3c d502 efbc
00000070: 5f72 21bc 5775 923d 84b1 0a3c 3be4 aab8
00000080: 3cfa 603d ec68 93bd cb91 5cbd 2200 d63c
00000090: e2be 3b3d 2973 43bd 85ee 8b3d 3b74 42bd
000000a0: a15b 3e3b c052 533d 4d95 cf3c ef61 2a3d
000000b0: 935d 18bd 2f97 aabd c087 4a3c 2782 71bc
000000c0: 0984 603d 2d65 2b3d 649c 86bd 6aa0 083d
000000d0: 44c9 dcbc fb45 0fbd 1af0 243d 2835 a53c
000000e0: ffe1 72bc 1969 5d3b 831d 053d d03c 91bd
000000f0: 145e b83d d3d5 813d fae9 923c cd97 90bd
00000100: ed98 1fbd 9d76 003d f5a3 3bbc a71c ffbc
00000110: 92c6 1abd 06e9 b63d 7c18 9a3d baa0 d3bc
00000120: fb32 18bd 8674 763d 714f 65bc 8abe 50bd
00000130: f193 76bb 9e97 4e3d a09b 293c fdb8 46bd
00000140: d6e7 25bc 7ed6 883c 1c29 ecbc a6f2 283d
00000150: 021a 023d 79b9 bb3c 19ed 673d 634f d1b9
00000160: cbf3 6abd 1cdc 47bd af7b 8fbd 66cc 0ebc
00000170: 0cbe dcbc 4c04 8fba 052f 933c 44fd 963d
00000180: 1b97 a6bb dfd3 163c 3d29 5d3c c62f a6bc
00000190: 80b6 12bd bee9 47bd 0953 47bd 9257 9d3c
000001a0: 4b57 79bc 6128 743c cc7b 243c d178 643d
000001b0: 302c 77bc 21d7 d83b 00c3 333d 5499 be3c
000001c0: 57a6 cb3c ea98 22bd b325 82bd 2b15 523d
000001d0: d416 8e3d 077b 10bd 0c66 b93c f705 2bbd
000001e0: 6c14 803c e14f 7cbd 6b6b 983d 599a 39bd
000001f0: 4e45 95ba 7c43 c13d 1eb7 ccbb 3548 bcbc
00000200: 9a10 c43d 5670 65bc 76c1 a13c 4b01 ff3c
00000210: f320 833c 7950 09bd 2a71 bc3d 6f9c 553d
00000220: 9571 2dbc c7b1 09bb dc30 223c 640e 573d
00000230: dff6 4c3d 2227 71bb 71e0 2d3d 743e 973d
00000240: 4a35 ee3c 0bd8 103d 741c 463d 7c20 1b3c
00000250: 8ecf 133c 84e6 813d a533 353d f2e5 453d
00000260: 063f 22bc 0827 24bd d9b9 36bd 4b7c 97bd
00000270: e1e9 4839 a176 053d 6458 103c 03b6 69bb
00000280: 7216 423a 3a43 15bd 1c8f 70bd 4b0c 053c
00000290: 9525 0bbd 86ef 0dbc 8421 3f3d cbaa 273c
000002a0: 1dff 7b3d e0b1 f0bc 26ed 143c 7521 7dbd
000002b0: 3893 7a3b db43 1dbd e5d9 703d 6524 62bd
000002c0: 84df 3f3d 6490 23bd 2c8a f83b 76ca 5dbb
000002d0: 5360 08bd 0e52 16bd 74aa 1a3d da3c a0bc
000002e0: cf55 1d3b 22b6 e0bc 3fd1 59bd ff3a f1bc
000002f0: 07eb 863d 74ad b63d eac1 0dbc c1f1 fa3c
00000300: 5bd3 ccbc fec8 df3c 2c40 8dbc 1755 e1bc
00000310: 8378 70bd 9b3c b5bc 7592 d5bd ac62 ccbd
00000320: e8a4 c3bc 0c4e 9abd a77e 92bd 7b2a 47bd
00000330: 3891 9d3c 9a47 343c c1d8 16bd 7913 be3b
00000340: 24fc 753d 4998 cb3b e5c8 4b3d ece2 cebc
00000350: 1e5a 56bd e456 3fbc 4ecb bd3c 73a5 1fbc
00000360: 55ae 04bd a4cf 7c3d deec 8dbd c71e 5b3b
00000370: 7b0f 743c c8a3 afbc a475 17ba 6494 fdbc
00000380: d5ce 83bd 549f febb 5791 a7bc 9eab 72bd
00000390: 542f 2a3c f5a7 0c3d 1be1 6ebd 6cc4 903c
000003a0: 2710 343d 71e2 093d 8bbd 0dbd 6925 26bd
000003b0: b23d 7f3d 043d 773d e445 953d d13c 7f3d
000003c0: 8316 143c d26e 643d ea3a b43c e882 48bc
000003d0: 9a99 e9bc b089 873d facc 29bd 0160 9eba
000003e0: 4070 73bd 5711 443d 5b72 42bd 19ab f0bc
000003f0: 4b13 34bd 6253 2fbc 3fef c9bc 8cec eb3c
0.08867654 0.08015917 -0.018808685 -0.0030571045 0.07815714 0.018982198 -0.03454043 -0.011045137
0.07572624 -0.027110249 0.055819467 -0.016409546 0.057590373 0.0419208 0.06812129 0.0049841837
0.044426836 0.08045472 0.00795178 -0.03662088 -0.039553598 0.026291136 -0.063374616 -0.070181936
-0.04818616 -0.023946641 0.009424404 -0.029176155 -0.009853928 0.07151287 0.008465175 -8.148743e-05
0.054926142 -0.07197747 -0.053849977 0.02612311 0.045836337 -0.047717247 0.06832603 -0.047474127
0.0029046314 0.05159259 0.025339747 0.041597303 -0.037198614 -0.08329617 0.012361467 -0.014740503
0.05481342 0.041844536 -0.06572798 0.033356108 -0.02695144 -0.034978848 0.04026804 0.020166948
-0.0148243895 0.0033784567 0.032498848 -0.07091677 0.09002319 0.06339612 0.017933834 -0.07060204
-0.0389642 0.03136312 -0.011452665 -0.031141592 -0.037787028 0.089311644 0.07524201 -0.025833476
-0.037157994 0.06016972 -0.013995991 -0.050962962 -0.00376248 0.050437562 0.010352045 -0.048516262
-0.010126075 0.01670384 -0.028828196 0.041247033 0.031763084 0.022915589 0.0566226 -0.00039922734
-0.057361405 -0.048793897 -0.07006013 -0.008715725 -0.02694609 -0.0010911315 0.017966757 0.07372525
-0.005083931 0.009205787 0.0134986015 -0.020286452 -0.035818577 -0.0488069 -0.048663173 0.019206796
-0.015218566 0.014902205 0.010039281 0.055779282 -0.015086219 0.0066174422 0.04388714 0.023266472
0.02485959 -0.03969661 -0.06354847 0.05128972 0.06937948 -0.035273578 0.022631668 -0.041753735
0.015634738 -0.061599616 0.07442363 -0.045313213 -0.0011388452 0.094367 -0.006247415 -0.02298365
0.09573479 -0.014003834 0.01974557 0.031128546 0.016006922 -0.03352401 0.09201272 0.05215114
-0.010586162 -0.0021010505 0.009899344 0.05250396 0.050040122 -0.0036797007 0.042450372 0.07384959
0.029078145 0.035362285 0.04836698 0.009468194 0.009021653 0.063427955 0.044238705 0.048314996
-0.009902721 -0.040076286 -0.044610832 -0.07396754 0.00019160613 0.032583836 0.0088101365 -0.0035661466
0.00074038573 -0.036441065 -0.05873023 0.008120607 -0.033971388 -0.008663064 0.046662822 0.010233591
0.06152259 -0.029381692 0.009089744 -0.061799485 0.0038234722 -0.03839479 0.05880155 -0.05521049
0.04684402 -0.039932624 0.0075848307 -0.00338426 -0.033294987 -0.036699347 0.037760213 -0.019560266
0.0024007445 -0.027430598 -0.05317807 -0.029447077 0.06587797 0.08919802 -0.00865219 0.030632855
-0.025003126 0.02731752 -0.017242514 -0.027506394 -0.05870868 -0.022123626 -0.10428325 -0.09979758
-0.023882344 -0.075344175 -0.07153063 -0.048624497 0.019234285 0.011003399 -0.036827806 0.005800661
0.060054913 0.006213222 0.049752135 -0.02525469 -0.052332036 -0.011678431 0.023168232 -0.009744036
-0.03239282 0.06172146 -0.069299445 0.0033435093 0.014896269 -0.021440402 -0.00057777227 -0.030954547
-0.064359345 -0.0077704582 -0.020455046 -0.0592457 0.0103872605 0.034339864 -0.058320146 0.017671786
0.043960717 0.033663217 -0.03460459 -0.04056302 0.062314697 0.060360923 0.07288721 0.06231386
0.00903857 0.05576975 0.022000749 -0.012238242 -0.028515626 0.06618059 -0.041455247 -0.0012083055
-0.05943322 0.0478681 -0.04747234 -0.02937846 -0.04396371 -0.010701032 -0.024650214 0.028799318

backbone.8.bias f4 [128]
00000000: ab59 e43c 28cb 36bd 4826 743d 0b76 783c
00000010: d91f a6bc cc76 143d b080 31bc 055b 5a3c
00000020: dd3a 373d a435 8ebd 2710 5c3d 6f3d 763d
00000030: 687a aa3b b2b3 7abd c38f a23c 125a 203d
00000040: 96f4 6dbd 88dd 8d3d c39b 273c 2811 c1bc
00000050: 1ecd 37bd b919 86bd 74e6 52bd 73e3 393d
00000060: db4e f1bc adf8 30bd bee3 24bc 9e0f 553d
00000070: ec3f 87bd e7ac 6ebc c521 dabb b11f 573c
00000080: 9e25 3bbd 2a52 80bb ecb3 793d 1569 4ebd
00000090: 2418 923d 33ea 323d 6d92 65bd a380 aeba
000000a0: 2d6a 243d 40d1 a9ba c3ef 1fbd 5829 21bd
000000b0: f875 08bc cb2e 44bd 7346 86bb ff23 e83c
000000c0: 355b f43c dabc 75bc 4fe7 bf3c 5b1f edbc
000000d0: 3eef e5bc 06d8 36bd 80e9 25bd 716f 2e3c
000000e0: a2c0 183d 23b6 773d e74f 193d e5e7 3b3d
000000f0: 12c0 983c 1401 98bc f6e2 363d 5c4a 0cbd
00000100: 7ae4 1b3d 3da0 d6bc 9dab 9aba 7d0d ed3c
00000110: 1234 203d 9c8e 6b3a 6bda 323d 976f 903d
00000120: 0c49 2f3d e91a 1a3d 9043 12bd dab6 623d
00000130: 590a 4abd 4e74 bdba 84f6 9b3c 67f0 e7ba
00000140: cf2b 863d 0e2f d6bb 2660 1e3d 5e26 823d
00000150: aa36 743c ad37 13bd 0a64 223c 2cd3 89bd
00000160: dcf6 b93c ff33 e73c 28e8 0cbc 7bef 913c
00000170: 43ed 78bd 3a8d 333d a6f0 493c 9956 683c
00000180: 8484 b4bc abcd 933c e7e4 abbc 729b 553c
00000190: ae8f 96bc 3e8a 633d 2837 583d 3995 82bc
000001a0: 075c 2cbc 9f40 6d3d 153d a23c 876e c13c
000001b0: 8017 8a3d c6ad 66bc 78da 9ebc 9670 c2bc
000001c0: a6f0 843d 0002 7c3b 9f62 393d 6c65 abbc
000001d0: e817 66bd 1cf0 a53c a0b5 15bd ea79 063d
000001e0: 09ea cabc e8ad 663d fae4 0c3d ba7e 0bbd
000001f0: b956 83bd 121c 8dbd 11d5 2dbd decd bcbc
0.027874788 -0.04462734 0.05960682 0.015164862 -0.020278858 0.036246106 -0.010833904 0.013327365
0.04473387 -0.06943825 0.05372634 0.06011718 0.0052025802 -0.061206527 0.019843942 0.039148398
-0.058094583 0.06927019 0.010230008 -0.023567751 -0.04487335 -0.06547875 -0.05148931 0.045382928
-0.029456547 -0.043205906 -0.010064064 0.052016847 -0.06603989 -0.01456759 -0.0066568577 0.013130114
-0.04569017 -0.0039160447 0.060962602 -0.050393183 0.07133511 0.04368038 -0.056047846 -0.0013313483
0.04014032 -0.0012956038 -0.039047014 -0.03934607 -0.008328907 -0.047896188 -0.0040977537 0.028337477
0.029828647 -0.014998639 0.023425726 -0.028945616 -0.028068181 -0.04463961 -0.040505886 0.010646687
0.037293084 0.060476433 0.037429716 0.04587545 0.018646274 -0.018555202 0.04465004 -0.034250602
0.03805969 -0.026199454 -0.0011800412 0.028937096 0.039112158 0.0008985789 0.04366533 0.07052534
0.042794272 0.03762332 -0.035708964 0.055350162 -0.049326275 -0.0014454217 0.019038446 -0.0017695547
0.065513246 -0.006536371 0.038665913 0.06354974 0.014905611 -0.03594177 0.0099115465 -0.06729731
0.02270072 0.028223036 -0.008600272 0.017814388 -0.060773145 0.043835856 0.012325441 0.014180803
-0.022035845 0.018042406 -0.020983173 0.013037549 -0.018379059 0.05555176 0.052786976 -0.015940296
-0.010519988 0.057922956 0.019804517 0.023612274 0.067427635 -0.014079517 -0.019391283 -0.023735326
0.064912125 0.003845334 0.045260068 -0.020922385 -0.056175143 0.020256095 -0.036550164 0.03283111
-0.0247698 0.056318194 0.034398057 -0.034056403 -0.064130254 -0.068901196 -0.042439524 -0.023047384

backbone.9.weight f4 [128]
00000000: dbec 803f d54d 833f 32e6 833f 1e65 843f
00000010: c4d2 833f 0ec9 833f 6e80 843f 41a4 833f
00000020: 4418 823f 348e 803f 3266 843f 1554 843f
00000030: 74f4 823f 962a 823f e846 833f 8f2b 823f
00000040: 11ca 833f 11f4 823f cba4 823f f210 823f
00000050: c750 833f bc69 813f 74f8 823f ff31 7d3f
00000060: 3bab 833f 7917 823f 4f16 853f 6c08 833f
00000070: 4666 833f 6533 823f 481b 813f 8811 843f
00000080: 44c7 803f 75b7 823f e522 823f 19bb 823f
00000090: 7fba 833f 8e84 823f aabf 7e3f 21c9 823f
000000a0: 4137 843f 9ad6 833f c4c8 813f 105a 843f
000000b0: 9144 833f 81ea 823f 9ded 833f 5caa 7f3f
000000c0: 235f 823f 4d57 833f 6134 843f 081f 813f
000000d0: 9c14 843f 2e87 843f ee3f 853f 337f 833f
000000e0: df79 833f 44b6 833f 07a0 803f 7cad 833f
000000f0: 57eb 7f3f 0354 793f 8852 833f b3cb 843f
00000100: 949f 833f b116 803f cd97 833f fd62 833f
00000110: 8c7c 833f 352d 843f 3d8c 833f 6841 823f
00000120: c210 813f 8db8 833f 50dd 833f ac47 823f
00000130: 6c4c 813f 6c70 833f 34a9 833f 7613 833f
00000140: 6c62 843f b4be 813f c390 823f 4c12 833f
00000150: dff3 833f 701e 833f e4cd 823f 4403 843f
00000160: bf5b 7f3f 4b64 823f 6870 833f af61 7d3f
00000170: fff3 833f 5500 803f daf9 823f baca 813f
00000180: 10ad 833f cf1d 823f c56c 843f b2fb 833f
00000190: 1bc3 833f 2910 823f 2e72 823f d2ec 823f
000001a0: 5c90 823f 3b7c 813f d018 823f b5fb 843f
000001b0: fd21 833f a0e9 833f 76ba 843f 74ba 803f
000001c0: 231e 843f 032b 833f 5c24 823f fea1 823f
000001d0: 5860 843f 3811 7f3f 8c2c 7f3f 3fa5 833f
000001e0: ed0f 843f 8e8a 803f 6554 833f c410 823f
000001f0: f24c 833f a95b 843f 9608 833f e05e 823f
1.0072283 1.0258127 1.0304625 1.0343359 1.0298696 1.0295732 1.0351694 1.0284501
1.0163655 1.0043397 1.0343688 1.033816 1.0230851 1.0169246 1.0256014 1.0169543
1.0296041 1.0230733 1.0206541 1.0161421 1.0259026 1.0110393 1.0232072 0.98904413
1.028663 1.0163413 1.0397433 1.0236945 1.0265586 1.0171934 1.008645 1.031785
1.0060811 1.0212237 1.0166899 1.0213348 1.0291289 1.0196702 0.99511206 1.021763
1.0329362 1.0299866 1.0139394 1.0339985 1.02553 1.0227815 1.0306889 0.9986932
1.0185283 1.0261017 1.0328485 1.0087595 1.031879 1.0353754 1.0410135 1.0273193
1.0271567 1.0289998 1.0048836 1.0287318 0.99968475 0.97393817 1.0259562 1.0374664
1.0283074 1.0006925 1.0280701 1.0264584 1.0272384 1.0326296 1.0277172 1.017621
1.0083239 1.0290695 1.0301914 1.0178123 1.0101447 1.0268683 1.0286012 1.0240314
1.0342536 1.0136323 1.0200428 1.0239959 1.0308799 1.0243664 1.0219083 1.0313497
0.9974937 1.0186857 1.0268679 0.9897718 1.0308837 1.0000101 1.0232499 1.0139992
1.028719 1.0165347 1.0345694 1.0311186 1.0293916 1.0161182 1.0191095 1.0228522
1.0200305 1.0116037 1.0163822 1.0389315 1.0244747 1.0305672 1.0369403 1.0056901
1.0321697 1.0247501 1.0167346 1.0205686 1.0341902 0.9963565 0.9967735 1.0284804
1.031736 1.0042284 1.026013 1.0161366 1.0257857 1.0340472 1.0236995 1.0185204

backbone.9.bias f4 [128]
00000000: b22e d2bb 35b9 a43c 096c ac3c 19ee ba3c
00000010: 6196 af3c 4a28 403c b128 b43c 3d78 c93c
00000020: 7195 733b ed43 533b b9e9 dd3c 8da9 d13c
00000030: ca4b 603c 6a5c 193b 967b c03c ae21 45ba
00000040: afef e03c 4f6e ab3c 66b5 5d3c 715c 423c
00000050: 7ab0 0f3c 08f7 c4bb 72c3 813c 38c5 4cbc
00000060: dc16 183c aa77 f0ba a29e 0b3d 1f2d 013c
00000070: 7c69 2c3c aab8 3e3c 9ede 153c f65a b93c
00000080: 75ea a1bb 0790 883b 15b8 9a3c 6de1 8b3b
00000090: c02c c23c 10f2 e53b 4ccd 5cbc 6a38 a33c
000000a0: 48dc c93c c2e6 a13c 31a6 303c b2fb c53c
000000b0: 3a0a 2c3c 4154 3c3c 2bfd 9d3c 9ace 59bc
000000c0: bb94 4c3c 9078 263c b93f e73c 978d 653b
000000d0: 5be5 b53c 5aad e03c 4279 0f3d 10cb 923c
000000e0: a8da b03c 7ba5 4b3c 8c85 3ebc 1421 923c
000000f0: b12a 96bb 8f65 eabc 238c a33c 8f87 103d
00000100: 9675 b83c c2d3 fdbb 5f73 983c 08bd 363c
00000110: 49d1 e93b aeb1 d23c 17c0 ba3c e9b4 443c
00000120: f8ad e1bb a57c bb3c 5ce7 8d3c 9077 07ba
00000130: e33c 2f3c 5268 a83c 4fb0 313c 86d0 963c
00000140: 3c94 e23c bd36 2abb 0db3 de3b f32b 1c3c
00000150: fbcb cb3c 1699 c43c 54cb 973b 0561 c03c
00000160: 7438 c13a 61dc 823c 2f50 b63c 64cd 27bc
00000170: a9ea ae3c d4b0 ecbb 2960 083c f656 543c
00000180: a9e8 883c bc2c 963b 9598 eb3c c352 ba3c
00000190: 8677 c93c 959b 1a3b a2c0 1f3c 8f60 8c3c
000001a0: dbd7 bd3b 6450 50bb 7d52 9d3c 08be 023d
000001b0: 5cb2 b63c 986b c63c f2ee e73c 283d c0bb
000001c0: 945c 923c c4d1 b03c 7a5d 0e3a 91ef 6c3c
000001d0: 1bce be3c 88f5 66bc 67ea 133b fa7b 4f3c
000001e0: 3deb ca3c 4733 25bc 03bc 6c3c d7aa 793c
000001f0: 483d 2b3c f324 d83c e026 b93b 2ae8 d33b
-0.006414258 0.020107845 0.021047609 0.022818612 0.021434011 0.011728356 0.02199206 0.024593467
0.0037167931 0.0032236532 0.027088987 0.025593543 0.0136899445 0.002340103 0.02349643 -0.0007519972
0.02745804 0.020926623 0.013532018 0.01186286 0.008770103 -0.0060108937 0.015840266 -0.0124981925
0.009282794 -0.001834621 0.03408683 0.007884293 0.010523196 0.011640707 0.009147314 0.022626381
-0.0049412795 0.00416756 0.018886605 0.004268816 0.02370298 0.0070173815 -0.013476681 0.019924361
0.024641171 0.019763354 0.010781811 0.02416787 0.010500485 0.011494697 0.019285759 -0.013293887
0.012486632 0.01016058 0.028228628 0.003502702 0.022204092 0.02742641 0.03502775 0.017919093
0.021588638 0.01242959 -0.01162852 0.017838039 -0.004582726 -0.02861288 0.019964283 0.03528553
0.022517007 -0.0077461908 0.0186097 0.011153467 0.0071355444 0.02571949 0.022796674 0.012006023
-0.006887194 0.022886584 0.017322235 -0.00051676575 0.010695669 0.020557556 0.010845258 0.018409979
0.027658574 -0.0025972568 0.006796247 0.009531963 0.024877539 0.023998778 0.004632393 0.023483763
0.0014741556 0.015974225 0.022255031 -0.01024184 0.021352129 -0.007223228 0.008323708 0.012960186
0.016712504 0.0045829695 0.02875928 0.022744542 0.024593126 0.002359127 0.009750517 0.017135886
0.0057935542 -0.0031786198 0.019204373 0.03191951 0.022301845 0.024221227 0.02831218 -0.0058666654
0.01786641 0.021584399 0.0005430799 0.014461414 0.023291638 -0.014096625 0.0022570135 0.012663836
0.024770373 -0.010083026 0.014449122 0.015238485 0.010451622 0.026384806 0.005650386 0.006466885

backbone.9.running_mean f4 [128]
00000000: be0b 013f ca9b c7be 1a38 43bf 1eb6 30bf
00000010: 4381 8abf 9fcd 4b3e 74ae 823e 4979 78bf
00000020: b930 f7be 0b8c 1b3d 144e 4bbf dce0 60bf
00000030: 58a9 053f ff70 953d feca bfbe ee83 aabd
00000040: eed8 13bf 5c0b 45bf 682a 35bf 5a1e 27bf
00000050: cb85 89be d7cb 5c3e 5d06 e3be 420a ef3c
00000060: 1805 8f3e 9a0c 413e d701 3ebf b6c9 24be
00000070: 94cf 313e c893 5cbf ef19 eebe c9b4 fcbe
00000080: 90af cc3e f594 8b3c 8a03 eb3c 5266 62be
00000090: b696 21bf 300d 04bf a56d 1f3e c46c eebe
000000a0: 38d1 11bf 83d5 0dbf e5dc 90bf 16ab c1be
000000b0: 1e0c 8cbe d9f2 48bf b0b2 35bf 67f4 acbd
000000c0: e767 b73c 6c6e f5bd c452 123e f876 0ebe
000000d0: 14f4 12bf d9bd d7be e185 1b3f fbc7 65bf
000000e0: 8de7 cabe 124b 6d3f acc4 af3e dbe5 52bc
000000f0: b590 cfbd 1d2d 323f e681 5cbf 56b6 b53d
00000100: e877 afbe f36d ebbe a5b4 7dbf 3d82 843e
00000110: 86a0 9c3e abe6 8abf 2327 65be fd96 033c
00000120: 3868 8a3f db7b 71bf d7a4 113f 5a05 2c3e
00000130: b080 4fbf 2b3a 0dbf b1a6 503f e4fc 10bf
00000140: e2fa a0bf 8662 9b3d 8418 863d 2a8b 2a3f
00000150: f6ec e3be ee85 a5bd 93bd 753f 8486 1bbf
00000160: 2f58 1abf a8fb 87bf 5c68 5d3f c91a adbe
00000170: faa5 5dbf e420 84be fc12 1d3e 3fde fbbe
00000180: 6591 0c3e eff7 f2be de88 6cbf ffb9 50bf
00000190: acd2 89bf 44ea a7be 73ff d5bc c40b a6be
000001a0: 1949 eb3e 129f c63d f274 9abe 7bfb 71bf
000001b0: f74f 153e 5f1b 36bf 2497 02bf 8292 773f
000001c0: 2ad3 a83e 6e74 67bf efb4 39bf ae9a 37be
000001d0: 1073 d7be 5e68 2cbf 96d7 d53e d070 623f
000001e0: fb12 6abf 3ef9 0a3e 9ec3 01bf fe76 26bf
000001f0: 9e64 193e 6e8c c83e 4095 183f 77cf e8bd
0.5040854 -0.38986045 -0.7625748 -0.6902789 -1.0820698 0.19902657 0.25523722 -0.97060066
-0.4827936 0.037975352 -0.7941601 -0.8784311 0.52211523 0.07296943 -0.37459558 -0.08325945
-0.57752883 -0.7697046 -0.7076783 -0.6528069 -0.26859888 0.21562134 -0.44340792 0.029179696
0.27933574 0.18852463 -0.7422156 -0.16092572 0.17364341 -0.86162996 -0.4650416 -0.49356678
0.39977694 0.017038802 0.028688211 -0.22109345 -0.6312059 -0.5158262 0.1556917 -0.46567357
-0.5695987 -0.5540392 -1.1317412 -0.3782584 -0.27352995 -0.78495556 -0.7097578 -0.084450535
0.022388412 -0.11983952 0.14289385 -0.1391257 -0.57403684 -0.4213703 0.6075116 -0.8975827
-0.39629784 0.92692673 0.34329736 -0.012872185 -0.101350226 0.6960009 -0.8613571 0.088726684
-0.3427117 -0.45982322 -0.99103767 0.25880614 0.3059122 -1.0851644 -0.2237821 0.008031604
1.0813055 -0.94329613 0.5689215 0.16798916 -0.81055737 -0.5516688 0.8150435 -0.5663588
-1.2576563 0.07587151 0.06547645 0.666186 -0.44516724 -0.08082186 0.9599239 -0.6075213
-0.6029081 -1.0623674 0.86487365 -0.33809498 -0.86581385 -0.25806344 0.15339273 -0.49192998
0.13727339 -0.47454783 -0.9239634 -0.8153381 -1.0767417 -0.32795918 -0.026122784 -0.3243085
0.45954207 0.09698309 -0.30167347 -0.94524354 0.14581285 -0.71135515 -0.5101187 0.9670793
0.32973605 -0.9041203 -0.7254171 -0.179301 -0.42079973 -0.6734675 0.41766042 0.8845339
-0.9143521 0.13571641 -0.50689113 -0.6502532 0.14979789 0.3916964 0.5960274 -0.11367696

backbone.9.running_var f4 [128]
00000000: d5f3 053e 9671 2f3e c666 643e a8be 033e
00000010: 08b9 163e 1366 853e 30a0 813e 3878 1b3e
00000020: d7ff 843e 8288 aa3e da5c 153e dc11 453e
00000030: 30d4 453e c36e 4d3e 9dd8 0e3e 0e78 373e
00000040: c342 1d3e 051f 253e 7d9b 103e 7c23 793e
00000050: 2fb8 733e a609 0e3e 0fee 4d3e fa7f 503e
00000060: fce0 213e e5fd bc3e 9d33 2d3e 8fac 383e
00000070: 1f7f 543e 7f30 443e af9b e33d c5c9 6a3e
00000080: 4f38 d83d e2a4 6c3e 7466 2b3e e90c 6b3e
00000090: e328 4d3e 26e6 753e 21c2 0c3e 7594 453e
000000a0: 9e65 1e3e 15f3 163e 0fdd 2b3e f123 3e3e
000000b0: ab78 183e 4921 173e 7b5b 633e e72c 363e
000000c0: 7907 1b3e 1b2f 0e3e ffbd 253e 5f1f f53d
000000d0: 792e 493e b12e 3f3e 9e77 4c3e fccf 333e
000000e0: df40 0c3e 513b 503e daac 323e f8c0 573e
000000f0: d1e9 453e 2765 2b3e a510 253e 314c 1b3e
00000100: bd7e 273e d63e 1d3e fc79 263e fb25 433e
00000110: ce2f 383e 9097 703e 5988 483e e314 1d3e
00000120: e803 f93d 8976 363e ce94 9d3e 5d06 4c3e
00000130: bc55 f83d 124d 943e d82f 1d3e 8ec6 3e3e
00000140: 72ba 413e deb1 2c3e 76d4 173e 3b45 993e
00000150: 0243 163e e255 ab3e 2b64 303e 8a89 2d3e
00000160: c150 3c3e a434 103e 5de7 7f3e f451 1c3e
00000170: 1008 153e 6473 0c3e 3a19 2c3e 1b60 2b3e
00000180: b3e6 ec3d 26ff 503e 2d56 2f3e 14c6 6a3e
00000190: e800 353e 584b 953e 13e1 183e e8cf 1e3e
000001a0: 0316 663e 9c05 063e e9de 9f3e 7ede 413e
000001b0: 1cc7 333e 824e 193e ea1c 1c3e 801e eb3d
000001c0: 7a08 563e e4c3 603e dab8 213e cc33 f03d
000001d0: 9da1 2b3e d6ef 8d3e 6043 843e c326 693e
000001e0: fbff 3e3e 63c9 0b3e e05b 363e c949 bf3d
000001f0: 56be 6d3e baad 253e 66f9 603e 8b2f 433e
0.13081296 0.17133173 0.2230483 0.12865698 0.14719021 0.2605444 0.25317526 0.15182579
0.2597644 0.33307272 0.14586201 0.19245094 0.19319224 0.20061783 0.13949819 0.17916891
0.15357499 0.16125114 0.14121814 0.24329942 0.23800729 0.13870868 0.20110343 0.20361319
0.15808481 0.36912456 0.1691422 0.18034576 0.20751618 0.19159125 0.11113679 0.22928531
0.10557615 0.23109773 0.16738302 0.22954144 0.20035128 0.24013576 0.1374593 0.19294913
0.15468451 0.14741166 0.16783546 0.18568398 0.14889781 0.14758791 0.22202866 0.17790566
0.1513957 0.13885157 0.16185759 0.11968874 0.19646634 0.18670155 0.19967505 0.17559808
0.13696621 0.20335127 0.1744875 0.21069705 0.19327475 0.16737805 0.1611963 0.15165783
0.1635694 0.15356001 0.16257471 0.19057457 0.17986986 0.23495317 0.19583263 0.15339999
0.12158948 0.17818655 0.3077759 0.19924302 0.121257275 0.2896505 0.15350282 0.1863043
0.1891878 0.16864726 0.14827141 0.2993563 0.14673999 0.3346396 0.17225711 0.16946998
0.1839018 0.14082581 0.24990602 0.15265638 0.14553857 0.13715893 0.16806498 0.1673588
0.1156744 0.20409831 0.17122717 0.22927123 0.17676127 0.29159045 0.14929609 0.15508997
0.22469334 0.13088077 0.31224754 0.1893253 0.17556423 0.14971355 0.15245405 0.11480427
0.20901671 0.21949726 0.15793172 0.117286295 0.1676087 0.27722043 0.25832653 0.22768693
0.18652336 0.13651042 0.17808485 0.09340245 0.23217139 0.16179553 0.21970138 0.19061105
