ABvsE/CNN_BiLSTM_best.pt (torch, 384754 bytes, 24 tensors)

cnn.0.weight f4 [32, 1, 7]
000000 89 38 ee bd ea 6b 01 be 62 0f 99 be e0 c3 79 be
       -0.11631877 -0.12638822 -0.2989455 -0.24391127
000010 67 96 1d be 55 b8 12 be 2e 5b 4b 3e 75 e1 87 3e
       -0.15389405 -0.1432813 0.19859001 0.26539198
000020 a4 ba b1 3d 3e b5 ac 3d 94 0d a9 3e cc 33 ff bc
       0.08678177 0.08433007 0.33018172 -0.031152628
000030 f3 bd 63 be b8 76 9a be 47 89 97 be 07 bd 95 3d
       -0.22240429 -0.301687 -0.29596922 0.07311445
000040 aa 98 8d 3e 14 cc 6f bd 99 10 97 bd 4d 27 9a 3e
       0.27655536 -0.058544233 -0.073762126 0.3010811
000050 76 ad 56 be e5 54 88 3e a5 78 8a be 68 42 a0 3e
       -0.20964608 0.2662727 -0.2704517 0.31300664
000060 4d c8 c6 be 0a de 8b be 49 d7 1e 3e 10 f0 67 3e
       -0.38824692 -0.2731784 0.15511812 0.2265017
000070 0d 9d 24 be 1b f7 29 be 04 90 a0 3e 17 51 7a 3e
       -0.16075535 -0.1659817 0.31359875 0.24444996
000080 87 39 b6 be 6f ef 9e 3e 17 92 a0 3d 74 1e 9d be
       -0.35590765 0.31042048 0.078403644 -0.30687296
000090 a5 f2 42 bd e2 58 3c bc 5d 51 20 3e 15 00 94 be
       -0.047594685 -0.011495801 0.15656038 -0.28906313
0000a0 19 7d e1 bd d2 9b c4 bd 1c 0e f3 bd d7 11 d9 3d
       -0.110101886 -0.09600033 -0.118679255 0.10599106
0000b0 10 cb 5c 3d 91 14 2f 3e 69 30 95 bd 5c 97 00 bc
       0.053904593 0.17097689 -0.07284624 -0.007848587
0000c0 a9 40 b0 3d 16 40 53 3e e4 64 4e be 27 a6 18 be
       0.08606083 0.20629916 -0.20155674 -0.14907132
0000d0 c8 eb f9 3d c4 76 54 be bf ad 67 3e d5 64 18 3d
       0.12203175 -0.2074843 0.22624873 0.037205536
0000e0 42 50 ad 3e 92 61 a5 3e c1 a1 14 be c2 97 5d 3e
       0.33850294 0.32301003 -0.14514829 0.21639922
0000f0 cb 3a 26 3d 82 24 03 3e 72 ed a7 3d ef ff 95 3d
       0.040583413 0.12806895 0.08199586 0.07324206
000100 22 24 ee 3c 77 7e 7b 3d 47 58 b4 be eb e1 6a be
       0.029069964 0.061399903 -0.352236 -0.22937743
000110 5a 7e 62 3d d8 c7 e4 bd 2b 40 82 3d c3 ea f2 bd
       0.05529628 -0.1117093 0.06359895 -0.118611835
000120 0a 1e 84 3d 3f 5a 8a 3e 48 d1 07 3e 99 81 5d 3e
       0.06451042 0.27021977 0.13263428 0.21631469
000130 25 03 6d be f9 0b ec 3c c2 ba a6 be cb 65 1f 3e
       -0.23145731 0.028814303 -0.3256436 0.15566175
000140 ed 2a aa be d6 bd 57 3e ee 6c bc 3d bf a4 69 3c
       -0.33235875 0.2106851 0.09200464 0.01426047
000150 12 6a 83 3d 34 4b f7 3d 63 25 a0 3e 1a ff 5b be
       0.06416716 0.12074891 0.31278524 -0.21484032
000160 ff 6d 6b be e3 5d 00 be 00 3a b6 be 5f b1 41 bd
       -0.22991179 -0.12535815 -0.35591125 -0.047288295
000170 00 e7 5d be 18 d0 30 3d 5d d5 67 3d d3 00 a4 3e
       -0.21670151 0.043167204 0.056599963 0.3203188
000180 af af 35 be 6d db b5 be c8 db cf 3d a9 14 c2 3d
       -0.17742799 -0.3551897 0.10149342 0.09476597
000190 11 dc 9d be 9a 6f a9 3d 83 42 bb 3e 98 03 9b be
       -0.3083196 0.082732394 0.36574182 -0.3027618
0001a0 55 89 8b be 47 74 a6 bc 36 d6 5d 3e 02 e6 aa 3e
       -0.27253214 -0.020319117 0.21663746 0.33378607
0001b0 86 2d 4e be 74 75 b6 be 46 91 28 3e 3f dc ad bd
       -0.20134553 -0.35636485 0.16461667 -0.08489274
0001c0 17 33 22 bd da bb ad be d6 c4 5d be 7e 9c f2 bd
       -0.039599504 -0.33932382 -0.21657118 -0.11846255
0001d0 d1 5e 82 be 6d 6a 5b 3c f6 33 02 be 7b af 53 3e
       -0.25462964 0.013392073 -0.12715134 0.20672409
0001e0 96 ff 51 3e 5b be 09 3e b1 28 8b 3e 02 22 ad be
       0.20507655 0.13451521 0.27179483 -0.33815008
0001f0 ff 82 43 be 97 cf b6 bd f7 e8 a6 3e da d5 9a 3e
       -0.1909294 -0.08926313 0.32599613 0.3024128
000200 3d 25 4c bd d6 68 50 bd 3f 8f 8d be 91 8f a8 3e
       -0.0498402 -0.05088123 -0.2764835 0.32922032
000210 6a 28 bb bd 94 a9 ad bd a1 4d b3 3e 38 f2 cd bb
       -0.09138568 -0.0847961 0.35020164 -0.0062849782
000220 4a 00 14 be 88 db 15 bd ab f2 b4 3e 97 58 a3 3e
       -0.14453235 -0.036586314 0.3534139 0.31903526
000230 d1 7a b7 be 26 27 41 3e 8e 76 0f be 14 e3 2e 3e
       -0.3583589 0.1886259 -0.14010069 0.17078811
000240 b8 c6 8c 3e 08 6e 9e 3e 3d 1b 59 be 5a 49 65 be
       0.2749536 0.30943322 -0.21201797 -0.22391263
000250 34 48 e7 3d 50 b2 a8 3e 46 ca da 3c 07 bc 83 bd
       0.112930685 0.32948542 0.02670778 -0.06432348
000260 bf 58 9f 3e 11 f2 10 be d8 10 8b be e6 27 19 3e
       0.31122395 -0.14154841 -0.27161288 0.14956626
000270 fe 40 19 be 0c 5d 9a 3e 64 21 19 3c 89 97 46 be
       -0.14966199 0.30149114 0.00934634 -0.19393744
000280 61 12 6a bd 0d 6e 53 3e 79 0f ba be 13 9d 75 bd
       -0.057146434 0.2064745 -0.3633993 -0.05996425
000290 ea 96 56 3e 2e f2 58 3e 4e b2 45 3d 9b 09 03 be
       0.20956007 0.21186134 0.048265748 -0.12796633
0002a0 1d 1c 18 be 14 ae 84 3e 5b 48 76 bc c0 63 a5 3d
       -0.14854474 0.2591406 -0.015031899 0.080756664
0002b0 d7 78 0b 3e 4c a3 95 3d 63 f2 01 be b2 11 82 3c
       0.13620315 0.07306537 -0.1269012 0.015877578
0002c0 8b e8 9b be e6 c0 90 3e 33 55 c8 bd 41 ad 49 3e
       -0.30450854 0.2827217 -0.097818755 0.19694997
0002d0 59 2b 66 3e 98 49 53 3e d2 ee 85 3e 3e be 93 3e
       0.22477473 0.20633543 0.26158768 0.2885608
0002e0 b1 c2 81 be ee 98 a4 be b9 8f 8a 3d 99 8a b4 3e
       -0.2534385 -0.32147926 0.06765694 0.35261992
0002f0 41 53 58 be 5d 60 ae 3e 81 ac 2d bc 2c 6c a9 3e
       -0.21125509 0.34057894 -0.01060021 0.3309034
000300 e0 19 81 3d 2e cd a1 3e f5 00 90 be a3 c2 5c 3e
       0.063037634 0.31601852 -0.2812573 0.21558623
000310 55 78 0a 3e db 6e a7 be 02 fd 9b 3e 54 58 85 bc
       0.13522466 -0.32701764 0.30466467 -0.01627747
000320 28 72 7b 3e cf 2c 78 bd d6 6b a6 be 30 91 86 3e
       0.24555266 -0.060589608 -0.32504147 0.26282644
000330 e1 93 ca bc da 59 41 be 7f 8b 8a 3e 81 e5 0b 3e
       -0.024728717 -0.18881932 0.27059552 0.13661768
000340 3f 89 4d 3e 53 9e 5d 3e f3 1d 06 3e 03 6a ab 3e
       0.20071886 0.21642427 0.13097362 0.33479318
000350 eb 32 49 3d f6 c0 29 bd 1f 4e 35 be ff f1 a0 3e
       0.049120825 -0.041443788 -0.17705582 0.31434628
000360 21 44 b2 3e 08 88 7f be bc 9c 04 bd 1d c5 8b be
       0.34817603 -0.24954236 -0.032376036 -0.27298823
000370 7e 22 68 3e 44 de f2 bc 6d 43 9b bd ce 82 88 be
       0.22669408 -0.029647 -0.0758122 -0.26662296

cnn.0.bias f4 [32]
000000 36 ad 1e 3e 0c 97 6e be 21 89 b6 3e 69 1c 5e 3d
       0.15495762 -0.23299807 0.35651496 0.054226313
000010 b9 b5 99 be ff b8 32 be e7 22 af 3e 82 2d 25 3e
       -0.30021456 -0.17453383 0.34206316 0.16130641
000020 c3 27 bd 3e 59 86 06 bb 53 0e 0d 3b e1 84 b1 3e
       0.36944398 -0.0020526855 0.002152343 0.3467169
000030 6c a3 24 be a4 75 b2 3e 28 e2 76 bd a5 ff 8c be
       -0.16077965 0.34855378 -0.060274273 -0.2753879
000040 b8 d2 ca 3b 32 92 73 3e ca 99 44 3e 36 1d 8b 3d
       0.0061896704 0.23786238 0.19199291 0.06792681
000050 af c2 bf 3c 72 99 05 3d 31 37 b2 3d f5 10 8b be
       0.023408262 0.03261704 0.08701933 -0.27161375
000060 7c d4 a4 be b0 df 9e be 74 c2 03 be b2 cb 87 3d
       -0.32193363 -0.31030035 -0.12867147 0.06630649
000070 db 5d 6c bd c5 b6 9e be b5 85 b9 be 3d 45 09 3e
       -0.057706695 -0.30998817 -0.36234823 0.13405319

cnn.1.weight f4 [32]
000000 bd f8 80 3f 7a e8 80 3f 4d ea 7e 3f 2f 32 81 3f
       1.0075909 1.0070946 0.99576265 1.009344
000010 07 75 7b 3f 42 15 7c 3f c6 5e 7a 3f cf b0 80 3f
       0.98225445 0.98469937 0.9780086 1.0053958
000020 47 27 81 3f 67 bd 7c 3f df 01 7b 3f 50 49 7f 3f
       1.0090111 0.98726505 0.9804973 0.9972124
000030 84 6f 80 3f a2 8f 82 3f c1 e8 7f 3f 1f b3 83 3f
       1.0034032 1.0200083 0.9996453 1.0289038
000040 c1 10 80 3f c3 f5 79 3f c9 d0 7d 3f 9f c2 7e 3f
       1.0005113 0.9764063 0.99146706 0.9951572
000050 39 3e 7f 3f 9e e4 7d 3f fb 58 7f 3f ca 36 82 3f
       0.9970432 0.9917697 0.9974515 1.017297
000060 9c 55 7c 3f 73 0a 7f 3f f9 1a 80 3f 51 a5 7d 3f
       0.9856813 0.9962532 1.0008231 0.9908038
000070 8d 0a 81 3f 17 78 7c 3f 69 f7 7b 3f fd 08 82 3f
       1.0081345 0.9862074 0.9842439 1.0158993

cnn.1.bias f4 [32]
000000 84 e1 23 3c 96 b5 84 3c 24 ac ef 3c f9 87 43 3d
       0.010002498 0.016199868 0.029256888 0.047737096
000010 ac 26 25 bc 2b 99 45 3a 94 38 f2 bb f8 05 2d 3d
       -0.010080021 0.00075377774 -0.0073919985 0.04224202
000020 24 20 99 bc 9b b4 67 bc ab 9b 7b 3c 4a 10 a3 ba
       -0.018692084 -0.014142181 0.015356938 -0.0012440768
000030 22 58 0b bc b6 df 53 3d c1 d2 d2 38 a4 9e ba 3c
       -0.008504899 0.05172702 0.00010052836 0.022780724
000040 65 69 8f 3c 00 83 88 3c 12 9a 1d 3d ee 97 48 3c
       0.01750631 0.016664028 0.03847701 0.012243254
000050 97 46 42 3c a2 3b 3c bc d3 66 ee 3c 1d 98 1d 3d
       0.01185765 -0.011488827 0.029101765 0.038475145
000060 07 d8 6c bb ef 2f 47 bc ed 04 be 3c fd 7e 1c bd
       -0.0036139505 -0.012157424 0.023195708 -0.038207043
000070 5b 49 9d 3b 56 72 01 bd 98 c6 75 bc db 0a 89 3c
       0.0048000044 -0.03160318 -0.015000962 0.01672881

cnn.1.running_mean f4 [32]
000000 05 ac 1e 3e 61 8e 6e be 22 80 b6 3e c9 94 5e 3d
       0.15495308 -0.232965 0.35644633 0.05434111
000010 ef b1 99 be 80 c0 32 be a6 2a af 3e b9 4b 25 3e
       -0.30018565 -0.17456245 0.34212226 0.16142167
000020 77 2f bd 3e 06 84 07 bb c8 ab 10 3b 23 83 b1 3e
       0.36950275 -0.0020678057 0.0022075046 0.34670362
000030 c4 99 24 be 86 7e b2 3e ef 4a 76 bd b4 f5 8c be
       -0.16074282 0.34862155 -0.060130056 -0.27531207
000040 a7 44 cb 3b c7 ac 73 3e 3d 9e 44 3e 00 2c 8b 3d
       0.0062032524 0.23796378 0.19200988 0.06795502
000050 e9 3e bf 3c 19 28 05 3d cf 9e b2 3d 4a 25 8b be
       0.023345428 0.032508943 0.087216966 -0.27176887
000060 a3 d0 a4 be 56 e3 9e be 17 86 03 be b5 df 87 3d
       -0.32190427 -0.3103282 -0.1284412 0.066344656
000070 4d ce 6c bd 03 ab 9e be f1 7b b9 be e9 38 09 3e
       -0.05781393 -0.30989847 -0.36227372 0.13400616

cnn.1.running_var f4 [32]
000000 dd 4a 40 3f 90 13 e4 3e f0 42 3a 3d 25 63 a9 3d
       0.7511423 0.44546175 0.045473993 0.082708634
000010 9c 45 fe 3d 75 6e 8f 3e 16 72 3f 3d ce 33 f0 3c
       0.12415621 0.2801396 0.04673966 0.029321577
000020 a0 21 1e 3f 24 fa 85 3e 85 77 4c 3e e2 bf b2 3d
       0.6177006 0.26167405 0.19967468 0.08728005
000030 b4 00 fa 3e 64 ee dd 3d 71 36 db 3d e7 7a d8 3d
       0.4882866 0.10836485 0.10703743 0.10570317
000040 34 18 5a 3f 1c 7c c5 3e 86 8b 83 3e c9 10 ca 3e
       0.8519318 0.3857125 0.25692385 0.3946593
000050 c5 d4 83 3e 5a 01 2c 3e 71 12 1e 3d 49 fe 3d 3d
       0.25748268 0.1679739 0.038591806 0.046385083
000060 11 cd be 3d c8 e1 b3 3e 12 a5 a6 3d ca 10 29 3f
       0.09316457 0.35133195 0.081369534 0.66041243
000070 64 f5 99 3d 5e 47 fb 3e 37 52 02 3f 73 79 87 3e
       0.07517508 0.49077886 0.509067 0.26459846

cnn.4.weight f4 [64, 32, 5]
000000 69 e2 57 3c ba 58 69 3d 84 5f 84 3d 71 4d 53 bd
       0.013176539 0.056969382 0.06463531 -0.051587526
000010 13 43 b3 3c 65 a5 3c bd c4 4a 09 bc 31 87 ca 3c
       0.02188257 -0.04605617 -0.008379642 0.024722667
000020 ee 47 07 3d a9 47 e3 bc 50 ab 14 bd b6 34 b3 bd
       0.033027582 -0.027744131 -0.03629619 -0.08750288
000030 3a 27 96 bd 33 fd 0f bd c6 3a 81 bc 0e 38 b6 bd
       -0.073317006 -0.03515358 -0.015775096 -0.0889741
000040 00 8a 70 bc 97 79 12 bd 7e 1c 49 bd a1 8d 11 3a
       -0.014681339 -0.03576049 -0.049099438 0.00055524154
000050 1e d2 94 bc 79 13 13 bd 7b f5 91 bd ab 2b 87 3d
       -0.018166598 -0.035907242 -0.071269 0.06600126
000060 15 ca be 3c 9b 53 5c bd c8 0f 1f bc 20 33 55 bd
       0.02328972 -0.05379067 -0.009708352 -0.05205071
000070 91 32 25 3d 3b 0a a3 3d 50 42 8d bc 8d 1c e2 bc
       0.040331427 0.07960936 -0.017243534 -0.027601505
000080 38 73 44 bb 27 23 65 3d e0 af 19 3d 50 eb 08 bd
       -0.0029975902 0.055941727 0.037521243 -0.033427536
000090 aa 7d 8b bc 67 85 b9 bc b4 fb 68 bd e8 05 59 bd
       -0.017027695 -0.022646619 -0.056880668 -0.05298415
0000a0 23 99 97 3d 69 1d 6b 3d b2 03 be 3d d3 83 00 bd
       0.074022554 0.057401095 0.092780486 -0.031375717
0000b0 9c 85 bd 3b ac f3 18 bd fa 61 26 3d af 07 86 3c
       0.0057837497 -0.03734176 0.04062078 0.016361086
0000c0 d8 9f f3 3c 2e a4 2d bd 06 02 85 bd a8 c8 09 bd
       0.029739305 -0.042392902 -0.064945266 -0.033638626
0000d0 e2 0f 41 3c 40 e8 a9 bd f5 61 a4 3b d1 6c 47 3c
       0.011783572 -0.08296251 0.00501656 0.01217194
0000e0 a7 89 aa 3c 21 76 0c bc 3d 5b 92 bd 3d b7 6e 3c
       0.02081759 -0.008573086 -0.071463086 0.014570055
0000f0 e7 51 ba bc c1 bc 03 bd 74 f5 59 bb 9c 3a 61 3d
       -0.022744132 -0.03216243 -0.0033257874 0.054987535
000100 2c cf 20 bd 2c 58 b6 bd 09 a7 8e bd 52 28 4c bd
       -0.039260074 -0.08903536 -0.06965453 -0.04984314
000110 d6 26 97 bd 74 6f ca 3b ae da 61 bd f1 a3 e3 bc
       -0.07380454 0.006177837 -0.05514019 -0.027788134
000120 1f 43 5d 3c 82 68 be bc 86 8c 1c bc f3 39 17 bd
       0.013504772 -0.023243193 -0.009554988 -0.0369205
000130 6c 99 a5 bc d6 16 92 bd cb f7 81 bd 56 0f 7f 3d
       -0.020214759 -0.07133262 -0.06346091 0.062270485
000140 d8 ea a0 3d 0a 75 1f 3d 9c 8b 0b bc 08 ab 61 3d
       0.07857293 0.038929977 -0.008517172 0.05509475
000150 c3 df 8d bd a0 76 70 bd 1e 1e ad 3c ef f0 b3 bb
       -0.06927445 -0.05870688 0.021132525 -0.005491368
000160 cf 5b ba bd 3d 58 37 bd 62 f0 d6 3c 67 fc 58 bd
       -0.09099542 -0.044761885 0.02623767 -0.052975085
000170 22 32 e9 bc 18 d3 b8 3b 43 0c 45 bd 39 bf 70 bd
       -0.028466288 0.0056403987 -0.048107397 -0.058776114
000180 4b 61 7a 39 cd 93 64 bc a8 97 5d bd 2b b1 2f bd
       0.00023878102 -0.013951254 -0.05409971 -0.04289357
000190 4e 67 2d 3d 27 b3 8c 3d 0a ea 5b bd 7e 21 18 bd
       0.042334847 0.06870108 -0.053689994 -0.037141316
0001a0 d8 19 ad bd 2e c8 26 bc 65 ef 87 3d e3 ce 06 3d
       -0.08452195 -0.0101795625 0.06637458 0.032912146
0001b0 90 43 3e 3c be aa f6 bb d6 c2 fe bc 70 24 40 3c
       0.011612788 -0.0075276783 -0.031098764 0.011727437
0001c0 4d 99 2f bd a2 b7 27 bd 45 9b 1d bd 85 37 40 bd
       -0.04287081 -0.04094661 -0.038478155 -0.046927948
0001d0 bd 5e bb bc 36 6a a0 bd c6 67 6f bd d8 b1 00 bd
       -0.022872323 -0.07832758 -0.058448575 -0.031419605
0001e0 b3 44 71 3d 8c cc bf bc 55 48 15 bd 90 d6 95 3c
       0.058903407 -0.023412965 -0.036445934 0.018290788
0001f0 61 7a 65 3c 59 6b 0a 3d c3 9d 08 bd 89 b4 65 bd
       0.014006228 0.03379378 -0.03335358 -0.056080375
000200 b3 b1 81 bd f3 a1 6a bd 0a da 45 3c 93 95 3a 3d
       -0.063327216 -0.057283353 0.01207591 0.0455528
000210 07 27 15 bd 81 03 13 bd c4 e6 b1 3b ff 7f 83 3d
       -0.036414173 -0.035892013 0.0054291207 0.06420898
000220 a3 06 4f 3c 5a 3e a8 3b f7 31 83 bd 55 5b 0a bd
       0.01263586 0.005134386 -0.064060144 -0.033778507
000230 4f 00 74 3d 10 b1 8a bd 09 4a df bc b0 87 7e bd
       0.059570607 -0.06772053 -0.027256982 -0.06214112
000240 e3 e3 3f bd 61 06 6a bd b5 14 3b 3d 72 a7 66 3c
       -0.04684819 -0.05713499 0.045674045 0.014078008
000250 b6 c3 8b 3d 79 b9 5b bc 07 2f b7 3c ca 1f 40 bd
       0.06824438 -0.013410919 0.022361292 -0.046905316
000260 7b 70 15 3c 5f 6f aa 3d 5d 12 14 3d 01 28 26 3c
       0.009121056 0.083220236 0.036150325 0.010141374
000270 af 7f 7d 3c 88 4a e0 bc 56 97 b4 bd 47 6b 8e bc
       0.015472337 -0.02737929 -0.088179275 -0.017385138
000280 99 d4 1e 3d e1 a2 9e bd 8a 8b 95 bd e8 5f a7 bc
       0.038776968 -0.077459104 -0.073020056 -0.020431474
000290 95 3b 02 bd b7 c4 85 bd 7c c7 29 3d 84 d5 b1 3a
       -0.031795103 -0.06531661 0.04145001 0.0013567661
0002a0 73 9d a8 bd b4 0a 70 3d 3e 3e 42 bd a5 b1 bb bd
       -0.08233156 0.058603957 -0.04742264 -0.091647424
0002b0 08 94 e6 3c cd 7b cc bd f9 07 17 bd 41 ff 91 bd
       0.028146759 -0.099845506 -0.036872838 -0.07128764
0002c0 40 2f 4a bd c9 d8 08 bc 9e 77 a7 bd 8c 4e 3e bd
       -0.049361467 -0.008352467 -0.08177112 -0.046461627
0002d0 0b 42 78 bd e1 0e 8b 3c 88 71 fd 3c 54 7f 3c 3b
       -0.06060986 0.016974868 0.030937925 0.0028762417
0002e0 df b1 5f 3d cf d3 c5 bb 43 44 35 bd da 3a 25 3c
       0.05461299 -0.0060372124 -0.044254553 0.010084832
0002f0 3f ab 9c 3d 17 e3 ce 3c 0e cc ea 3c 69 69 94 3d
       0.0764985 0.02525477 0.028661754 0.07246668
000300 2a 66 95 bd 1a 74 fe bb f1 a4 44 3d dd 4e 67 bd
       -0.07294877 -0.007765305 0.048008863 -0.056471694
000310 8c ff 8f bd 63 4a 43 bc 29 3d e8 3b 18 12 bf bd
       -0.070311636 -0.011919591 0.007087369 -0.09329623
000320 63 2b 20 bd 31 43 cb 3c f3 05 bc bc 50 f1 63 3d
       -0.039103877 0.024812313 -0.022952056 0.055650055
000330 ac 63 9e bd 3b 1c ad bc d6 52 8a 3c 1e 0f 91 bd
       -0.07733855 -0.021131625 0.016885202 -0.070829615
000340 17 fd 36 bd 9c 7c b3 3c c4 51 1d 3d b6 dd 31 bd
       -0.04467496 0.021910004 0.038408056 -0.04342433
000350 91 64 b8 bc 8d aa 26 bc ef 9e 84 bd 2c bc b6 3c
       -0.022508891 -0.010172498 -0.06475627 0.022306524
000360 3e 3a 16 3c 6c 19 50 bd 82 c5 a4 3a a1 19 34 bd
       0.009169159 -0.050805494 0.0012571069 -0.043969754
000370 de fe 47 3d 03 69 37 bc c7 04 a7 bd 88 a4 0e bd
       0.048827045 -0.01119447 -0.08155208 -0.034824878
000380 5f d9 0e bd 27 a5 8c bd 8e 9c ec 3b 41 34 31 bd
       -0.03487527 -0.06867438 0.007220811 -0.043262724
000390 49 4a b9 bc 64 bf 35 3d 40 aa ad 3c 5a 7c 3f 3d
       -0.02261843 0.044371977 0.021199346 0.04674945
0003a0 96 6b 7d bd ad 58 dc bc ac db 3d bd b9 9b 1f bc
       -0.06187018 -0.026897753 -0.046352074 -0.009741717
0003b0 b0 e1 d0 bd 39 a1 ac 3c 11 74 01 bd f1 23 94 bd
       -0.101992965 0.02107297 -0.03160483 -0.07233418
0003c0 ed 78 0b bd ba 57 db bc d1 27 04 3d e4 92 72 bc
       -0.03405087 -0.02677523 0.032264534 -0.014805529
0003d0 c6 34 5e 3d cb 2b 28 3d 06 a5 0c bd 4a 65 a6 bc
       0.054249547 0.04105739 -0.034337066 -0.02031197
0003e0 f5 61 68 bb 86 21 24 bd 4b e8 b8 3c aa b5 9c bd
       -0.0035458778 -0.040071033 0.022571703 -0.07651837
0003f0 f2 1c 7c bd a0 5c 9a bc 8b 21 46 bc 30 a3 98 bc
       -0.061551042 -0.018842995 -0.012092958 -0.018632501

cnn.4.bias f4 [64]
000000 1f 1f 66 3d c5 71 0a bd 04 6a 69 3d bc af 3d bd
       0.056182023 -0.033799905 0.05698587 -0.04631017
000010 69 e6 91 bd 95 68 90 bd 9f 76 73 bc 89 c9 46 bd
       -0.071240254 -0.070511974 -0.014859824 -0.048532043
000020 81 e6 f2 bc 9e 1d 6f bc a8 19 fd bc e5 11 24 3d
       -0.029650928 -0.014594464 -0.030896023 0.040056128
000030 0a a5 90 3c c1 7f 43 bc 2a 3c 7b bd f2 96 96 3c
       0.017656822 -0.011932314 -0.061336674 0.018382523
000040 71 71 19 3d 25 7e dc 3c 94 ef 1e 3c c3 e6 06 bd
       0.0374617 0.02691562 0.009700675 -0.032934915
000050 6c c5 82 3d 64 88 6d bd 2a 5d 1d 3a 1c 4c e7 3c
       0.063853115 -0.0579914 0.0006002957 0.028234534
000060 b7 f3 b5 3c 93 71 94 3c af 93 6f bb c6 0d d9 bc
       0.022210939 0.018120563 -0.0036556532 -0.026495825
000070 32 66 9c 3d 7f c1 72 3d 72 82 21 3d 99 42 84 3c
       0.0763668 0.059266564 0.039431043 0.016145037
000080 b6 64 de 3b b6 2e af bc ef 70 63 3c cd 97 a2 bc
       0.006786908 -0.021384578 0.013881906 -0.019847775
000090 f8 62 95 3d 5a 72 2e 3d 2b f2 93 bb f4 4d 0e 3d
       0.072942674 0.042589523 -0.0045149527 0.03474231
0000a0 6b 81 22 3d 97 72 47 3c c5 81 9c bd 9c 1b 02 3d
       0.039674204 0.012173316 -0.07641939 0.03176461
0000b0 0f b2 18 bd 84 92 7e 3a ff 4f 2d 3d 53 70 90 bc
       -0.037279185 0.00097111636 0.04231262 -0.017631685
0000c0 aa 04 a3 bc cd 8c 47 bd 9e 82 91 3d a1 58 98 3d
       -0.019899685 -0.048718262 0.071049914 0.074387796
0000d0 c4 41 97 bd b2 91 5b bb 12 90 4f 3c 33 22 52 3d
       -0.07385591 -0.003350359 0.012668626 0.051302146
0000e0 d8 6f 05 3b 40 3b df bb e0 2b 11 bc 9b a1 58 bd
       0.0020360854 -0.006812483 -0.008860558 -0.052888494
0000f0 90 d6 b0 bb 78 fb 7d 3c e4 b6 24 3c 5d f2 b3 bc
       -0.0053966716 0.015501849 0.01005337 -0.021966154

cnn.5.weight f4 [64]
000000 c3 17 82 3f 81 76 81 3f ff 45 7c 3f ab fc 80 3f
       1.0163502 1.011429 0.98544306 1.0077108
000010 82 c0 80 3f 01 bd 80 3f 87 a6 80 3f 4a 3d 80 3f
       1.0058749 1.005768 1.005082 1.0018704
000020 3b 54 7e 3f 6d 7d 82 3f 45 44 81 3f 8b e7 82 3f
       0.99347275 1.0194527 1.0098959 1.0226911
000030 12 0b 81 3f e4 49 81 3f 10 d1 80 3f a8 8f 81 3f
       1.0081503 1.0100675 1.0063801 1.0121965
000040 95 ad 81 3f 0e 8f 7e 3f c5 f0 80 3f 8b 45 81 3f
       1.0131098 0.99437034 1.0073477 1.0099348
000050 98 06 80 3f 9b 5c 81 3f 77 3f 7f 3f 2f d4 81 3f
       1.0002012 1.0106386 0.99706215 1.0142878
000060 27 c1 7c 3f e0 28 81 3f 2f 48 7f 3f f7 b1 80 3f
       0.9873223 1.0090599 0.9971952 1.005431
000070 50 89 81 3f b7 ab 80 3f 8f de 7f 3f 86 f6 7f 3f
       1.012003 1.0052403 0.9994897 0.9998554
000080 db 2a 80 3f 77 07 80 3f 82 c0 81 3f af 10 80 3f
       1.0013078 1.0002278 1.0136874 1.0005091
000090 ad 31 82 3f 48 2b 81 3f 01 63 82 3f 4e ff 7c 3f
       1.017141 1.0091333 1.0186464 0.98827064
0000a0 01 cc 81 3f c6 47 80 3f 2a 08 81 3f 11 89 81 3f
       1.0140382 1.0021904 1.0080616 1.0119954
0000b0 3f c1 80 3f f4 73 82 3f 70 75 81 3f f6 f7 7f 3f
       1.0058974 1.0191636 1.0113964 0.99987733
0000c0 35 ea 80 3f 63 2c 82 3f fe 51 80 3f 2d 7d 7e 3f
       1.0071474 1.0169796 1.0025022 0.99409753
0000d0 f0 0f 80 3f 8f c3 80 3f a1 7b 7f 3f 70 c9 81 3f
       1.0004864 1.005968 0.9979802 1.0139599
0000e0 f6 47 80 3f f3 ae 7e 3f 1c 47 7c 3f ac 7e 7e 3f
       1.0021961 0.994857 0.98546004 0.99412036
0000f0 23 9a 80 3f 95 2a 82 3f 70 ce 80 3f 92 de 80 3f
       1.0047039 1.0169245 1.0063 1.0067923

cnn.5.bias f4 [64]
000000 ad 5b ff b9 62 27 9d 3b c9 fc 9f bc 8d 1c cf bb
       -0.00048705694 0.0047959546 -0.019529717 -0.006320542
000010 3a 8f cb 3b 4a b2 30 b9 e6 25 38 3b 19 5f 34 bb
       0.0062121423 -0.00016851086 0.002809876 -0.0027522503
000020 2c 53 24 bc b0 eb 80 3c a4 4c 83 3c 98 f0 77 3c
       -0.010029595 0.015737385 0.016027756 0.015133046
000030 e8 78 d0 3b f3 29 8b 3a 5e 1d 0f 3c a9 13 95 3b
       0.0063620694 0.001061736 0.008735029 0.004549463
000040 a6 4f fe 3b be 19 c2 bb 02 03 28 bb 4f 7a 7e 3b
       0.0077609597 -0.005923479 -0.0025636558 0.0038830226
000050 35 a5 4a 3a e7 08 86 3b e5 88 0c bc b2 38 26 3c
       0.0007730306 0.0040904167 -0.00857756 0.010145353
000060 15 0b 2a bc ca 14 08 bc 6a 85 02 bc 95 af 08 3c
       -0.010378619 -0.008305738 -0.007966379 0.008342643
000070 46 2e 82 3c ed 5f 08 bc 2c a9 88 bb 8a 18 aa bb
       0.015891206 -0.008323652 -0.0041705575 -0.0051909136
000080 5b a0 2b bc 59 cd ef ba 9d cb 0b ba 3a 6d 77 bb
       -0.010475243 -0.0018295451 -0.000533277 -0.0037754313
000090 81 07 0b 3c 1f 3f 5f 3c f0 78 a4 3a 20 37 d1 bc
       0.008485676 0.013625889 0.0012548249 -0.025538981
0000a0 0c ef 41 3c 67 82 4c bb 69 4d 0a 3c 8f c5 3f 3a
       0.011836778 -0.0031205656 0.008441308 0.00073155103
0000b0 ae 4f 45 bc 2f 17 c2 3b e6 10 d5 3a c7 bc e2 bb
       -0.012042923 0.005923174 0.0016255646 -0.0069194767
0000c0 6f 5e d3 3a f7 1e 72 3c 9d 05 eb 3b 9c 01 b4 bb
       0.0016126166 0.01477789 0.0071723 -0.005493356
0000d0 20 47 5f 3b 4c 6e 05 3b 50 49 43 bc f8 d0 39 3c
       0.0034069493 0.0020359932 -0.0119193345 0.011341326
0000e0 55 b5 1e bc 73 4d 5b bc 2b 14 76 bc 99 ea 4c bc
       -0.009686788 -0.013385165 -0.015019457 -0.012507104
0000f0 16 ae b5 3b 84 c0 08 3b ee 5c 99 3a 6f af fe b9
       0.0055444343 0.0020866701 0.0011700669 -0.00048577363

cnn.5.running_mean f4 [64]
000000 cf 96 b6 bf eb a6 f1 bf 55 28 db 3e 98 e9 35 3f
       -1.4264773 -1.8879064 0.42804208 0.7105956
000010 39 af bc 3d 9a b6 52 be 86 1c db be 59 af 0d 3f
       0.092131086 -0.2057747 -0.427952 0.55345684
000020 ac 84 cb bf 5b 3b 8d be 7a ef 0d 3f 55 4b 24 3f
       -1.5899863 -0.27584347 0.5544354 0.6417745
000030 eb 63 55 be 4f f1 bc bf aa 2e d4 be 25 ae 42 bf
       -0.20838897 -1.4761142 -0.41441852 -0.76046973
000040 31 61 0a bf 18 d3 06 ba 4f 28 33 3f 0f 84 bb bc
       -0.5405455 -0.000514315 0.6998338 -0.022890119
000050 1d 4a c4 bf 31 53 52 bf 00 8f fc be 5b 93 10 be
       -1.5335118 -0.8215819 -0.4932785 -0.14118712
000060 3a f6 e9 be 96 bc b0 bf aa 13 33 3f 9c 0b ed be
       -0.45695668 -1.3807552 0.6995188 -0.4629792
000070 2b 90 b8 bf c9 08 5b 3f f6 65 15 3e 4b 35 8f 3e
       -1.4418997 0.8556028 0.14589676 0.27970347
000080 3e c0 43 3f 9c 46 dc be 42 5f 1e bf df 5d f9 bd
       0.76465213 -0.4302262 -0.618641 -0.121761076
000090 62 70 d5 be fe d9 cd 3d 5e c0 e1 be 59 ea b3 be
       -0.41687304 0.10051344 -0.44092077 -0.3513973
0000a0 d5 d2 09 bf 14 19 19 3f f2 de 36 bf 2a e7 e0 3e
       -0.5383733 0.5980389 -0.7143394 0.43926364
0000b0 07 9e 32 3f 9a ca 79 bf e2 d3 f5 3c 52 a4 b2 bf
       0.6977238 -0.9757477 0.03000826 -1.3956397
0000c0 d7 dc a0 be 88 01 d1 be 79 15 10 3c 05 36 60 3e
       -0.31418487 -0.4082148 0.008794182 0.21895607
0000d0 1f da 30 bf af eb 71 be 61 d3 19 3f f5 22 26 be
       -0.69082826 -0.23625062 0.60088164 -0.16224273
0000e0 1a 17 d8 3e 33 a0 b5 be c6 9a 14 3f 18 93 d7 bd
       0.42205125 -0.35473785 0.58048666 -0.10526103
0000f0 87 e8 d7 be 01 33 b3 bf 3e 90 f1 be 19 a0 02 bf
       -0.42169592 -1.399994 -0.4718036 -0.5102554

cnn.5.running_var f4 [64]
000000 35 f7 e0 3e e6 cf 1d 3f 63 85 77 3e 07 19 a4 3e
       0.43938604 0.6164535 0.24171977 0.32050344
000010 9c 72 9e 3e bd fd 46 3e 5a fa fa 3d 35 49 da 3e
       0.30946815 0.19432731 0.12254782 0.42633978
000020 95 f2 f0 3e d9 a5 86 3e 73 b9 db 3e 7c e7 51 3e
       0.47060075 0.26298407 0.42914924 0.2049846
000030 ad 42 c9 3e cc 9e ea 3e 9d 76 ad 3d 0c ab 92 3e
       0.39308682 0.45824277 0.08469889 0.28646123
000040 33 00 86 3e 01 c5 e9 3d 3b 0e 74 3e d3 63 84 3e
       0.26172027 0.11414529 0.23833553 0.2585741
000050 92 d7 19 3f 68 e2 b4 3e 1b a7 e4 3e 05 23 12 3e
       0.6009456 0.35328984 0.4465874 0.14271171
000060 1f ae a0 3e 2f 70 d0 3e 1b 12 31 3e 95 d9 9e 3e
       0.31382844 0.4071059 0.17292063 0.31025377
000070 62 e2 03 3f 2e 2e a2 3e 99 12 74 3e 4b 54 8b 3e
       0.5151731 0.31675857 0.2383522 0.27212748
000080 f2 bd f9 3e e4 18 54 3e e0 9f 8b 3e ce 71 70 3e
       0.4877773 0.2071262 0.27270412 0.23480913
000090 4d d9 a5 3e b7 f9 10 3e 3e db 8d 3e 46 d4 ce 3e
       0.3239235 0.14157759 0.2770633 0.40396327
0000a0 93 82 3b 3e 76 36 36 3e c7 2f c9 3e 0b 1c 83 3e
       0.18311529 0.17794213 0.39294264 0.25607333
0000b0 ab 45 6a 3e bf f4 a6 3e f5 90 55 3e 07 6a f0 3e
       0.22878139 0.326086 0.20856078 0.46955892
0000c0 c4 2f 06 3e 76 b0 7e 3e 64 94 96 3e 8b 90 b1 3e
       0.13104159 0.24872002 0.29410088 0.3468059
0000d0 a2 e4 dc 3e e2 db cf 3d 32 17 c9 3e d0 e8 cf 3d
       0.43143183 0.10149361 0.3927551 0.10151827
0000e0 6a 8a 20 3e da b0 b1 3e 0f af a6 3e a2 17 83 3e
       0.15677801 0.3470524 0.32555434 0.25603968
0000f0 7b 71 51 3e 60 3e ac 3e 51 c0 3a 3e 89 d4 85 3e
       0.20453446 0.33641338 0.18237425 0.26138714

lstm.weight_ih_l0 f4 [256, 64]
000000 df d7 10 3e 41 c2 35 3d de 25 dd bd 6e 3b b3 3c
       0.14144848 0.044374708 -0.10798238 0.021878924
000010 d1 22 35 3d 30 95 b8 3d e6 f2 af bd 47 9f 61 3d
       0.044222657 0.0901283 -0.08591251 0.05508354
000020 32 e8 07 3e 2a 50 03 bc 0d 18 f8 3b 3a ec 52 bd
       0.13272169 -0.008014718 0.0075712265 -0.051494814
000030 6c 5f cf 3d ca e5 d0 3c 62 1b b9 bd 58 e3 d8 3d
       0.10125622 0.025500197 -0.09038426 0.105902374
000040 b1 ec bf bd 87 3f 9f 3d 35 51 4f bd ad d0 a9 bd
       -0.09371317 0.07775789 -0.050614554 -0.08291755
000050 9e 12 f8 bc ca 49 20 bd cb e1 41 bd 8d 9b 64 bd
       -0.030282315 -0.03913287 -0.047334474 -0.055812407
000060 d7 9f 5a bd 45 e7 28 3e f7 56 a7 3b 6f 8b 9b 3d
       -0.05337509 0.16494472 0.0051068026 0.07594954
000070 5f 51 57 3c 13 aa 9b bd 23 41 86 bd 05 4f 05 bd
       0.013141959 -0.076007985 -0.065553926 -0.032546062
000080 9f 08 5e bc da 0e d7 bd db ea 29 3e d2 82 eb bd
       -0.01355186 -0.105008796 0.16593497 -0.11499561
000090 71 09 50 bd d2 cc 94 3c 19 22 05 3e 86 e7 be bd
       -0.050790254 0.018164072 0.13001288 -0.09321503
0000a0 8d 7a 08 3e f8 3c 79 bd cd 04 c9 3c 73 86 c5 3d
       0.13328 -0.06084916 0.024538422 0.09644785
0000b0 d0 c9 28 bd d1 25 e2 3c 28 1c 11 bd 8c 05 99 3c
       -0.04120809 0.027605923 -0.035427243 0.018679403
0000c0 52 a4 9a 3d 44 cd 91 bc 8a b7 6c 3d cd 51 fb 3d
       0.07550873 -0.017798074 0.057792224 0.12271462
0000d0 fa 9c 31 bd 66 c5 db bc 5a a8 85 3d 7a fe 57 3d
       -0.043362595 -0.026827525 0.06526251 0.052732922
0000e0 7e e2 fa 3d 74 93 db bd 76 55 5b bd 11 7e 30 bc
       0.12250231 -0.10721484 -0.0535483 -0.010772244
0000f0 40 70 c1 3d 0b 80 1a 3e f6 08 2f bd a0 a3 9d bb
       0.09445238 0.15087907 -0.042733155 -0.0048107654
000100 20 fa cc 3d 3d 5e b2 3d 46 51 9c bd 5a 9e e3 3c
       0.10008645 0.08709381 -0.07632689 0.027785469
000110 19 32 3d bc ed 23 c1 3d d8 79 ad bd 56 85 b5 3d
       -0.011547589 0.094306804 -0.084705055 0.088633224
000120 78 86 44 bd 61 b4 b6 bd 89 32 cf bc f8 5f 92 bd
       -0.047979802 -0.08921123 -0.025292652 -0.07147211
000130 70 bc 7a 3d 33 9b 0d bd 93 a0 dd 3d aa ab 84 3d
       0.061214864 -0.034571838 0.10821643 0.06478055
000140 3d d5 71 ba 61 71 22 3d 0c 47 a5 bd 90 0f cc bd
       -0.00092251954 0.039658908 -0.08070192 -0.09963906
000150 24 d7 ce bd 33 95 55 bd e2 b6 9c 3d 50 60 f9 bd
       -0.100996286 -0.05214424 0.0765207 -0.12176573
000160 83 d1 4d 3d ab 76 ce 3d 6e 0e 16 bd 32 7e cb 3d
       0.050248634 0.10081228 -0.036634855 0.09936179
000170 f0 1f a5 3d 48 af 79 3d bc a5 66 3d c5 cf a8 bd
       0.08062732 0.060958177 0.0563104 -0.08242754
000180 27 74 eb bd 6b fd eb bb ee c7 fe 3d 6d 73 d3 3d
       -0.11496764 -0.0072018406 0.12440477 0.1032475
000190 4d da e4 bd 25 96 4f 3c 18 4b b1 3d ca 2b 95 3d
       -0.1117445 0.012670075 0.08656901 0.07283743
0001a0 34 e4 31 3b 2e b9 af bd bc 9b 4f 3d b1 b5 dc bc
       0.0027144076 -0.08580242 0.05068563 -0.026942106
0001b0 17 07 39 bc 94 0d d0 3c 10 6b c2 bc 62 5c 26 3d
       -0.011293194 0.0253971 -0.023732692 0.040615447
0001c0 2e 4c 95 3d 5f e7 a5 bd 30 af 10 3d 9f 3b a1 bd
       0.07289921 -0.08100771 0.03532332 -0.078727
0001d0 c5 c1 02 be ed 8d 45 bc a8 41 89 3d 4b ae 2d 3b
       -0.1276923 -0.0120577635 0.06701976 0.0026501592
0001e0 dd 9f 9c 3d cd 5e 97 bd 00 50 73 3d b7 40 a4 bd
       0.07647679 -0.07391129 0.059402466 -0.08020156
0001f0 7f d8 49 bb b1 fb c6 3d 8c eb eb bc 7c 54 da 3d
       -0.0030799208 0.09715975 -0.028798841 0.10660645
000200 03 21 00 3e d9 da 0b 3e 77 39 c3 3d d4 36 12 3e
       0.12512593 0.13657703 0.09532445 0.14278728
000210 5b d1 72 3d 16 97 24 3d 19 67 e4 3d 85 9f be bb
       0.05928169 0.04018315 0.11152477 -0.005817356
000220 1f 77 27 3d 16 f9 97 bd 8f 8e 52 3d c7 f1 86 3d
       0.040885087 -0.07420556 0.051405486 0.06589084
000230 6e 4f 6e 3d 6e 5d 7b 3d be 52 d6 bd f5 ca 80 3c
       0.05818122 0.0613684 -0.104650006 0.015721777
000240 e7 f7 ae bc ab 1a c1 3d 5c d2 06 3e 8d 7d 93 bd
       -0.021358443 0.09428915 0.13166183 -0.07201681
000250 5f c9 0a 3e 45 fe 97 3c 83 1b 2c bd 4f 92 4b 3d
       0.1355338 0.018553862 -0.042018425 0.049700078
000260 51 d0 8a 3d 13 7b 80 3c 62 0c cc bd 52 ba 72 3d
       0.067780145 0.015683686 -0.09963299 0.05925972
000270 74 97 b2 3d 72 03 b8 3d 7c 1a a8 3b 2d de 7f bd
       0.08720294 0.08985032 0.0051301103 -0.062467743
000280 a7 8a c7 3d d9 3c 5a 3d 39 6e 9a bc 7f e4 ea 3d
       0.09743243 0.053280685 -0.018851386 0.114693634
000290 2d 19 75 3c 44 13 e9 bd 1e 94 2c bc 2f 5d 53 bd
       0.014959616 -0.11380628 -0.010533361 -0.05160254
0002a0 0f f9 80 3d d7 61 81 bd 6c 01 f9 3d b9 1e f0 3c
       0.06297504 -0.063174896 0.12158474 0.029311525
0002b0 64 3a 44 bd 50 1e 6f bd 55 86 6d 3d ce dd b6 3d
       -0.04790725 -0.058378518 0.057989437 0.08929025
0002c0 82 bf da bd 88 34 8e bd f8 e3 a6 bd d2 7e a8 bd
       -0.106810585 -0.06943613 -0.0814895 -0.08227314
0002d0 32 c9 87 bd b8 cb 5e bd 22 b9 01 3d 95 f6 80 bd
       -0.06630172 -0.0543935 0.031670697 -0.06297032
0002e0 5e 55 e2 3c f2 72 b4 bd 00 9a 77 bd 1a 44 9a 3d
       0.027628597 -0.088109866 -0.0604496 0.075325206
0002f0 d0 b4 d3 bd 5b 8a 97 bd 2f bf 79 bd 9f 53 04 bd
       -0.103372216 -0.07399436 -0.060973343 -0.03230631
000300 b5 36 c8 3d e5 61 fe 3d 2a 95 54 bc 60 ed 82 3d
       0.097760595 0.12421016 -0.012975017 0.06392932
000310 31 cc e7 3c a4 cc f6 bd 50 77 b3 bd bc 11 8f 3d
       0.028295608 -0.12050751 -0.087629914 0.069858044
000320 59 03 96 3d 45 1b 64 bc f4 a7 90 bd c1 2d f7 3d
       0.07324857 -0.013922517 -0.070632845 0.12069274
000330 19 26 93 3c d5 c4 fb 3b 26 ad ab bd e6 81 dc bd
       0.017962502 0.0076833763 -0.08382635 -0.10766964
000340 3e 45 b8 bd ee 82 af b9 05 74 4f 3d f4 bc a8 bd
       -0.08997582 -0.0003347615 0.050647754 -0.08239165
000350 65 a6 5a ba ff 11 8b bd e1 5f e9 bd 29 d7 04 3d
       -0.0008340835 -0.06790542 -0.113952406 0.032431755
000360 3f e6 51 bc 09 7c 48 bd 22 ac 0e be d7 6e bd 3b
       -0.012811243 -0.048946414 -0.13932851 0.0057810354
000370 49 2b 07 3d 90 88 6f bd 4d 92 8b bd 47 a0 90 bb
       0.033000264 -0.058479846 -0.06815014 -0.004413638
000380 ff 83 d1 3d de b6 8d bd 97 5b eb 3c 12 e7 22 bd
       0.102302544 -0.06919645 0.028730197 -0.039771147
000390 37 0f 15 bd 7a b6 a2 bd 9e 6d de 3d 60 02 7f bc
       -0.036391463 -0.07944961 0.108607516 -0.015564531
0003a0 1a d1 fe bb 2e 1e a9 3d 2c 89 be bd a6 99 bb 3d
       -0.0077763917 0.082577094 -0.09303507 0.091601655
0003b0 ef 4c b6 bd 96 8c 12 3d ba df ae 3c 1f a4 f0 3c
       -0.08901393 0.035778604 0.021346916 0.029375134
0003c0 a8 71 44 bd de 96 b6 bd b8 a0 10 b9 dc 71 d8 bd
       -0.047959954 -0.089154944 -0.00013792783 -0.10568592
0003d0 54 b1 e6 bd e0 da b5 3d b0 c2 fd 3b 4a 16 6c 3d
       -0.112642914 0.08879638 0.007744156 0.057638444
0003e0 33 d2 d5 bd 7f c7 a5 bc 80 30 1a 3c f8 65 01 be
       -0.10440483 -0.020236729 0.009410977 -0.12636554
0003f0 d6 8c 7a bd f7 30 cf bb d2 0c a5 3c ec 74 02 3e
       -0.061169468 -0.0063229757 0.020147715 0.12739915

lstm.weight_hh_l0 f4 [256, 64]
000000 c2 4f 05 3e 79 9f e8 bd ff ac 4a 3d 0d 06 a7 3d
       0.13018706 -0.11358542 0.04948139 0.08155451
000010 da 74 0d 3e 1b 58 44 bd c0 11 60 3a 27 4d c5 3d
       0.13814107 -0.047935586 0.0008547567 0.09633856
000020 d0 7c 7d bd 84 d8 34 bd 67 22 ae bd e5 a3 f8 bd
       -0.06188661 -0.044151798 -0.085026555 -0.121406354
000030 4c b5 f5 bd 08 6d 56 3d 80 f0 ef 3c b0 c3 cf bc
       -0.1199747 0.052350074 0.029289484 -0.025361866
000040 88 2d 93 3d ab 09 0b be d3 d8 96 bd 1a ac a7 bc
       0.07186419 -0.13577907 -0.07365575 -0.020467807
000050 84 9d bb bd 51 62 93 3c 4a 1f 52 3d 62 d8 03 3e
       -0.09160903 0.017991217 0.05129937 0.12875512
000060 4e 3a 05 3d 37 d7 92 3d 6e 4f ca 3d af 71 23 3d
       0.032526307 0.07169955 0.09878431 0.03990334
000070 f9 93 04 be 94 69 38 bd 45 f7 12 bd 9e d9 54 3c
       -0.12947072 -0.045022562 -0.035880346 0.012991337
000080 c2 01 5b bd 33 61 d9 bd 0e 5f c5 3d bd b1 2a 3d
       -0.053468473 -0.106142424 0.09637271 0.04167341
000090 c9 10 c2 bd fb 2d be bd 2a 4a 36 3d e9 e7 1a bd
       -0.09475858 -0.09286114 0.044504322 -0.037818823
0000a0 51 a9 bb 3d 6a 17 be 3d 8d ec a4 bd ca c4 ce 3d
       0.09163154 0.0928181 -0.08052931 0.10096128
0000b0 62 89 d8 3c be 11 d3 bd 81 16 99 3d 55 58 81 3c
       0.026432697 -0.103061184 0.074749954 0.01578919
0000c0 ee 14 3b bd 02 3f 8d bc 32 d3 d0 3a bf 12 2b 3c
       -0.045674257 -0.017241959 0.0015932082 0.010441481
0000d0 5b d7 03 be 67 6c 7a 3c 06 20 c2 3d d6 53 93 3d
       -0.1287512 0.015284634 0.09478764 0.07193725
0000e0 b1 4c bb bc 81 9f 1a 3d 37 e3 d1 bb 28 23 83 3d
       -0.022863718 0.03774977 -0.00640526 0.0640319
0000f0 16 a5 c4 3d 52 1c 32 3c 47 a9 9a 3c ce c8 fa 3d
       0.096018 0.01087101 0.018879546 0.12245332
000100 2d 49 df bd 80 84 ad bd bd c9 d3 3d 6f cf c4 bb
       -0.10902629 -0.08472538 0.10341213 -0.0060061733
000110 7b 23 c3 3d ea a9 2c 3d ec 67 da bd d3 74 87 3d
       0.09528252 0.04215423 -0.10664353 0.06614079
000120 a6 0f e4 bc af 08 04 bd 93 23 f2 3d 54 a7 63 bd
       -0.027839493 -0.032234844 0.118231915 -0.0555795
000130 ea 74 14 bd c2 41 a0 bd 9a 6f ba bb 37 80 48 3d
       -0.03624431 -0.07825042 -0.0056895735 0.0489504
000140 c6 64 01 be 65 49 39 3c c6 b0 a1 bd 26 d3 84 bd
       -0.12636098 0.0113090025 -0.07895045 -0.06485586
000150 aa f3 41 3b 54 78 9c bd 82 36 cd 3c e0 8b 28 3d
       0.0029594698 -0.07640138 0.025050405 0.04114902
000160 c2 b8 e2 bd 4f b6 77 3d 99 87 81 3c f3 d5 da 3c
       -0.11070396 0.060476597 0.015811728 0.026713347
000170 b7 b4 04 3e e5 94 0c bd 8e be bc bd d2 e7 e4 3c
       0.12959562 -0.034321684 -0.09216033 0.027942572
000180 e5 74 c4 bd 1c 2b ca 3d 08 82 54 bd 4c 16 db bc
       -0.09592608 0.09871504 -0.05188182 -0.02674403
000190 c8 7c 49 bd 6c 18 51 3d ca cb 4b 3d 8b 64 83 3d
       -0.049191266 0.05104868 0.049754895 0.064156614
0001a0 07 2d f1 3d e8 50 15 3d 97 82 e8 bc 54 9b 2b bb
       0.117761664 0.03645411 -0.028382583 -0.0026185112
0001b0 76 39 4b bd 49 ff b7 bc 75 c9 b2 3d 0a 3b 68 bd
       -0.049615346 -0.022460597 0.08729831 -0.05669693
0001c0 4c a2 12 bc 43 cb 1e bd a9 b4 0a bd e1 cd 45 3b
       -0.008949827 -0.038768064 -0.033863697 0.0030182528
0001d0 cc 7c 34 3d fd 4d af bc d0 bf 07 bd 35 a6 ed bb
       0.044064328 -0.021399492 -0.03314191 -0.0072524794
0001e0 a2 47 fd bc ff 4a 94 bd 99 fe 76 3d 09 88 f5 bd
       -0.030917946 -0.07240867 0.060301397 -0.11988837
0001f0 bc 6a 17 3d 06 a2 06 bd ce e7 99 3d 6e 73 ab bd
       0.036967024 -0.03286936 0.07514916 -0.08371626
000200 39 b1 0e be b0 d8 e0 3d 10 16 f1 3c db d5 fb 3d
       -0.13934793 0.1097883 0.029429466 0.12296649
000210 69 90 8b bd 9e ac 18 bd 34 bf 8b bc e7 7e 89 3d
       -0.068146534 -0.037273996 -0.017058946 0.06713658
000220 23 07 bd bd 39 e6 a6 3d 12 db e2 3b a8 a9 10 bd
       -0.09229877 0.0814938 0.006923088 -0.035318047
000230 50 24 df bd 9f 8b df 3d 14 2d a7 3d e9 1c 64 3d
       -0.10895598 0.109153025 0.08162895 0.055691633
000240 1c dd 77 bc e9 f2 64 bc 11 e3 90 bd f6 f3 1c bc
       -0.0151284 -0.01397393 -0.070745595 -0.009579649
000250 b4 4d 2c bd 75 17 20 bd 66 c2 87 3b 50 fd a4 3d
       -0.04206629 -0.03908487 0.004143047 0.08056128
000260 99 47 5e bd ef d6 5c bd 53 10 d0 bd 66 da db bc
       -0.0542675 -0.053915914 -0.101593636 -0.026837539
000270 e4 66 e3 bc b4 98 e2 bb 05 2f 07 bc d9 54 c1 3c
       -0.027759023 -0.0069151763 -0.008250956 0.023600029
000280 df 92 a6 bc b7 42 75 bd a0 2c ab 3d 2e 9b a6 3d
       -0.020333705 -0.059878077 0.08358121 0.08135067
000290 19 0d ec bd ad e2 b9 bd 81 35 9e 3c ed 2c 75 3c
       -0.11525936 -0.09076438 0.019312622 0.014964324
0002a0 fb c3 e8 bd 2a 72 ce 3c ba b1 0b 3d 2b 99 31 3d
       -0.11365505 0.025200922 0.03410504 0.043358963
0002b0 89 58 1f 3d 54 68 25 3d b9 12 3f 3d 60 ed 07 3c
       0.038902793 0.0403827 0.046648715 0.008296341
0002c0 e1 b7 d4 3d 20 12 e4 3c 75 0c a7 3d 2f c3 36 bd
       0.103866346 0.027840674 0.08156673 -0.044619735
0002d0 5e be 28 bd 80 c4 dc 3d c1 6f d5 bc 5c e2 18 3e
       -0.041197173 0.10779667 -0.026054265 0.14930099
0002e0 f7 b7 5b bd aa ff 8c bd 0b 39 b1 bc da d6 95 bd
       -0.05364224 -0.068847016 -0.021633646 -0.0731637
0002f0 81 26 01 bd a5 16 bb bd 9b fe e7 3d 18 28 41 3d
       -0.03153086 -0.091351785 0.11327859 0.047157377
000300 29 97 2e 3c 6b 0e 4b 3c d5 42 de bc d0 ce 23 bd
       0.010656157 0.012393574 -0.027131477 -0.039992154
000310 33 e8 c4 bd ea 73 36 bd 91 89 f0 bc 92 b0 da 3d
       -0.09614601 -0.044544138 -0.029362472 0.10678209
000320 83 5b 6f 3d 37 6d 1f bd e6 93 88 bd 85 3f 9f bd
       0.05843688 -0.038922515 -0.066688344 -0.07775787
000330 e6 42 1f 3d 64 de e5 3d 29 38 b5 3c b3 5f a0 3d
       0.03888216 0.11224058 0.022121506 0.07830753
000340 05 b0 c7 3a 82 8d 7e bd 10 41 4a bc a3 d3 96 bd
       0.0015234953 -0.06214667 -0.012344614 -0.07364585
000350 b1 7f 97 3d 75 4b 2d bd bb 57 a2 3d 13 60 d3 bd
       0.07397402 -0.04230829 0.079268895 -0.10321059
000360 79 91 20 3d 3f f9 c0 3d ef d4 e6 bd 6b 80 8d 3d
       0.039201234 0.0942254 -0.112710826 0.069092594
000370 28 8e 8a 3d 47 79 b5 3d ea 44 a6 3c d8 ea b3 3a
       0.067653954 0.088610224 0.020296533 0.0013726605
000380 f3 dc dd bd d7 ff 9d 3c 2f 73 c7 3d 0f 80 d8 bd
       -0.10833158 0.019287033 0.097387664 -0.105713
000390 9d 74 4e bd 6a 34 9a bd aa d2 76 bd 19 1c b8 bd
       -0.05040418 -0.075295284 -0.0602595 -0.08989734
0003a0 45 51 a9 3d 0d fc aa 3d 79 fd 28 3b a0 8d 05 3c
       0.08267454 0.08348856 0.0025785847 0.008151442
0003b0 54 4f b2 3d 2e 0e b0 bc 51 c4 7e bd 0f d6 92 bd
       0.08706537 -0.021491136 -0.06219894 -0.07169735
0003c0 1f 50 8d 3d 83 89 23 3c 61 27 e8 3d 67 3c a9 bd
       0.069000475 0.009981516 0.11335636 -0.08263474
0003d0 e1 02 21 bc 0e b7 57 bc c7 e9 f9 bd 12 be 07 3e
       -0.009827347 -0.013166202 -0.122027926 0.132561
0003e0 68 2c 0a 3d b9 98 93 3c c7 05 af bd 0c 2b b3 3d
       0.033733755 0.01801716 -0.08546024 0.08748445
0003f0 a2 4c e7 3d cb 53 b6 3d 03 96 5a 3d 84 16 db 3c
       0.112939134 0.08902701 0.05336572 0.026744135

lstm.bias_ih_l0 f4 [256]
000000 3f 49 0a 3e 26 b0 c3 3c f2 6f 9e bd 9a ba 44 3d
       0.13504504 0.023887705 -0.077361956 0.04802952
000010 e3 f2 91 3d fd 92 2b 3d 55 28 06 3e e7 da a1 bd
       0.07126405 0.041888226 0.13101323 -0.079030804
000020 b1 a3 d7 bd f2 e1 ea bd 73 df 13 bd 8f 06 f3 bd
       -0.105292685 -0.11468877 -0.03610177 -0.11866485
000030 af 16 ed 3c d3 b4 90 bc 7f dd 86 3d 94 e4 8d 3d
       0.02894148 -0.017664349 0.06585216 0.069283634
000040 2f fe 48 bd a1 a7 6f 3d ee d2 9a bd 88 21 5b bc
       -0.049070533 0.058509473 -0.07559763 -0.013374694
000050 4e 7f c5 bd 7a 76 88 3d e0 8a 72 bc a7 06 26 3d
       -0.09643422 0.066632226 -0.014803618 0.040533688
000060 26 2e c8 bd 00 5d 2b 3b 36 92 61 bd 47 9f c4 3d
       -0.09774427 0.0026147962 -0.05507108 0.09600692
000070 17 e4 e1 bd 90 09 bf 3d 22 6f 1a 3c 6a 53 2a 3d
       -0.11029833 0.09327996 0.00942591 0.041583456
000080 89 bc 3f 3c 7c d1 46 bb 26 62 cc 3d 43 5d b1 bd
       0.011702665 -0.0030337265 0.09979658 -0.086603664
000090 af 4f e8 bd c4 65 88 bd 33 99 f8 3d 98 58 44 bd
       -0.113433234 -0.06660035 0.121385954 -0.047936052
0000a0 b1 a1 cb 3d 95 86 f4 3c 4f 05 9b 3d 07 63 f1 bd
       0.099429496 0.02984933 0.07569372 -0.11786466
0000b0 d3 db 80 bd f1 74 ed 3d d0 fa 29 39 53 fb 74 3d
       -0.06291928 0.115945704 0.00016210531 0.059809994
0000c0 a0 08 7b 3c 39 9e 13 bd 68 2a 2a bd 3b 74 ce 3d
       0.015321881 -0.036039565 -0.041544348 0.10080763
0000d0 9d e2 85 bd 3a bd 90 bc 8f 13 8e 3d 91 89 fd bb
       -0.06537364 -0.017668355 0.06937324 -0.0077373465
0000e0 99 43 e5 3d e4 db e0 bc c8 8b d8 bd f5 40 f4 bc
       0.11194534 -0.027448602 -0.10573536 -0.02981613
0000f0 f6 41 b0 bc af 0b 05 bd 53 1e 66 bd 25 b9 9a bd
       -0.021515828 -0.032481845 -0.056181263 -0.07554845
000100 d4 48 22 3e 08 02 fc bd a2 c2 d4 bd eb 62 94 3d
       0.15848094 -0.12305075 -0.10388686 0.072454296
000110 bf 87 23 3d 8b 7b 91 bd 2d e6 58 3d 51 af 4d bd
       0.03992438 -0.07103642 0.052953888 -0.050216023
000120 08 63 96 3d 25 08 06 3c d4 3f c3 3c 49 cf bb 3d
       0.073431075 0.008180653 0.023834147 0.09170396
000130 9d ba 96 bc 7c 64 a7 bc 5a 65 8a bb 65 de f1 3d
       -0.018399531 -0.020433657 -0.004223508 0.118099965
000140 bd a3 ad bd 12 84 9c bc 19 f9 31 bd bd 9a 4a 3d
       -0.08478496 -0.019105945 -0.04345045 0.049463976
000150 73 4b 7b bd c3 99 bf 3c f4 94 7d bd 01 cf a4 bd
       -0.06135125 0.023388749 -0.06190963 -0.08047295
000160 e2 0e c1 bd 9a b1 d0 bc 06 0c 94 bd 48 5e 81 bc
       -0.09426667 -0.025475312 -0.07228856 -0.015792027
000170 d4 6f fc 3d 7c 6e df ba 4b 08 6f bd 4c f3 ec 3d
       0.12326017 -0.0017046477 -0.05835752 0.11569843
000180 69 c6 c6 3d bf ea c2 bc 51 39 f0 3d 08 66 81 bd
       0.097058125 -0.023793576 0.11729682 -0.06318289
000190 1d 6d 0f be 78 38 cb bd 9a b9 91 3b e1 79 02 3e
       -0.14006467 -0.0992288 0.0044471743 0.12741806
0001a0 d9 f7 e6 bd ea a2 f6 bc ed e5 73 bd 38 be 9d 3d
       -0.11277742 -0.03010698 -0.059545446 0.07702297
0001b0 82 d1 bf 3d 57 a1 ac 3d 37 46 ce 3d de 1f 0b 3d
       0.09366132 0.08429211 0.10071986 0.033965938
0001c0 ce 46 c1 3d cb f4 89 bd a2 25 00 3e 5c af 97 bd
       0.09437333 -0.06736144 0.12514356 -0.07406494
0001d0 89 e4 b1 bd 40 e3 df 3d 33 50 94 bc 72 6a 75 3d
       -0.08686168 0.109320164 -0.018104648 0.059915967
0001e0 ff 5d fa 3b 78 45 dc bd d0 0e ad 3c 0d f8 4c 3d
       0.0076405997 -0.107554376 0.021125227 0.050041247
0001f0 e8 d8 db bd c1 56 70 bc f6 39 f6 3c 53 85 d6 3d
       -0.10734731 -0.014669121 0.030056935 0.10474648
000200 13 a2 82 bd dc 39 95 3d 7e 68 03 3d 81 87 05 bd
       -0.063785695 0.072864264 0.032082073 -0.03259993
000210 76 8c 9c bc 15 e2 6e bc b1 9e 8e bd 79 60 03 be
       -0.019109946 -0.014580269 -0.06963862 -0.1282977
000220 26 67 98 bd cf 19 f3 b9 a0 e0 0c be 31 ea 6a 3d
       -0.07441549 -0.000463678 -0.13757563 0.05735225
000230 b2 f7 97 3c e8 ca b3 3d 0c 05 97 bd 02 7d 80 bd
       0.018550728 0.08778936 -0.073740095 -0.06273843
000240 85 b0 68 bd e2 c4 f1 bd 0f e0 b2 3d 86 5a 82 bd
       -0.056808967 -0.118051305 0.08734142 -0.06364922
000250 85 87 ec 3d 5b 82 bc bd 3d 27 11 3b 40 56 e5 bd
       0.11549286 -0.09204551 0.0022148632 -0.111980915
000260 49 68 c0 3d 11 4b eb bd 87 b0 af bd 94 8b 8b bd
       0.09394891 -0.11488927 -0.08578592 -0.06813732
000270 a9 b8 e9 bd 6d e4 76 bc 61 32 2c 3c 1a c1 bc 3d
       -0.11412174 -0.015069109 0.010510058 0.09216519
000280 2f 33 39 3d 51 a0 c6 3d 93 9f d9 3d 81 c3 e8 bd
       0.045214828 0.09698547 0.106261395 -0.113654144
000290 2a 1f 61 3d 3c 4e 76 bc c6 c9 05 bd 59 3d ec bd
       0.05496136 -0.015033301 -0.03266313 -0.11535139
0002a0 09 b9 fc 3c 38 27 d8 bd 3b 8a 9f bd 07 2f ec 3d
       0.03084995 -0.105543554 -0.07790037 0.11532407
0002b0 88 80 e3 3d f0 15 a7 bd 8b d8 93 bd 46 84 36 3d
       0.111085 -0.08158481 -0.07219037 0.04455974
0002c0 63 d6 4a 3d c5 3e 6d 3d 3a 84 01 be 94 79 b6 3c
       0.04952086 0.05792119 -0.12648097 0.02227477
0002d0 92 8f f1 bd 4b dc a8 bc 0d d7 f9 3c 64 64 e2 3d
       -0.11794962 -0.020612856 0.030498052 0.11054304
0002e0 e9 6c 83 bd bf af 8d 3d 21 bd 97 3d 38 06 b6 3d
       -0.06417257 0.069182865 0.0740912 0.08887905
0002f0 06 80 5b bd 80 69 5e 3d d7 52 58 3c a2 e4 61 bd
       -0.05358889 0.05429983 0.013203344 -0.055149682
000300 b6 32 e2 3d 49 b1 fa bd e9 8f d7 bc 91 8c ec 3d
       0.110448286 -0.12240846 -0.026313739 0.115502484
000310 d7 b9 17 3d 93 29 df 3d b1 4e 2d 3d 5c 49 18 3e
       0.037042465 0.108966015 0.042311374 0.14871734
000320 5b fe 05 bc 08 fc df bd 0b ed c4 3d 7f 3b 15 bd
       -0.008178319 -0.10936743 0.09615525 -0.036433693
000330 02 fe b5 3d be c7 8e 3d 38 a1 8e bd ab 4f 9d bb
       0.08886339 0.069716915 -0.06964344 -0.004800757
000340 ae 05 eb 3d bc 97 41 3d 05 18 99 3c b7 28 e8 3c
       0.11475693 0.047263846 0.018688211 0.028339727
000350 fb 87 dc bd 33 c7 d4 3d bc 8c 00 be 6c ac 89 bd
       -0.10768124 0.10389557 -0.12553686 -0.0672234
000360 c9 15 c5 bd ff 91 9e bd 6e 9f 3d b9 8c 20 ef bc
       -0.09623296 -0.0774269 -0.00018083837 -0.029190324
000370 78 7c cd bc c8 d5 79 bd 76 79 eb 3d 3d 36 aa 3d
       -0.025083765 -0.060994893 0.11497776 0.083111264
000380 4a 89 aa 3c b0 9c c2 bd ed bc 12 3d 42 9f 38 bd
       0.020817418 -0.09502542 0.035824705 -0.045073755
000390 c9 f4 80 bd ac 55 82 3d 55 c2 e9 3d 91 61 ba bc
       -0.06296689 0.06363997 0.11414019 -0.022751601
0003a0 bf 81 07 bd 09 df 66 3d f8 17 f6 bc db 9a 54 3c
       -0.03308272 0.056365047 -0.030040726 0.012976374
0003b0 3e a2 0c ba 0e a8 a4 3d 40 b8 88 bd 27 11 59 bd
       -0.0005364752 0.080398664 -0.06675768 -0.052994873
0003c0 25 a5 29 3e d7 62 4f 3d 06 81 65 bd 8e 5a 04 bd
       0.16566904 0.05063137 -0.05603125 -0.032312922
0003d0 e8 ea a7 3d d0 28 c5 bd cd f4 fb 3d ec 8a ce 3c
       0.08199102 -0.09626925 0.123025514 0.025212727
0003e0 10 2f 4d bd 5e 7b a8 3d 61 bf ae 3c 32 66 28 3d
       -0.05009371 0.082266554 0.021331491 0.041113086
0003f0 46 ed c2 3d 24 c3 60 3d 9a 67 d2 3d 1f 81 4e bd
       0.095179126 0.0548736 0.10273667 -0.05041611
