CDvsE/CNN1D_best.pt (torch, 220469 bytes, 22 tensors)

backbone.0.weight f4 [32, 1, 7]
-0.044747476 0.13725224 -0.35115123 0.17175055 -0.23524657 -0.12881428 0.1701147 0.2712834
0.25818932 0.2780354 0.05850773 -0.17716 -0.123463675 -0.3566203 0.15119429 0.30515116
-0.0102402065 -0.37355316 0.10788865 0.03784373 -0.18461384 -0.22491834 0.2599176 -0.004149488
0.2584104 -0.21084313 -0.075004384 -0.25082755 -0.25690606 -0.027376821 -0.079068005 0.05145442
-0.11151596 0.15254438 0.16350466 0.0136227505 0.27643028 -0.3276618 0.017258951 0.28157765
0.25115952 -0.27070606 -0.13397613 0.03218134 0.123500705 -0.19542073 0.13228981 0.22588165
-0.18706211 0.03856314 0.055154335 -0.25363153 -0.13981631 -0.26513034 0.158422 -0.27840137
0.21519987 -0.2733212 0.33333582 0.090035625 0.12996694 0.06382107 0.31284896 -0.22480795
-0.21449755 0.35799354 -0.0335095 0.17655857 0.03944074 -0.11505465 0.092151225 0.30007747
0.09711741 -0.18954134 -0.30476373 -0.30794913 -0.25879088 0.023729905 -0.28599012 0.07187634
0.26467884 -0.24055503 -0.12296636 -0.25741458 -0.03126089 -0.35306677 0.18632801 -0.17141014
0.06456508 -0.10778695 -0.0488192 -0.198812 -0.18679668 0.17485084 0.048885126 -0.15026662
0.29625967 -0.014837722 0.34815827 0.19112054 0.20585953 0.059862364 -0.25852212 0.19071814
0.18862648 -0.15088166 -0.025049623 -0.1508862 -0.18832806 -0.24739197 -0.1058715 0.18130857
-0.29801658 -0.338729 -0.18613134 -0.35604128 -0.02122628 0.31060413 -0.07109468 -0.16766678
-0.25390327 0.15002455 0.07815868 -0.23611845 -0.052319292 -0.31892002 0.029527063 0.2892229
-0.26861662 -0.07597315 -0.14642009 -0.2310015 -0.19820382 -0.09967668 0.10151726 0.11726185
0.16866255 -0.10835734 0.1319916 0.08825414 0.28745767 -0.019050967 -0.19889209 0.10504732
-0.3445899 0.32855177 0.12167438 0.30264717 0.1458053 0.06440455 -0.27862749 -0.23846993
0.16153726 -0.24975084 -0.036148194 -0.38574225 -0.059359647 -0.08997529 0.16588952 0.31580675
0.17391163 0.07658278 -0.19259086 -0.29287615 0.14790821 0.03485533 0.23766099 -0.024050435
-0.08105417 -0.032873187 0.0015547685 -0.23140813 0.07237849 -0.21685962 0.33169028 0.33417794
-0.13524362 0.049953874 0.042348776 -0.18415187 0.2728321 -0.25753164 0.24094659 0.09392389
0.2312472 0.007987199 0.1749535 -0.19395323 0.16816026 -0.02086505 -0.28819722 0.19640683
-0.28983855 0.1896898 0.13726614 -0.23585983 0.13936861 -0.07455133 -0.27754351 -0.32490677
-0.017638557 0.08715247 0.28654402 0.1859835 0.09388403 0.30250862 -0.117028885 -0.15543528
-0.31790802 0.22901414 -0.27157792 -0.31047204 -0.3552956 -0.2655759 0.17602187 -0.066725686
0.26210248 0.26557103 0.05705888 -0.16014124 0.2550344 0.027416296 0.04130683 0.09246146
00000000: 2149 37bd da8b 0c3e 18ca b3be 60df 2f3e
00000010: 7ae4 70be e4e7 03be 8c32 2e3e a8e5 8a3e
00000020: 6431 843e a85a 8e3e cda5 6f3d 6e69 35be
00000030: 86da fcbd f096 b6be add2 1a3e c63c 9c3e
00000040: 8ac6 27bc 5c42 bfbe b9f4 dc3d 0702 1b3d
00000050: 690b 3dbe fe50 66be eb13 853e 6ef8 87bb
00000060: 5e4e 843e 43e7 57be e69b 99bd 786c 80be
00000070: 3189 83be 5b45 e0bc 68ee a1bd dfc1 523d
00000080: 7b62 e4bd 9834 1c3e c46d 273e f531 5f3c
00000090: 4588 8d3e 4ac3 a7be a562 8d3c f22a 903e
000000a0: fb97 803e fc99 8abe 0a31 09be 95d0 033d
000000b0: f0ed fc3d 5f1c 48be fb76 073e 854d 673e
000000c0: 368d 3fbe 62f4 1d3d 83e9 613d fedb 81be
000000d0: 022c 0fbe 2abf 87be 6039 223e a08a 8ebe
000000e0: 5b5d 5c3e c2f0 8bbe feaa aa3e 9964 b83d
000000f0: 0e16 053e 9fb4 823d bd2d a03e 0e34 66be
00000100: 3fa5 5bbe ee4a b73e 4241 09bd c5cb 343e
00000110: 9d8c 213d c6a1 ebbd c8b9 bc3d c1a3 993e
00000120: 7ee5 c63d 2017 42be fe09 9cbe 82ab 9dbe
00000130: 3d80 84be 3865 c23c 4c6d 92be e733 933d
00000140: fc83 873e 0f54 76be c9d5 fbbd d8cb 83be
00000150: 6b0b 00bd 2bc5 b4be c5cc 3e3e 2486 2fbe
00000160: b23a 843d 68bf dcbd a4f6 47bd 5f95 4bbe
00000170: a147 3fbe 190c 333e c53b 483d 7edf 19be
00000180: 59af 973e eb19 73bc cd41 b23e 1ab5 433e
00000190: d7cc 523e 3d32 753d 035d 84be 9e4b 433e
000001a0: 4d27 413e b980 1abe de34 cdbc e981 1abe
000001b0: 12d9 40be 5254 7dbe 28d3 d8bd f4a8 393e
000001c0: a195 98be e36d adbe 3799 3ebe 0b4b b6be
000001d0: bce2 adbc 8107 9f3e 169a 91bd d7b0 2bbe
000001e0: 9cff 81be 09a0 193e a811 a03d 09c9 71be
000001f0: c14c 56bd 7c49 a3be bde2 f13c 0615 943e
00000200: 1e88 89be d097 9bbd 26ef 15be a88b 6cbe
00000210: f1f5 4abe 4a23 ccbd 48e8 cf3d fb26 f03d
00000220: e0b5 2c3e 74ea ddbd ce28 073e 96be b43d
00000230: a72d 933e c610 9cbc 5eaa 4bbe 0d23 d73d
00000240: 166e b0be f037 a83e 6b30 f93d 92f4 9a3e
00000250: fc4d 153e 88e6 833d 43a8 8ebe 7631 74be
00000260: 066a 253e afbe 7fbe 2110 14bd 0280 c5be
00000270: 1a23 73bd f744 b8bd f1de 293e 6cb1 a13e
00000280: e415 323e 6fd7 9c3d 8a36 45be ddf3 95be
00000290: 4075 173e 76c4 0e3d 675d 733e 6b05 c5bc
000002a0: bbff a5bd 09a6 06bd 60c9 cb3a 41f6 6cbe
000002b0: 2c3b 943d 7310 5ebe 4fd3 a93e 5f19 ab3e
000002c0: 4e7d 0abe 6f9c 4c3d e975 2d3d 4f92 3cbe
000002d0: a6b0 8b3e 30db 83be b4ba 763e 2b5b c03d
000002e0: 11cc 6c3e bedc 023c 0327 333e ad9b 46be
000002f0: 3432 2c3e 2eed aabc 968e 93be df1e 493e
00000300: b865 94be 0b3e 423e 7f8f 0c3e 3d85 71be
00000310: a5b6 0e3e 5eae 98bd 2f1a 8ebe 2e5a a6be
00000320: bc7e 90bc ff7c b23d e6b5 923e 7572 3e3e
00000330: 4546 c03d 69e2 9a3e d7ac efbd 6d2a 1fbe
00000340: d7c4 a2be af82 6a3e 430c 8bbe 31f6 9ebe
00000350: 4ee9 b5be 90f9 87be 143f 343e 7aa7 88bd
00000360: 4c32 863e edf8 873e 92b6 693d 11fc 23be
00000370: de93 823e 2498 e03c 5a31 293d 6f5c bd3d

backbone.0.bias f4 [32]
-0.138616 -0.045277704 0.22144586 -0.31721562 0.3081843 0.08598725 0.21678498 -0.14920697
-0.14264649 -0.06058779 -0.051431883 -0.28026512 -0.29202548 0.09652528 -0.266956 0.16626431
0.21046695 -0.3658168 0.02581109 -0.11840637 0.21347697 -0.30607408 -0.05100478 0.007982415
0.2439655 0.27901906 0.24563147 -0.28095585 0.18210095 -0.19336379 0.12538655 0.1708502
00000000: 5af1 0dbe 1d75 39bd b4c2 623e 166a a2be
00000010: 55ca 9d3e 151a b03d e2fc 5d3e b6c9 18be
00000020: ec11 12be e72a 78bd 3daa 52bd e97e 8fbe
00000030: 5d84 95be 0caf c53d 75ae 88be 3141 2a3e
00000040: a684 573e 574c bbbe c771 d33c 0a7f f2bd
00000050: b599 5a3e beb5 9cbe 63ea 50bd adc8 023c
00000060: 18d2 793e 96db 8e3e d186 7b3e 72d9 8fbe
00000070: ac78 3a3e 2801 46be 5565 003e 5bf3 2e3e

backbone.1.weight f4 [32]
1.0009927 1.0244572 1.034156 1.0352238 0.9947373 0.9969019 1.0108442 0.9976474
0.9918926 1.009598 1.0041702 0.9759305 1.0020063 1.0109684 0.974857 0.9841326
0.9996756 0.98449075 0.9695972 0.98744375 0.9920119 1.016975 1.0107905 1.0101012
1.0141888 0.9945626 0.9869593 1.0009747 0.9971638 0.9763605 0.9877848 0.99617404
00000000: 8720 803f 6a21 833f 395f 843f 3782 843f
00000010: 1ba7 7e3f f734 7f3f 5863 813f d265 7f3f
00000020: acec 7d3f 823a 813f a688 803f 95d6 793f
00000030: be41 803f 6a67 813f 3a90 793f 1df0 7b3f
00000040: bdea 7f3f 9607 7c3f 8637 783f 1dc9 7c3f
00000050: 7ef4 7d3f 3d2c 823f 9561 813f ff4a 813f
00000060: f0d0 813f a89b 7e3f 5da9 7c3f f01f 803f
00000070: 2046 7f3f c3f2 793f 77df 7c3f 4305 7f3f

backbone.1.bias f4 [32]
-0.027177218 0.03264347 -0.020757444 0.06198176 -0.002552664 0.008107862 0.0126885725 -0.010530565
0.010734811 -0.0067116553 0.00039704837 -0.023834495 0.015621179 -0.043214824 0.005333308 0.015927117
0.019704102 -0.021106271 -0.061101552 -0.005980707 -0.0215026 -0.001538771 -0.04031945 -0.013021036
0.019654179 -0.029856484 0.0132872425 -0.003761383 -0.011712077 -0.014845551 -0.025911188 0.014354136
00000000: c2a2 debc 29b5 053d 840b aabc 96e0 7d3d
00000010: 984a 27bb d7d6 043c bbe3 4f3c 6488 2cbc
00000020: 10e1 2f3c 72ed dbbb ee2a d039 8f40 c3bc
00000030: f9ef 7f3c 0702 31bd 08c3 ae3b 9679 823c
00000040: 7f6a a13c 0fe7 acbc 9f45 7abd cef9 c3bb
00000050: 3826 b0bc 96b0 c9ba 0226 25bd 2f56 55bc
00000060: cd01 a13c 9695 f4bc bcb2 593c 8981 76bb
00000070: 03e4 3fbc c13a 73bc b343 d4bc 9c2d 6b3c

backbone.1.running_mean f4 [32]
-0.13968414 -0.045329273 0.22233106 -0.31777617 0.30900967 0.08550375 0.21618877 -0.14929542
-0.14249878 -0.06218944 -0.05132588 -0.28062457 -0.2919475 0.09638093 -0.26710308 0.16629478
0.21065539 -0.36563867 0.025725838 -0.11860849 0.21272881 -0.3059925 -0.051288657 0.00666407
0.24463904 0.27999055 0.24542204 -0.28047976 0.18234585 -0.19324489 0.12551501 0.1713139
00000000: 5c09 0fbe 30ab 39bd c1aa 633e 8fb3 a2be
00000010: 8436 9e3e 971c af3d 9760 5d3e e6e0 18be
00000020: 33eb 11be 5bba 7ebd 163b 52bd 06ae 8fbe
00000030: 257a 95be 5d63 c53d bcc1 88be 2e49 2a3e
00000040: 0cb6 573e fe34 bbbe febe d23c 02e9 f2bd
00000050: 95d5 593e 0dab 9cbe 0e14 52bd 455e da3b
00000060: a882 7a3e ec5a 8f3e ea4f 7b3e 0b9b 8fbe
00000070: dfb8 3a3e fde1 45be 0287 003e e96c 2f3e

backbone.1.running_var f4 [32]
0.09146367 0.41288903 0.0749403 0.0882749 0.09388402 0.06570331 0.0076637254 0.4242653
0.6205774 0.03955619 0.56321317 0.2587658 0.17043456 0.054368343 0.6734314 0.46606594
0.9640195 0.48911232 0.42701697 0.14411746 0.060274825 0.15477386 0.22396435 0.047358684
0.065257326 0.051896926 0.4406984 0.07610447 0.14410937 0.11072092 0.8888445 0.2588578
00000000: 4e51 bb3d 3166 d33e 4d7a 993d 79c9 b43d
00000010: 4446 c03d 758f 863d fd1f fb3b 4d39 d93e
00000020: 29de 1e3f ac05 223d bd2e 103f f37c 843e
00000030: 6686 2e3e 57b1 5e3d 0066 2c3f 32a0 ee3e
00000040: fbc9 763f ee6c fa3e f8a1 da3e 8793 133e
00000050: bce2 763d 0a7d 1e3e e956 653e 2efb 413d
00000060: a2a5 853d df91 543d 38a3 e13e a9dc 9b3d
00000070: 6891 133e a6c1 e23d 508b 633f 0289 843e

backbone.4.weight f4 [64, 32, 5]
-0.042540938 -0.036271237 0.011484137 0.011631042 0.028720466 -0.08775708 0.067445435 0.008055636
-0.014452704 0.025852554 0.0010937514 0.07749777 0.05420664 0.03993422 -0.049441274 0.03727097
-0.028919144 -0.011093027 0.056397863 0.06913647 0.019133769 0.05649203 0.06625865 -0.08920512
-0.037707232 -0.01552227 -0.021895673 -0.016534748 -0.03931643 -0.016332207 0.08723232 -0.0145209795
0.055495776 -0.06243649 0.0645835 -0.046212938 -0.009953382 -0.022170994 -0.042882774 -0.01012643
-0.05330783 0.006658408 0.06884438 0.080970675 -0.020311441 0.027548863 -0.008597594 0.0064650727
-0.055776607 0.06353391 0.042874653 0.06525749 0.017299892 -0.037728764 0.09668456 -0.05098392
0.074171975 0.07710857 0.016296651 0.07187358 -0.011959113 0.007444762 -0.07838229 0.05850184
0.05189655 0.04207022 -0.0073170704 0.030083803 0.022239255 -0.019325182 0.027935684 0.0016558357
-0.04059105 0.020848792 0.010414217 -0.0563733 0.05939998 -0.07700895 0.07101344 0.042796906
0.04406975 -0.026715005 -0.021790022 0.025267558 -0.01785073 -0.08274481 -0.004913062 0.022083394
-0.029728485 -0.0015664415 0.026732856 -0.02200323 0.07260732 -0.04635522 -0.002345671 0.035752077
-0.039978437 0.04556211 0.08940991 0.0391815 0.07329103 0.01620312 0.044700556 -0.053288434
0.018736944 -0.034689136 -0.055539362 -0.030830612 -0.019834485 0.010827355 0.06324008 -0.029120343
0.034525547 -0.01628875 -0.008067941 0.079766765 -0.038191836 0.009875438 -0.051704902 0.006952773
-0.08219702 -0.009993624 -0.05912855 -0.06277495 -0.02973303 -0.053456943 -0.059450075 -0.047825087
-0.020717857 -0.060757678 0.05389636 0.011634289 0.055068064 0.02808157 0.02287804 0.007994995
0.07398114 -0.00078932155 0.036244873 -0.043298744 -0.024557028 -0.044785988 0.02846016 0.017053945
0.017681606 0.009876936 -0.028200185 -0.024336139 -0.026175294 -0.00134239 0.06757571 -0.09278187
-0.032214023 -0.07054367 -0.05681258 0.018479943 0.070047475 -0.040476907 -0.066246256 -0.009180678
-0.017936379 0.00678176 -0.03543111 0.08999837 0.07906996 0.004273784 -0.035730474 0.022079203
0.040406797 -0.00044522923 0.0551292 0.029777812 0.091251895 0.08195485 0.084294 -0.018426225
-0.008005456 0.023670789 -0.008703395 0.04348572 -0.045777753 0.0015769117 0.046855744 0.068023525
0.05811616 -0.05236034 0.017604169 0.0636119 0.08587157 -0.005870372 0.08481714 0.05317358
0.03283419 0.055228 0.043149255 0.012641109 -0.009978093 0.042572726 -0.023873342 0.07486663
-0.06321114 -0.058215737 -0.05950684 0.039632723 0.05650182 -0.026227748 0.04140384 -0.05357395
0.019682012 0.049169008 -0.04102363 0.049859 -0.05008003 0.029757468 -0.041458923 0.041209787
0.0054595536 -0.0310317 -0.01014238 -0.06091033 0.03068957 0.0442863 -0.025475599 0.071548626
0.04558231 0.015206158 0.013239163 0.07664032 0.064897716 0.10109186 0.021776829 0.08786465
-0.04335328 0.053084828 0.02438089 -0.072551966 -0.04118359 -0.042680405 0.01451952 -0.034860052
-0.05052515 -0.008855977 -0.040423166 -0.0353471 -0.036915638 -0.023201931 -0.06417557 0.024731426
0.024875313 0.0129480045 -0.02272089 -0.061550587 0.08455511 -0.05850609 0.020642309 -0.01270935
00000000: 683f 2ebd 2691 14bd f627 3c3c 2090 3e3c
00000010: 2f47 eb3c fcb9 b3bd d520 8a3d c9fb 033c
00000020: 09cb 6cbc bcc8 d33c 355c 8f3a 27b7 9e3d
00000030: c807 5e3d 1192 233d ef82 4abd 72a9 183d
00000040: d7e7 ecbc 87bf 35bc 7201 673d 6c97 8d3d
00000050: 6cbe 9c3c 3064 673d 9db2 873d 2db1 b6bd
00000060: e672 1abd 1f51 7ebc 8e5e b3bc e173 87bc
00000070: 440a 21bd 1fcb 85bc dca6 b23d 67e9 6dbc
00000080: 8a4f 633d 68bd 7fbd 5b44 843d c749 3dbd
00000090: 8313 23bc f29f b5bc d9a5 2fbd 53e9 25bc
000000a0: 5059 5abd c62e da3b 48fe 8c3d f4d3 a53d
000000b0: 2e64 a6bc 27ae e13c ecdc 0cbc f6d8 d33b
000000c0: 0376 64bd 111e 823d 559d 2f3d b8a5 853d
000000d0: 81b8 8d3c 7a89 1abd 8e02 c63d 84d4 50bd
000000e0: 7ae7 973d 19eb 9d3d 8e80 853c 7532 933d
000000f0: 28f0 43bc 31f3 f33b e586 a0bd a09f 6f3d
00000100: 7a91 543d d351 2c3d 09c4 efbb 4f72 f63c
00000110: 192f b63c d84f 9ebc 60d9 e43c a008 d93a
00000120: cd42 26bd 16cb aa3c 64a0 2a3c b0e7 66bd
00000130: 654d 733d deb6 9dbd 7f6f 913d cf4b 2f3d
00000140: 7b82 343d 6dd9 dabc fd80 b2bc e9fd ce3c
00000150: b23b 92bc 1c76 a9bd c0fd a0bb 3ce8 b43c
00000160: 2789 f3bc 0e51 cdba ddfe da3c 1e40 b4bc
00000170: 26b3 943d f9de 3dbd d4b9 19bb c570 123d
00000180: 6ec0 23bd 569f 3a3d 8b1c b73d c87c 203d
00000190: 9c19 963d 68bc 843c ee17 373d f944 5abd
000001a0: 387e 993c 3216 0ebd 3e7d 63bd 7b90 fcbc
000001b0: ee7b a2bc 3865 313c 0484 813d c98d eebc
000001c0: a96a 0d3d fc6f 85bc 662f 04bc c25c a33d
000001d0: 0b6f 1cbd 97cc 213c 85c8 53bd 16d4 e33b
000001e0: e956 a8bd 4cbc 23bc c730 72bd 2790 80bd
000001f0: af92 f3bc abf5 5abd ec81 73bd 3de4 43bd
00000200: 7fb8 a9bc 0bdd 78bd 6ec2 5c3d bf9d 3e3c
00000210: 0d8f 613d 520b e63c ba6a bb3c 71fd 023c
00000220: 6d83 973d 79ea 4eba 8175 143d 065a 31bd
00000230: d22b c9bc 8371 37bd 4825 e93c b7b4 8b3c
00000240: 04d9 903c dfd2 213c 1304 e7bc 955c c7bc
00000250: 926d d6bc 22f3 afba 2265 8a3d 6c04 bebd
00000260: daf2 03bd 3379 90bd 4fb4 68bd 4063 973c
00000270: 0d75 8f3d 1dcb 25bd 1eac 87bd 8e6a 16bc
00000280: 50ef 92bc 8739 de3b 3620 11bd 1151 b83d
00000290: 6eef a13d 190b 8c3b 1e5a 12bd 72df b43c
000002a0: 9981 253d a86d e9b9 28cf 613d 99f0 f33c
000002b0: 46e2 ba3d f2d7 a73d 55a2 ac3d 98f2 96bc
000002c0: 5129 03bc 3ee9 c13c af98 0ebc 151e 323d
000002d0: 7481 3bbd 60b0 ce3a cfeb 3f3d eb4f 8b3d
000002e0: 360b 6e3d cc77 56bd 9e36 903c f546 823d
000002f0: 6fdd af3d 405c c0bb 9cb4 ad3d 8acc 593d
00000300: 257d 063d c136 623d 46bd 303d a71c 4f3c
00000310: 287b 23bc bd60 2e3d 0792 c3bc ad53 993d
00000320: d874 81bd a073 6ebd 72bd 73bd ec55 223d
00000330: 746e 673d 93db d6bc 1397 293d 5c70 5bbd
00000340: 2c3c a13c 7165 493d 6508 28bd f338 4c3d
00000350: b820 4dbd efc5 f33c d5d0 29bd 98cb 283d
00000360: 0ee6 b23b 3136 febc 3a2c 26bc 1c7d 79bd
00000370: b168 fb3c 8d65 353d 34b2 d0bc 1688 923d
00000380: 84b4 3a3d 4023 793c 13e9 583c 9af5 9c3d
00000390: 18e9 843d 4009 cf3d 5265 b23c 62f2 b33d
000003a0: 3593 31bd 7a6f 593d 6fba c73c 2096 94bd
000003b0: 20b0 28bd a6d1 2ebd 48e3 6d3c 6ac9 0ebd
000003c0: 76f3 4ebd a918 11bc c392 25bd 1fc8 10bd
000003d0: da34 17bd fa11 bebc 7b6e 83bd 8f99 ca3c
000003e0: 50c7 cb3c de23 543c 2921 babc 781c 7cbd
000003f0: 3b2b ad3d 15a4 6fbd 0f1a a93c e13a 50bc

backbone.4.bias f4 [64]
0.053786386 -0.044666227 0.03287917 -0.05242295 -0.064328834 -0.040591177 -0.058578316 -0.030228684
0.024532912 0.046659037 0.020894503 -0.07226591 -0.04856094 0.05974722 -0.017124819 -0.0137286745
-0.00448043 -0.06206346 -0.018171543 -0.06678198 0.017147006 -0.060760017 -0.023849098 0.04296131
0.0768992 -0.06110135 0.03781368 0.018199814 0.0071741785 0.0673276 0.03845208 0.024127899
-0.076696545 -0.073271394 -0.05296311 -0.07135756 -0.076554015 0.029434921 0.041730188 0.010476129
0.07680559 -0.019358043 -0.043604005 -0.024813842 0.018155731 0.046093713 0.022767669 0.045180432
-0.045235917 -0.04671004 0.007927996 0.006350202 0.06481885 0.021567646 0.04693545 0.04490115
-0.06046877 0.052694548 -0.01801959 -0.010849869 0.038009588 -0.072207786 -0.0070868307 -0.057162423
00000000: 1d4f 5c3d eff3 36bd 4fac 063d 72b9 56bd
00000010: d6be 83bd ef42 26bd d1ef 6fbd 25a2 f7bc
00000020: 3ff9 c83c 8c1d 3f3d f32a ab3c 2600 94bd
00000030: d6e7 46bd 80b9 743d 5949 8cbc 3cee 60bc
00000040: 92d0 92bb 4136 7ebd 7ddc 94bc fec4 88bd
00000050: e177 8c3c 7fdf 78bd 2f5f c3bc 33f8 2f3d
00000060: 547d 9d3d 6945 7abd 84e2 1a3d c717 953c
00000070: 5f15 eb3b 0ee3 893d ee7f 1d3d dfa7 c53c
00000080: 1413 9dbd 500f 96bd d9ef 58bd ea23 92bd
00000090: 5ac8 9cbd 8121 f13c 46ed 2a3d 12a4 2b3c
000000a0: 404c 9d3d c294 9ebc 1d9a 32bd 6646 cbbc
000000b0: 54bb 943c c3cc 3c3d 4383 ba3c 1e0f 393d
000000c0: 4c49 39bd 0753 3fbd 6de4 013c 5b15 d03b
000000d0: bfbf 843d a2ae b03c 633f 403d 45ea 373d
000000e0: 1aae 77bd 3dd6 573d d29d 93bc a6c3 31bc
000000f0: f1af 1b3d ade1 93bd a538 e8bb 2523 6abd

backbone.5.weight f4 [64]
1.0354495 0.9654245 0.9971051 0.9761762 0.97837216 1.04324 0.9736474 1.0116884
1.0087188 0.9760128 0.97628725 1.05191 0.97482157 0.96856725 1.0446995 0.98341113
0.9967276 0.9971052 0.9604698 1.0181439 1.0370694 0.9950841 1.0246811 0.98043954
0.9682804 0.9759436 1.0150669 0.96343976 0.98560846 0.9669666 0.97683895 0.95275563
0.96425164 0.9718565 0.9801412 1.0244793 0.9871608 1.0057793 1.0288402 1.0188359
0.9784878 0.96300435 0.9907582 0.98320657 0.9987697 0.9962901 0.97775924 0.9855793
0.95091194 1.0181235 0.9781093 1.019022 0.9750549 0.98264587 1.0177009 0.9860276
0.9997276 1.0243708 0.97296387 0.979569 1.0263345 0.9928497 0.9999822 0.99756956
00000000: 9c89 843f 0f26 773f 4842 7f3f afe6 793f
00000010: 9976 7a3f e388 853f f540 793f 017f 813f
00000020: b31d 813f fadb 793f f6ed 793f fda4 863f
00000030: e88d 793f 06f4 773f b7b8 853f d5c0 7b3f
00000040: 8a29 7f3f 4942 7f3f 59e1 753f 8a52 823f
00000050: b1be 843f d5bd 7e3f c028 833f 16fe 7a3f
00000060: 39e1 773f 71d7 793f b6ed 813f fda3 763f
00000070: d650 7c3f 208b 773f 1e12 7a3f cbe7 733f
00000080: 32d9 763f 96cb 783f 89ea 7a3f 2322 833f
00000090: 92b6 7c3f 60bd 803f 09b1 833f 3769 823f
000000a0: 2d7e 7a3f 7487 763f 54a2 7d3f 6db3 7b3f
000000b0: 5faf 7f3f de0c 7f3f 6e4e 7a3f ed4e 7c3f
000000c0: f76e 733f df51 823f 5f65 7a3f 506f 823f
000000d0: 339d 793f ae8e 7b3f 0644 823f 4e6c 7c3f
000000e0: 26ee 7f3f 951e 833f 2914 793f 09c5 7a3f
000000f0: ee5e 833f 662b 7e3f d5fe 7f3f b860 7f3f

backbone.5.bias f4 [64]
-0.008984734 -0.021327877 -0.015705893 -0.014401234 0.011951113 0.011468137 -0.017037995 -0.025376672
-0.035217833 -0.02721943 -0.045182295 -0.010769754 -0.010684315 -0.026445754 0.023894597 -0.050680187
-0.005823702 -0.029121872 -0.04025859 -0.025637297 0.042142496 -0.02820667 -0.011960398 -0.01370187
-0.027108626 -0.022321831 -2.962263e-05 -0.04333725 -0.0027894685 -0.04188825 -0.040361486 -0.05073582
-0.031095644 -0.030158171 -0.01642119 -0.058492113 -0.0034150714 -0.027884617 -0.003625522 -0.016071191
-0.014304745 -0.042301573 -0.016515525 -0.02077622 -0.021735778 0.011511078 -0.03486388 -0.009656258
-0.036263544 -0.03223286 -0.010318514 -0.034053635 -0.021776155 -0.009523127 0.0024193784 -0.024339981
-0.03187519 -0.037597757 -0.020435194 -0.00078491046 0.030907983 -0.011560749 -0.051134847 -0.0031705226
00000000: b534 13bc cdb7 aebc a5a9 80bc 27f3 6bbc
00000010: 9ace 433c dae4 3b3c 4493 8bbc bde2 cfbc
00000020: 9340 10bd 48fb debc 1211 39bd 9f73 30bc
00000030: 440d 2fbc c4a4 d8bc 9abe c33c 0796 4fbd
00000040: c1d4 bebb fe90 eebc 31e6 24bd 4f05 d2bc
00000050: 9c9d 2c3d ad11 e7bc 8cf5 43bc cf7d 60bc
00000060: e912 debc 46dc b6bc 1d7e f8b7 6682 31bd
00000070: 84cf 36bb 0393 2bbd 1652 25bd 5dd0 4fbd
00000080: 4bbc febc 450e f7bc bb85 86bc 6d95 6fbd
00000090: 64cf 5fbb 486e e4bc 2a9a 6dbb bba7 83bc
000000a0: 735e 6abc 6a44 2dbd 914b 87bc e432 aabc
000000b0: 3b0f b2bc f698 3c3c 6ecd 0ebd 4835 1ebc
000000c0: 1589 14bd 9a06 04bd fc0e 29bc d37b 0bbd
000000d0: e863 b2bc e406 1cbc 6f8e 1e3b a464 c7bc
000000e0: 8f8f 02bd 1b00 1abd b567 a7bc 73c2 4dba
000000f0: bd32 fd3c 4c69 3dbc c672 51bd 8bc8 4fbb

backbone.5.running_mean f4 [64]
0.2589749 0.7405636 -0.46442908 -0.36809897 -0.6693624 -0.27310145 0.6220731 -0.6253281
0.5125334 -0.11755284 0.06634559 -0.1824239 -0.4026374 -0.3001526 -0.60773504 -0.5212947
-0.5382272 0.3376871 0.40565845 0.37503916 -0.17638877 -0.43068543 0.38100827 0.29825312
0.6001293 0.20645873 -0.52190506 -0.5412217 0.20282921 0.5070971 0.1799972 0.19861981
0.2411064 -0.32048148 -0.48178443 -0.0010470164 -0.079631366 -0.11187117 0.28616336 0.6782105
0.22765729 0.43090418 0.10411402 -0.43306267 0.04345699 -0.3243349 0.6541434 -0.45180508
-0.29487222 0.27341804 -0.36477795 0.14195025 0.30561605 0.31552112 -0.1887258 0.6797411
0.25971612 0.3156849 -0.06687961 0.25244477 -0.46429837 0.008256258 0.47661978 -0.5445771
00000000: 5c98 843e 9395 3d3f a6c9 edbe 7877 bcbe
00000010: 565b 2bbf f4d3 8bbe 2f40 1f3f 8115 20bf
00000020: 6435 033f 8bbf f0bd 32e0 873d 55cd 3abe
00000030: 7d26 cebe 9aad 99be 8694 1bbf 9273 05bf
00000040: 42c9 09bf 53e5 ac3e 77b2 cf3e 2205 c03e
00000050: 429f 34be cd82 dcbe 8413 c33e a2b4 983e
00000060: 13a2 193f eb69 533e 929b 05bf 818d 0abf
00000070: 76b2 4f3e 1ed1 013f 3051 383e fe62 4b3e
00000080: 99e4 763e 2616 a4be 73ac f6be 0a3c 89ba
00000090: c515 a3bd b61c e5bd 0184 923e 349f 2d3f
000000a0: fe1e 693e 799f dc3e bb39 d53d 64ba ddbe
000000b0: f5ff 313d 390f a6be f175 273f ff52 e7be
000000c0: 7ef9 96be 73fd 8b3e 2dc4 babe 685b 113e
000000d0: b579 9c3e fc8b a13e 5641 41be 8303 2e3f
000000e0: 83f9 843e 74a1 a13e 2df8 88bd 7140 813e
000000f0: 84b8 edbe 4245 073c 8207 f43e 6869 0bbf

backbone.5.running_var f4 [64]
0.1259343 0.33295932 0.17203555 0.1559473 0.5215328 0.06605382 0.27142513 0.71480995
0.1953397 0.10488157 0.10321262 0.117243245 0.5549223 0.24153262 0.2305571 0.9760749
0.2916742 0.16627446 0.20055297 0.18564227 0.05222824 0.7415309 0.19541904 0.109945774
0.4003124 0.30325884 0.15176539 0.530092 0.5387554 0.31285 0.16877344 0.83974737
0.3007416 0.483829 0.18732111 0.06942195 0.28627652 0.2290017 0.11360544 0.44567105
0.33122042 0.49543607 0.22661395 0.41771966 0.056740817 0.16098332 0.22372091 1.0800368
0.2234867 0.15943782 0.17603533 0.09592713 0.709169 0.2735808 0.17927775 0.25527412
0.17248435 0.18405192 1.0047871 0.18737678 0.3756285 0.06733391 0.26918435 0.27053523
00000000: ecf4 003e a579 aa3e 162a 303e a6b0 1f3e
00000010: 2c83 053f 3a47 873d 3cf8 8a3e c9fd 363f
00000020: 2107 483e 26cc d63d 2361 d33d 3a1d f03d
00000030: 630f 0e3f 5454 773e 2917 6c3e 0be0 793f
00000040: 5256 953e da43 2a3e c25d 4d3e 0219 3e3e
00000050: 47ed 553d f8d4 3d3f ee1b 483e 402b e13d
00000060: bff5 cc3e be44 9b3e 6368 1b3e 1cb4 073f
00000070: e0eb 093f e02d a03e f2d2 2c3e aff9 563f
00000080: cefa 993e 6fb8 f73e 1bd1 3f3e 182d 8e3d
00000090: d692 923e 6c7f 6a3e f8a9 e83d ff2e e43e
000000a0: b995 a93e cca9 fd3e 7d0d 683e 5adf d53e
000000b0: 0f69 683d d0d8 243e 1817 653e a53e 8a3f
000000c0: b3d9 643e ab43 233e 9b42 343e 7175 c43d
000000d0: 198c 353f c812 8c3e 9694 373e 4ab3 823e
000000e0: bd9f 303e 1b78 3c3e dd9c 803f b3df 3f3e
000000f0: 6152 c03e 5ce6 893d 88d2 893e 9883 8a3e

backbone.8.weight f4 [128, 64, 3]
-0.10752861 -0.098085836 -0.10781292 0.025082888 -0.039082624 0.02034686 0.03012132 -0.004902777
-0.03726064 0.012640811 0.018411664 0.0020227905 0.016122075 0.0329249 0.043199796 -0.058791924
-0.045985516 0.020350398 0.004596397 0.05736574 0.061357804 0.008009259 -0.028185109 -0.00036696548
-0.043999437 0.042270802 -0.05015964 0.0378977 0.011927988 0.074707456 0.07227839 0.028350396
0.05002866 -0.017203046 0.07930732 0.05206248 0.04982577 0.012852224 0.07293465 0.013635615
0.009976646 -0.026701808 -0.088200234 -0.0742652 -0.035284154 -0.05565352 0.053764172 0.049341608
-0.0018433018 0.07529737 -0.014266727 -0.04507186 -0.02360866 -0.0335758 -0.035479102 -0.045166004
-0.030910645 -0.015979666 -0.05185717 0.048077583 0.019119445 0.0025978198 -0.057630014 0.0036219908
-0.022787469 0.017092053 0.08276316 0.0655616 0.02355 0.055541754 0.04366609 -0.06161451
-0.038896207 -0.013321591 -0.08702199 -0.03231971 -0.035242405 0.008462694 -0.049545154 -0.062541656
-0.06125832 0.01971763 -0.014445168 0.055881515 0.058641054 -0.055229295 0.003909963 -0.042791415
0.009337341 0.022258626 0.0045303297 -0.020715697 0.014267502 0.06134004 0.034865454 0.048420787
-0.044476476 0.019346567 -0.008124194 -0.012994487 0.04252023 -3.6628702e-05 0.06696895 0.00097537437
0.030816287 0.062232334 0.05563988 0.06022114 -0.048211377 0.011412952 0.051409837 -0.019211983
-0.06797262 0.04034687 -0.052604932 -0.019028325 -0.018521147 0.00025982468 0.04506187 0.026809307
0.03939586 0.003695162 0.04378776 -0.02500077 0.05079914 -0.02802939 -0.039010465 0.005104591
0.009525117 -0.052693263 0.02787884 0.015482202 0.07266248 0.08743398 0.04193854 0.022590907
-0.06703403 -0.03314043 -0.024020206 -0.011589558 0.0071445536 0.03881444 -0.03204283 0.010951504
0.0047490946 0.07822539 -0.026559599 0.04764715 -0.030778067 0.012759156 0.056099787 0.03233192
0.0036228783 0.05341951 0.03615871 0.020588025 -0.051690564 0.04131867 -0.011331277 -0.025332706
-0.02952227 -0.018238183 0.09244634 -0.032482646 0.06442039 -0.034248568 -0.02027966 0.074281156
0.08259309 0.0742662 -0.02535643 0.012630425 0.04291667 0.024122357 0.012846583 -0.023188327
-0.029679887 -0.0664139 -0.07016726 -0.0055780327 0.042938937 0.05734462 -0.073048696 0.04401632
-0.0073128077 -0.022783864 -0.0020470247 -0.010265882 -0.017619314 0.04427666 -0.03156314 0.032438118
-0.10752464 0.020988734 -0.060585655 0.040293884 -0.0133895865 -0.028509501 -0.07828154 -0.0034299956
-0.08610332 -0.0060676252 -0.0054868413 -0.03710118 0.039099507 -0.016483584 0.07297377 -0.10372553
0.022582984 -0.04270848 0.009285701 0.05106773 -0.012924947 0.019822963 -0.01015173 -0.03264869
0.012022554 0.030816754 0.037828695 0.07059127 -0.016894668 0.061385002 0.022662664 0.006190006
-0.02625299 0.1020518 0.04931805 0.09100993 0.063364126 0.06835687 0.027984679 0.06466554
-0.008129381 -0.015561481 -0.056730725 -0.009909849 -0.006996264 -0.0503902 0.02779134 -0.023968201
0.07438181 -0.009802064 0.016115837 0.040754206 0.030040717 -0.048570037 -0.031003892 -0.017598107
0.051315 0.0042051007 -0.0482542 0.02524503 -0.031850297 0.024639744 0.0043697744 0.016782265
00000000: f637 dcbd 3ae1 c8bd 05cd dcbd a17a cd3c
00000010: 1a15 20bd 75ae a63c fdc0 f63c 79a7 a0bb
00000020: 9d9e 18bd 671b 4f3c 0fd4 963c cb90 043b
00000030: 7112 843c 43dc 063d 45f2 303d cdcf 70bd
00000040: 4f5b 3cbd e1b5 a63c 5f9d 963b 57f8 6a3d
00000050: 5252 7b3d 4439 033c 75e4 e6bc 4665 c0b9
00000060: c138 34bd 2624 2d3d 3274 4dbd 9e3a 1b3d
00000070: 9c6d 433c 3900 993d b106 943d 173f e83c
00000080: daea 4c3d 67ed 8cbc e06b a23d 783f 553d
00000090: 1b16 4c3d 2292 523c c35e 953d ea67 5f3c
000000a0: 1675 233c c0bd dabc 53a2 b4bd 5a18 98bd
000000b0: 1e86 10bd f2f4 63bd d237 5c3d 6d1a 4a3d
000000c0: f29a f1ba 8235 9a3d fdbe 69bc 459d 38bd
000000d0: f366 c1bc c786 09bd 8952 11bd fdff 38bd
000000e0: 5238 fdbc cae7 82bc 2f68 54bd 00ed 443d
000000f0: 62a0 9c3c 2f40 2a3b 730d 6cbd ec5e 6d3b
00000100: c9ac babc a204 8c3c bb7f a93d 2945 863d
00000110: eeeb c03c c07f 633d 37db 323d 7f5f 7cbd
00000120: a151 1fbd cd42 5abc 9638 b2bd ac61 04bd
00000130: 575a 10bd 1ca7 0a3c dcef 4abd d715 80bd
00000140: 01ea 7abd de86 a13c 6dab 6cbc 04e4 643d
00000150: 9a31 703d 1d38 62bd 261f 803b 0d46 2fbd
00000160: a6fb 183c b957 b63c 2973 943b f7b3 a9bc
00000170: 3ec2 693c b23f 7b3d 14cf 0e3d e054 463d
00000180: f72c 36bd b17c 9e3c 571b 05bc d4e6 54bc
00000190: b129 2e3d c5a1 19b8 0427 893d 44b0 7f3a
000001a0: 7072 fc3c 55e7 7e3d a5e6 633d 71aa 763d
000001b0: 4b79 45bd 64fd 3a3c 1f93 523d 7362 9dbc
000001c0: 3b35 8bbd c242 253d 4578 57bd 4ae1 9bbc
000001d0: a9b9 97bc 1439 8839 cc92 383d 319f db3c
000001e0: 8e5d 213d 882a 723b cb5a 333d 6ace ccbc
000001f0: c212 503d e49d e5bc 70c9 1fbd 6a44 a73b
00000200: 3d0f 1c3c e4d4 57bd 2a62 e43c 10a9 7d3c
00000210: 11d0 943d 9610 b33d bfc7 2b3d 9110 b93c
00000220: 2349 89bd 42be 07bd 06c6 c4bc 21e2 3dbc
00000230: dc1c ea3b e4fb 1e3d 583f 03bd f06d 333c
00000240: 4b9e 9b3b a234 a03d 8493 d9bc a829 433d
00000250: 4922 fcbc c70b 513c e4c8 653d 7a6e 043d
00000260: d06d 6d3b 6bce 5a3d 281b 143d 38a8 a83c
00000270: 7cb9 53bd c43d 293d d2a6 39bc 8986 cfbc
00000280: b0d8 f1bc 3e68 95bc 8254 bd3d 860c 05bd
00000290: d6ee 833d 3a48 0cbd 8821 a6bc b820 983d
000002a0: 9126 a93d e118 983d 4ab8 cfbc d8ef 4e3c
000002b0: 64c9 2f3d 409c c53c 797a 523c 72f5 bdbc
000002c0: 3c23 f3bc 0304 88bd dab3 8fbd eec7 b6bb
000002d0: bde0 2f3d 31e2 6a3d 8e9a 95bd 754a 343d
000002e0: 47a0 efbb 3aa5 babc 6027 06bb 3b32 28bc
000002f0: 6156 90bc 715b 353d 5a48 01bd d5dd 043d
00000300: e135 dcbd 91f0 ab3c aa28 78bd 330b 253d
00000310: ff5f 5bbc c28c e9bc 1252 a0bd c7c9 60bb
00000320: f056 b0bd eed2 c6bb f6ca b3bb 68f7 17bd
00000330: ce26 203d 9508 87bc 4673 953d 0d6e d4bd
00000340: f3ff b83c 16ef 2ebd 0e23 183c 652c 513d
00000350: 28c3 53bc c463 a23c 7153 26bc a2ba 05bd
00000360: 3ffa 443c 6b73 fc3c 43f2 1a3d 2892 903d
00000370: b066 8abc d76e 7b3d 0da7 b93c 89d5 ca3b
00000380: 8310 d7bc 8900 d13d b901 4a3d 6a63 ba3d
00000390: 0dc5 813d b0fe 8b3d 2040 e53c 5e6f 843d
000003a0: 1831 05bc 95f5 7ebc 7a5e 68bd eb5c 22bc
000003b0: eb40 e5bb f465 4ebd aaaa e33c f658 c4bc
000003c0: 7e55 983d d698 20bc 5c05 843c e2ed 263d
000003d0: f317 f63c 60f1 46bd e0fb fdbc e829 90bc
000003e0: ad2f 523d f1ca 893b 32a6 45bd aace ce3c
000003f0: 7575 02bd 4ad9 c93c 5330 8f3b f67a 893c

backbone.8.bias f4 [128]
0.021006454 -0.069129236 -0.059616376 0.021120796 -0.044234898 0.041163106 0.045781873 -0.004092293
-0.010583489 -0.029361308 0.03361728 0.06812135 0.031844016 -0.022349657 0.033452444 -0.042333584
0.02272791 0.027475858 0.04623051 0.06275048 0.048657484 -0.03678153 0.04598301 0.06914235
0.008624957 0.033969533 -0.016084401 0.01764835 -0.044258393 -0.013496559 -0.033466395 -0.058930006
0.0062221307 -0.013238342 0.0007778729 -0.01409488 0.07393152 -0.020352986 -0.06781494 -0.068915084
-0.056490812 0.059498217 -0.048105396 0.029826855 -0.015139632 -0.068173185 -0.06777157 0.012289191
0.06262771 -0.016191483 0.0126767745 0.06908914 0.069351524 0.045357376 -0.011251469 0.014196569
0.07283342 0.008407819 -0.018815529 -0.048550967 0.008032526 -0.0064507932 -0.05319615 0.057742197
0.06692924 0.013106399 0.026823437 0.036043137 0.038232382 -0.052356467 0.039355062 -0.039270505
-0.061405778 0.008243367 0.035404436 0.0628889 -0.06212422 0.033566587 -0.06556391 -0.008556495
0.06406423 -0.051250525 0.033257317 0.03410165 -0.014013493 -0.027655216 0.06833406 -0.01215637
-0.044657715 0.030301088 0.0045519248 0.037466545 0.052705105 0.066060744 0.00020477675 -0.0033735202
0.034353457 -0.0370911 0.06267 -0.031211158 0.0043135085 0.058386456 -0.009921112 0.047406375
0.008804455 -0.0059123538 -0.06577954 -0.04409627 0.017642805 0.0015103559 0.04134563 -0.033110596
0.06497087 -0.057420313 -0.03005199 0.05645237 0.034299817 -0.020449426 0.014357561 -0.029429175
0.04324892 0.039984345 -0.03130776 0.014899877 0.0376991 -0.020681163 -0.03726169 0.0011622016
00000000: ba15 ac3c a193 8dbd 4d30 74bd 8505 ad3c
00000010: a72f 35bd a59a 283d c685 3b3d a418 86bb
00000020: 5f66 2dbc 2087 f0bc 46b2 093d 3583 8b3d
00000030: df6e 023d a116 b7bc 6e05 093d fb65 2dbd
00000040: e22f ba3c 0d15 e13c 345c 3d3d 5383 803d
00000050: 124d 473d 3ba8 16bd ae58 3c3d 819a 8d3d
00000060: b14f 0d3c a323 0b3d 6fc3 83bc 4693 903c
00000070: 4a48 35bd ac20 5dbc 0f14 09bd 9760 71bd
00000080: 04e3 cb3b a1e5 58bc 2bea 4b3a 36ee 66bc
00000090: 6969 973d 4ebb a6bc 8fe2 8abd 5a23 8dbd
000000a0: e962 67bd 67b4 733d 2a0a 45bd 7357 f43c
000000b0: 380c 78bc 629e 8bbd d2cb 8abd 9a58 493c
000000c0: f542 803d 00a4 84bc 3fb2 4f3c 9b7e 8d3d
000000d0: 2c08 8e3d a8c8 393d 1558 38bc ba98 683c
000000e0: b029 953d f3c0 093c 0623 9abc 61dd 46bd
000000f0: db9a 033c 2d61 d3bb 35e4 59bd 1583 6c3d
00000100: 3312 893d 39bc 563c d3bc db3c f8a1 133d
00000110: 8f99 1c3d bc73 56bd c632 213d 1cda 20bd
00000120: a084 7bbd 300f 073c 3e04 113d e5cb 803d
00000130: f775 7ebd 1e7d 093d 5f46 86bd 8b30 0cbc
00000140: 1b34 833d 12ec 51bd d338 083d 2cae 0b3d
00000150: da98 65bc 318d e2bc baf2 8b3d 832b 47bc
00000160: 02eb 36bd fd39 f83c 5028 953b 8576 193d
00000170: 4fe1 573d db4a 873d 57b9 5639 4716 5dbb
00000180: 36b6 0c3d d6ec 17bd 2159 803d 8bae ffbc
00000190: 5558 8d3b a326 6f3d 298c 22bc 302d 423d
000001a0: 9040 103c 6bbc c1bb 6cb7 86bd 4a9e 34bd
000001b0: a587 903c 22f7 c53a 095a 293d fa9e 07bd
000001c0: 730f 853d 9031 6bbd 972f f6bc 9a3a 673d
000001d0: f77d 0c3d 8e85 a7bc fa3b 6b3c 7415 f1bc
000001e0: c825 313d a0c6 233d 913c 00bd 9d1e 743c
000001f0: 5f6a 1a3d 8b6b a9bc b79f 18bd 0455 983a

backbone.9.weight f4 [128]
1.0290251 1.0377067 1.0299169 1.0086732 1.0302427 0.99318737 1.030859 1.0043752
1.0074519 1.0199697 1.0291128 1.0083158 1.0337505 1.0231022 1.0431312 1.0327147
1.0197549 1.0137305 1.0159904 1.0093555 1.0196064 1.0103625 1.0257635 1.0077102
1.0401295 1.0053054 1.0393369 1.0205867 1.0153415 1.0388117 1.0373476 0.991818
1.0222602 1.0334921 1.0286776 1.0331435 1.0284269 1.0241941 1.0067803 1.0365993
1.0272909 1.025985 1.0259583 0.9926961 1.0348786 1.0405029 1.0077767 1.0246763
1.0311168 1.0443443 1.0248206 1.0177377 1.0339761 1.0134184 1.0292242 0.98353046
1.0373638 1.0387738 1.023368 1.0325521 1.0283082 1.0277236 1.0223515 1.0373256
1.0337437 1.0309831 1.0184978 1.0329218 1.0284349 1.029081 1.0357419 1.0276084
1.0213159 1.0273278 1.0382893 1.0177054 1.023235 1.0267779 1.0348868 1.0180336
1.0425303 1.0409032 1.0259713 1.0094744 1.034975 1.00509 1.0319085 1.0056925
1.0366359 1.0098658 1.0375217 1.0358573 1.0379753 1.0366441 1.0232449 1.0373592
1.0285783 0.9978535 1.0346409 1.0297192 1.0333863 1.0370086 1.0331933 1.0409929
1.0226024 1.0320768 1.0404801 1.0066773 1.0233915 1.0287521 1.0198789 1.0289102
1.0341133 0.9795574 1.0236818 1.0328428 1.0268693 1.0104877 1.0227786 1.0242143
1.024206 1.0172364 1.0336604 1.0177475 1.0207083 1.0294513 1.0302235 1.0327086
00000000: 18b7 833f 93d3 843f 51d4 833f 341c 813f
00000010: fede 833f 8741 7e3f 30f3 833f 5e8f 803f
00000020: 2ff4 803f 5e8e 823f f8b9 833f 7e10 813f
00000030: f051 843f 03f5 823f 5385 853f ff2f 843f
00000040: 5487 823f ecc1 813f f90b 823f 9032 813f
00000050: 7682 823f 8f53 813f 384c 833f a6fc 803f
00000060: f722 853f d9ad 803f fe08 853f 96a2 823f
00000070: b6f6 813f c8f7 843f cec7 843f c9e7 7d3f
00000080: 6cd9 823f 7849 843f b5ab 833f 0c3e 843f
00000090: 7ea3 833f cb18 833f 2dde 803f 49af 843f
000000a0: 457e 833f 7a53 833f 9a52 833f 5521 7e3f
000000b0: e776 843f 332f 853f d4fe 803f 9828 833f
000000c0: a3fb 833f 13ad 853f 522d 833f 3b45 823f
000000d0: 5459 843f b2b7 813f 9ebd 833f a7c8 7b3f
000000e0: 56c8 843f 8af6 843f b9fd 823f ab2a 843f
000000f0: 9a9f 833f 728c 833f 6adc 823f 16c7 843f
00000100: b751 843f 41f7 833f 235e 823f c836 843f
00000110: c1a3 833f edb8 833f 3193 843f ac88 833f
00000120: 7bba 823f 7a7f 833f aae6 843f 2c44 823f
00000130: 5df9 823f 756d 833f 2c77 843f ed4e 823f
00000140: a271 853f 513c 853f 0753 833f 7536 813f
00000150: 107a 843f caa6 803f 9415 843f 88ba 803f
00000160: 7cb0 843f 4843 813f 83cd 843f f996 843f
00000170: 60dc 843f c1b0 843f b0f9 823f 30c8 843f
00000180: 74a8 833f 5473 7f3f 1d6f 843f d7cd 833f
00000190: 0146 843f b3bc 843f ae3f 843f 413f 853f
000001a0: a3e4 823f 181b 843f 742e 853f cdda 803f
000001b0: 7efe 823f 26ae 833f 648b 823f 54b3 833f
000001c0: d35d 843f 46c4 7a3f 0108 833f 3134 843f
000001d0: 7470 833f a957 813f 69ea 823f 7419 833f
000001e0: 2f19 833f cd34 823f fc4e 843f 8d45 823f
000001f0: 92a6 823f 0fc5 833f 5dde 833f cc2f 843f

backbone.9.bias f4 [128]
0.010848779 0.023217306 0.013437239 0.0059553436 0.01624216 -0.00811075 0.026683727 -0.013272762
0.0033671912 0.0040115425 0.020292046 -0.010167998 0.019859051 0.005541447 0.03178577 0.01971637
0.014913155 0.008478673 0.0061604218 -0.0023165583 0.0048015905 0.012363761 0.0022397342 0.0019278927
0.02220944 0.00021213936 0.02649892 0.0017148308 0.017178217 0.023283925 0.014578869 -0.011934644
0.020515908 0.030330786 0.011254373 0.025656933 0.017978728 0.0057629133 0.0040353513 0.022301238
0.021387655 0.006973799 0.020043463 -0.0052135144 0.006118007 0.01854711 0.0056567956 0.00038290035
0.025218334 0.027592242 0.00016277056 0.014522591 0.02931854 0.0018162056 0.007890548 -0.021348534
0.036130864 0.012842309 0.006528395 0.022858398 0.009777106 0.027349781 0.016419074 0.009775696
0.02396007 0.0044634095 0.023838019 0.023645129 0.00782586 0.022372361 0.020924715 0.0046153744
0.0148278745 0.0067652557 0.013976842 0.014544984 0.012560949 0.020651218 0.0038645132 0.0037097011
0.03104141 0.016699944 0.018701818 0.0036789037 0.028437523 -0.00076834427 0.013683072 0.0052035884
0.029437454 0.010478672 0.02161982 0.008519806 0.016126199 0.026336122 0.011991581 0.017876206
0.0028176636 -0.00831256 0.029355701 0.019405197 0.031331163 0.0262571 0.013798448 0.019611165
0.014033403 0.013580745 0.017248722 0.010919154 0.001518769 0.026664836 -0.0017185645 0.009550929
0.029753812 -0.027441476 0.015568667 0.012777944 0.017347401 -0.0041438146 0.0136275105 0.020706814
0.016211899 0.019340528 0.036117245 0.015556473 0.012195444 0.017201083 0.024663322 0.0014755687
00000000: 14bf 313c 3832 be3c de27 5c3c 0b25 c33b
00000010: 470e 853c f3e2 04bc d597 da3c 0076 59bc
00000020: 18ac 5c3b 4273 833b 813b a63c ad97 26bc
00000030: 73af a23c 0795 b53b cc31 023d 3a84 a13c
00000040: 4e56 743c 22ea 0a3c 5ddd c93b 66d1 17bb
00000050: a956 9d3b 5f91 4a3c 81c8 123b 58b1 fc3a
00000060: 92f0 b53c ba71 5e39 4314 d93c 2cc4 e03a
00000070: 55b9 8c3c eebd be3c 35dc 6e3c 8689 43bc
00000080: fa10 a83c 4578 f83c 4364 383c 7d2e d23c
00000090: 2048 933c d2d6 bc3b fb3a 843b 16b1 b63c
000000a0: 2a35 af3c 7784 e43b 3032 a43c 21d6 aabb
000000b0: 9079 c83b 1cf0 973c a45c b93b 04c0 c839
000000c0: ae96 ce3c 2009 e23c 64ad 2a39 29f0 6d3c
000000d0: 6f2d f03c bf0d ee3a 5b47 013c 1fe3 aebc
000000e0: f5fd 133d 8c68 523c 26ec d53b 8941 bb3c
000000f0: 2830 203c a60c e03c 4b81 863c 3e2a 203c
00000100: e947 c43c cb41 923b f347 c33c 6eb3 c13c
00000110: 0938 003c 3e46 b73c 4f6a ab3c 913c 973b
00000120: 9df0 723c 14af dd3b 20ff 643c 164e 6e3c
00000130: 70cc 4d3c be2c a93c c643 7d3b 751e 733b
00000140: 8e4a fe3c 52ce 883c 8e34 993c c319 713b
00000150: cff5 e83c b66a 49ba f72e 603c dd82 aa3b
00000160: d126 f13c bcae 2b3c 0c1c b13c a896 0b3c
00000170: 171b 843c dabe d73c 5678 443c 1f71 923c
00000180: 8da8 383b 6731 08bc 5e7b f03c a6f7 9e3c
00000190: 1b55 003d 2119 d73c e312 623c 98a7 a03c
000001a0: 5cec 653c c681 5e3c 314d 8d3c 40e6 323c
000001b0: 6e11 c73a 3770 da3c 7541 e1ba 807b 1c3c
000001c0: 44be f33c f2cc e0bc b913 7f3c 955a 513c
000001d0: 231c 8e3c d6c8 87bb ec45 5f3c 56a1 a93c
000001e0: d1ce 843c 0770 9e3c adef 133d 94e0 7e3c
000001f0: 66cf 473c 49e9 8c3c bc0a ca3c df67 c13a

backbone.9.running_mean f4 [128]
0.3027752 0.28078482 0.3097353 -0.261294 -0.042399436 -0.24392197 -0.502039 0.40582225
-0.53294003 0.14614567 -0.03138859 0.3570327 0.44149235 0.42887524 -0.17267457 -0.17014311
-0.23662718 -0.10966961 0.19144778 0.25045785 0.48423368 -0.18158586 0.23321834 -0.027985688
0.48448744 -0.08425652 0.066144876 0.50276077 -0.27119216 0.29277632 0.47059095 -0.20302822
-0.19944361 -0.20875375 0.28752726 -0.05973136 0.24378455 0.66611826 -0.08382178 -0.29042792
-0.38692674 0.4889981 -0.6359574 -0.39793956 0.4055832 0.047303647 -0.031199055 0.3696781
-0.26009786 0.096474156 0.32175413 -0.33113265 0.061435297 -0.086769156 0.47345328 0.37909397
-0.55897 0.7061003 0.45520398 0.23906922 0.7326838 -0.60928845 -0.429277 0.08853806
0.0084404405 0.31402647 -0.34693933 0.012628214 0.47371778 -0.14724635 0.19145152 0.02880447
0.26839706 0.10712008 0.37573597 0.06823459 0.22418416 0.2231625 0.09331588 0.78279424
0.19863522 0.38796303 0.26242208 -0.02337917 -0.1497344 -0.06884672 0.36251834 -0.36450997
-0.34470913 -0.15050872 0.2815006 0.3697602 0.19786352 -0.055612408 -0.15142602 0.13589588
0.62443304 -0.059072975 -0.29350978 -0.17190316 -0.50052077 -0.071053706 0.15278079 0.07959196
0.09617721 0.32776424 0.25970924 -0.47627544 0.30872083 0.1705238 0.44109836 0.5310799
0.12893425 -0.602555 -0.11279011 0.47751942 0.42262924 -0.10606233 -0.29612157 -0.40111202
0.022865681 -0.648365 -0.53870213 -0.60433775 -0.13449368 0.16760089 0.16508242 0.35761663
00000000: 5a05 9b3e 07c3 8f3e a095 9e3e 54c8 85be
00000010: 08ab 2dbd aec6 79be a185 00bf efc7 cf3e
00000020: c26e 08bf 36a7 153e 5291 00bd fdcc b63e
00000030: 490b e23e 8995 db3e 9ad1 30be ff39 2ebe
00000040: 654e 72be 769a e0bd e30a 443e 033c 803e
00000050: 7aed f73e a5f1 39be cad0 6e3e 3e42 e5bc
00000060: bd0e f83e af8e acbd f776 873d eeb4 003f
00000070: b3d9 8abe c7e6 953e 4cf1 f03e a1e6 4fbe
00000080: f23a 4cbe 8bc3 55be c636 933e dfa8 74bd
00000090: a8a2 793e ba86 2a3f c1aa abbd f8b2 94be
000000a0: 431b c6be f55d fa3e 1bce 22bf bcbe cbbe
000000b0: 9aa8 cf3e 78c1 413d 2995 ffbc 7346 bd3e
000000c0: 8c2b 85be 3e94 c53d f5bc a43e 388a a9be
000000d0: 94a3 7b3d 07b4 b1bd 7868 f23e 9b18 c23e
000000e0: a818 0fbf fdc2 343f 7f10 e93e 90ce 743e
000000f0: 2a91 3b3f 54fa 1bbf 32ca dbbe 7153 b53d
00000100: c649 0a3c 14c8 a03e 08a2 b1be 92e6 4e3c
00000110: 238b f23e bfc7 16be de0b 443e 5af7 eb3c
00000120: 576b 893e c661 db3d 7760 c03e 94be 8b3d
00000130: 8890 653e b684 643e 651c bf3d 3465 483f
00000140: 0867 4b3e 17a3 c63e 305c 863e ac85 bfbc
00000150: f953 19be 82ff 8cbd 019c b93e 0da1 babe
00000160: b77d b0be f51e 1abe d920 903e 3551 bd3e
00000170: bc9c 4a3e d6c9 63bd 6c0f 1bbe 4a28 0b3e
00000180: d8da 1f3f 81f6 71bd ea46 96be 6207 30be
00000190: 2122 00bf 9b84 91bd 9172 1c3e 1c01 a33d
000001a0: 8ff8 c43d b7d0 a73e 9cf8 843e 60da f3be
000001b0: a810 9e3e cb9d 2e3e a5d7 e13e daf4 073f
000001c0: 5707 043e 0b41 1abf 80fe e6bd 6d7d f43e
000001d0: dc62 d83e 3537 d9bd 3f9d 97be 8e5e cdbe
000001e0: cf50 bb3c 40fb 25bf 62e8 09bf e1b5 1abf
000001f0: b6b8 09be 919f 2b3e 5e0b 293e 8719 b73e

backbone.9.running_var f4 [128]
0.14049216 0.16526428 0.27594343 0.22882362 0.09556026 0.17442219 0.2665809 0.30222833
0.27145186 0.15619469 0.33150184 0.16586329 0.5516609 0.37100646 0.17502573 0.16599125
0.38685995 0.1192254 0.21160486 0.21645635 0.14755812 0.2527089 0.2577785 0.22061177
0.14272156 0.26602402 0.16290352 0.2915652 0.4499369 0.16864656 0.16166997 0.12089785
0.09951295 0.15731783 0.33899513 0.2749209 0.13138762 0.3145329 0.24885699 0.18725215
0.3282264 0.26472092 0.22419593 0.21690784 0.23025584 0.33810645 0.22530647 0.293133
0.279397 0.114570335 0.23182078 0.19194819 0.19264555 0.17130034 0.17141156 0.572853
0.26855427 0.20194094 0.15387622 0.2111562 0.31414253 0.33126053 0.20705605 0.13909844
0.21202745 0.36374715 0.15399972 0.18521553 0.1560618 0.16015449 0.22060172 0.19706404
0.16624133 0.23006175 0.13157034 0.20645383 0.12259549 0.1608734 0.21745628 0.586675
0.21015961 0.33153838 0.15678322 0.26752177 0.1831501 0.1960689 0.20792018 0.27262995
0.22474587 0.23258083 0.21376707 0.21330814 0.19201721 0.13891736 0.13064101 0.15852003
0.14493462 0.21530578 0.13385627 0.26959828 0.22284491 0.21851768 0.21702567 0.21337035
0.17998649 0.3235683 0.2102398 0.2965261 0.1868244 0.18720166 0.19699582 0.28310367
0.20344912 0.26089814 0.12615447 0.15562958 0.18517807 0.17338845 0.1697933 0.32313955
0.09366517 0.20815694 0.26952407 0.2034593 0.1773138 0.19677731 0.16235952 0.26951697
00000000: 2ddd 0f3e 0a3b 293e 7548 8d3e bd50 6a3e
00000010: 19b5 c33d bb9b 323e 4b7d 883e acbd 9a3e
00000020: bdfb 8a3e 80f1 1f3e 9cba a93e 11d8 293e
00000030: a639 0d3f 8ff4 bd3e f239 333e 9cf9 293e
00000040: 8212 c63e 722c f43d f2ae 583e bca6 5d3e
00000050: 7a19 173e 1063 813e 8bfb 833e 0de8 613e
00000060: 9a25 123e 4d34 883e 2ed0 263e 0948 953e
00000070: 215e e63e afb1 2c3e d08c 253e 4b99 f73d
00000080: 72cd cb3d ed17 213e c590 ad3e 6fc2 8c3e
00000090: 7a8a 063e 750a a13e 5ed4 7e3e 07bf 3f3e
000000a0: 4a0d a83e 8089 873e 9e93 653e 171d 5e3e
000000b0: 30c8 6b3e 4a1c ad3e bdb6 663e 8715 963e
000000c0: 200d 8f3e daa3 ea3d 6d62 6d3e 118e 443e
000000d0: e044 453e 5b69 2f3e 8386 2f3e 7fa6 123f
000000e0: f27f 893e 9bc9 4e3e ba91 1d3e 5539 583e
000000f0: 4ad7 a03e fb9a a93e 8006 543e d26f 0e3e
00000100: b91d 593e 113d ba3e 1ab2 1d3e 24a9 3d3e
00000110: aace 1f3e 8aff 233e 6be5 613e 28cb 493e
00000120: 2b3b 2a3e 4f95 6b3e 60ba 063e a268 533e
00000130: 5813 fb3d ffbb 243e dcac 5e3e 5530 163f
00000140: 1534 573e 66bf a93e c88b 203e 9df8 883e
00000150: b38b 3b3e 49c6 483e 07e9 543e 2796 8b3e
00000160: c823 663e ab29 6e3e c1e5 5a3e 736d 5a3e
00000170: 29a0 443e 5a40 0e3e c2c6 053e 1353 223e
00000180: be69 143e 1e79 5c3e 9e11 093e c908 8a3e
00000190: 7531 643e 19c3 5f3e fa3b 5e3e c27d 5a3e
000001a0: 614e 383e bfaa a53e 1a49 573e 45d2 973e
000001b0: e54e 3f3e cbb1 3f3e 46b9 493e f7f2 903e
000001c0: f754 503e 7194 853e a32e 013e 5c5d 1f3e
000001d0: 529f 3d3e be8c 313e 4bde 2d3e 8c72 a53e
000001e0: 86d3 bf3d 1827 553e 0fff 893e a257 503e
000001f0: c091 353e fe7f 493e 9341 263e 21fe 893e
