CDvsE/CNN_BiLSTM_best.pt (torch, 384754 bytes, 24 tensors)

cnn.0.weight f4 [32, 1, 7]
-0.19303167 0.21439345 0.22711785 0.038232315 0.049434356 -0.3435931 -0.15458168 0.08304513
-0.23689146 0.109235786 0.282133 -0.29167965 -0.16559522 0.18293402 0.25027433 0.012149411
0.21263342 0.15519191 0.05194764 0.19090842 -0.3360063 0.3662186 -0.22721244 0.23452906
-0.22114888 0.0070886007 -0.1785605 0.09121768 0.03816274 -0.13448796 0.21779051 -0.3034002
-0.021169882 -0.1897854 -0.21319307 0.25039274 0.26733822 0.35943064 -0.04967492 -0.12659551
-0.017808435 0.20695487 0.0021225284 0.2778405 -0.11710767 0.0016600502 0.26995295 0.020569913
0.19371913 0.22126466 -0.16196573 -0.3241715 0.256867 -0.01188176 -0.04395867 -0.13966656
-0.30822408 -0.17236578 -0.078436024 -0.15854909 -0.3382642 0.037144464 0.28780258 -0.02076538
-0.19494538 -0.3880294 0.24250393 -0.28136843 0.11701315 0.050789163 -0.100637235 0.251844
0.2885838 0.3586098 0.02085193 -0.3449034 -0.19609424 0.27302566 0.12264232 0.24260119
-0.075197466 0.3175924 0.06871462 0.3553175 -0.00090990745 -0.26612088 -0.23795235 -0.21474127
-0.2642609 0.32494026 0.33014947 -0.16254984 0.007118769 -0.0753176 0.19631362 -0.22482263
0.22869591 0.054166645 -0.4039201 0.2457693 0.0199352 0.18084362 -0.0028227807 -0.06947893
0.08223103 -0.218507 0.19148545 -0.03868193 -0.19746909 0.13349959 0.044371884 0.27376747
0.27852884 0.17618059 0.2494322 -0.010903241 0.08920294 -0.08899083 -0.028670944 -0.10638112
-0.27666828 0.054890297 -0.08555729 0.015141559 -0.09036288 -0.13313276 -0.07930216 -0.23892675
-0.28964937 -0.012832675 -0.2648554 -0.30143204 0.017274663 0.06382136 0.033973143 -0.031050144
-0.21465069 0.12816773 -0.32470644 0.22207747 0.3438515 0.03410741 0.11687803 -0.010333102
0.111653954 0.00014512938 0.2702598 0.21821888 0.06591294 0.021325586 -0.009200083 -0.3120583
-0.30592743 -0.2093048 0.38237742 0.33718204 -0.3132895 0.21646613 -0.09640049 0.1482214
0.21203004 0.028176688 -0.15417938 -0.09563431 -0.17704718 0.11557272 0.10639591 0.2854088
0.15175594 0.23420806 -0.25920624 -0.20200361 0.018133143 0.051110145 0.032269064 -0.33958715
-0.17636485 -0.33826822 0.08745488 -0.12186881 -0.17967035 -0.026512034 0.26628783 -0.27975363
0.30702552 0.35531065 -0.16967377 -0.0071383296 -0.30524677 -0.2892901 0.13877006 0.18616466
-0.10953613 -0.33996952 -0.28452113 -0.054339316 -0.108183004 0.2771766 0.29376534 -0.3325755
0.29875928 0.24184164 -0.35650298 -0.28436154 -0.2790495 0.35371527 0.1527199 -0.060148057
-0.3695097 -0.29782787 0.34389374 -0.22727518 0.10336779 -0.2811389 0.18829365 0.3291755
0.080477364 -0.35164484 0.2890905 -0.105566435 -0.13991287 -0.17749465 0.3875595 -0.15972957
00000000: 18aa 45be f589 5b3e 9591 683e 7d99 1c3d
00000010: ae7b 4a3d 6feb afbe a94a 1ebe 9113 aa3d
00000020: ad93 72be 03b7 df3d bd73 903e 0957 95be
00000030: cb91 29be 0e53 3b3e f523 803e 530e 473c
00000040: 93bc 593e a1ea 1e3e 0cc7 543d 7f7d 433e
00000050: 0509 acbe 0181 bb3e 61aa 68be 6328 703e
00000060: da74 62be 7e47 e83b 90d8 36be 56d0 ba3d
00000070: 8950 1c3d 36b7 09be 7a04 5f3e 4557 9bbe
00000080: 766c adbc 1b57 42be 494f 5abe 7a33 803e
00000090: 8ee0 883e 4b07 b83e ee77 4bbd 41a2 01be
000000a0: ffe2 91bc faeb 533e 1e1a 0b3b 1c41 8e3e
000000b0: 25d6 efbd 0b96 d93a 4637 8a3e 3c82 a83c
000000c0: 4f5e 463e 3493 623e 58da 25be cff9 a5be
000000d0: 1284 833e b7ab 42bc 020e 34bd c004 0fbe
000000e0: 8ccf 9dbe a880 30be 11a3 a0bd b15a 22be
000000f0: f730 adbe cb24 183d dc5a 933e 281c aabc
00000100: c39f 47be caab c6be f352 783e 860f 90be
00000110: 97a4 ef3d 4c08 503d e51a cebd b2f1 803e
00000120: 41c1 933e b49b b73e abd1 aa3c 2e97 b0be
00000130: eecc 48be 05ca 8b3e e62b fb3d 726c 783e
00000140: 2101 9abd 799b a23e 40ba 8c3d 2dec b53e
00000150: db86 6eba ff40 88be c8a9 73be 23e5 5bbe
00000160: 344d 87be 925e a63e 5a09 a93e 7773 26be
00000170: 9044 e93b 1d40 9abd 7006 493e e737 66be
00000180: 432f 6a3e d8dd 5d3d 9ece cebe f3aa 7b3e
00000190: 254f a33c 122f 393e 67fe 38bb f84a 8ebd
000001a0: be68 a83d 4dc0 5fbe c314 443e f270 1ebd
000001b0: 5635 4abe 1eb4 083e 4bbf 353d 402b 8c3e
000001c0: 559b 8e3e af68 343e 286b 7f3e 82a3 32bc
000001d0: 08b0 b63d d340 b6bd 54df eabc 58de d9bd
000001e0: 77a7 8dbe a6d4 603d a938 afbd 4d14 783c
000001f0: 2c10 b9bd f453 08be 2c69 a2bd 37a9 74be
00000200: ec4c 94be 2440 52bc 219b 87be 4d55 9abe
00000210: 9883 8d3c c6b4 823d 6c27 0b3d df5c febc
00000220: 64cd 5bbe 673e 033e ec3f a6be 4768 633e
00000230: 4e0d b03e 36b4 0b3d c05d ef3d 2c4c 29bc
00000240: d4aa e43d df2d 1839 7e5f 8a3e c574 5f3e
00000250: 5dfd 863d ffb2 ae3c f2bb 16bc 1bc6 9fbe
00000260: 85a2 9cbe ff53 56be f9c6 c33e 20a3 ac3e
00000270: 7b67 a0be 4ca9 5d3e 9f6d c5bd 5ac7 173e
00000280: 671e 593e ccd2 e63c 33e1 1dbe ecdb c3bd
00000290: db4b 35be 64b1 ec3d 19e6 d93d 1a21 923e
000002a0: e965 1b3e 3dd4 6f3e aeb6 84be 09da 4ebe
000002b0: f58b 943c df58 513d 912c 043d 5ede adbe
000002c0: fd98 34be 7e31 adbe 8b1b b33d 5b96 f9bd
000002d0: 81fb 37be c42f d9bc e156 883e de3b 8fbe
000002e0: 7332 9d3e 47eb b53e f6be 2dbe a6e8 e9bb
000002f0: 4e49 9cbe d51d 94be bd19 0e3e f3a1 3e3e
00000300: 7b54 e0bd 7c10 aebe c1ac 91be e792 5ebd
00000310: 0d8f ddbd 17ea 8d3e 6968 963e 5647 aabe
00000320: faf6 983e 56a5 773e 8f87 b6be d697 91be
00000330: 93df 8ebe 2b1a b53e 9b62 1c3e cf5d 76bd
00000340: 6030 bdbe e57c 98be d712 b03e d3ba 68be
00000350: 7eb2 d33d 70f1 8fbe 0dd0 403e b189 a83e
00000360: 51d1 a43d cb0a b4be ac03 943e 3733 d8bd
00000370: 5245 0fbe 28c1 35be 336e c63e 2690 23be

cnn.0.bias f4 [32]
-0.29690525 0.115919605 0.1768372 0.21099459 -0.31583846 0.2690144 0.25983846 0.34586424
-0.2449236 0.20715667 -0.013366671 -0.11789475 0.35076284 -0.053717848 -0.08639422 -0.10105059
-0.22967388 -0.17128369 0.29567397 0.1624435 0.008975243 0.33741093 0.10425459 -0.18096893
-0.36915156 0.23706329 -0.07080682 0.024051487 -0.27874818 0.04741511 0.37286112 0.0020303465
00000000: f703 98be 4267 ed3d d014 353e f70e 583e
00000010: 94b5 a1be 41bc 893e 8c09 853e 1e15 b13e
00000020: 41cd 7abe e120 543e e2ff 5abc cd72 f1bd
00000030: 3097 b33e 3f07 5cbd 74ef b0bd 9df3 cebd
00000040: a12f 6bbe fe64 2fbe 9462 973e 9757 263e
00000050: e60c 133c 20c1 ac3e 6e83 d53d eb4f 39be
00000060: 6f01 bdbe b8c0 723e 2b03 91bd a007 c53c
00000070: 15b8 8ebe 5936 423d a7e7 be3e 900f 053b

cnn.1.weight f4 [32]
1.0120497 0.9922932 1.0082175 0.99263954 0.9796082 0.9848136 0.999299 0.96443546
0.9946126 0.9947833 1.0074308 0.9910099 0.9937483 1.0409366 1.0222491 1.0047797
0.99509645 0.9926685 0.9877276 1.0102082 1.0062863 1.010242 0.99470127 1.0109408
1.039164 0.99532664 1.0117502 0.9911996 0.9933462 1.0001273 0.9834669 0.9822969
00000000: d88a 813f ed06 7e3f 450d 813f a01d 7e3f
00000010: 9ac7 7a3f be1c 7c3f 0fd2 7f3f 3ee5 763f
00000020: ee9e 7e3f 1eaa 7e3f 7ef3 803f d3b2 7d3f
00000030: 4a66 7e3f 693d 853f 0fd9 823f 9f9c 803f
00000040: a4be 7e3f 861f 7e3f b7db 7c3f 814e 813f
00000050: fdcd 803f 9c4f 813f bea4 7e3f 8266 813f
00000060: 5303 853f bacd 7e3f 0881 813f 42bf 7d3f
00000070: f04b 7e3f 2c04 803f 7dc4 7b3f cf77 7b3f

cnn.1.bias f4 [32]
0.041334126 0.0097300485 0.020854063 -0.0121876355 -0.018334724 -0.02710316 0.01591092 -0.017975835
-0.033076163 -0.027990157 0.0034703072 0.009914644 0.0025812571 -0.039994523 -0.013209307 -0.019193575
0.000720696 -0.042087976 -0.024121623 -0.020537283 0.0077665616 -0.012022122 -0.005429592 -0.0037674468
0.01571455 -0.0003772445 0.004993823 -0.017664816 -0.022233458 0.021958517 -0.015881183 -0.029910343
00000000: f94d 293d c86a 1f3c 24d6 aa3c a6ae 47bc
00000010: b432 96bc 7207 debc 9e57 823c 0f42 93bc
00000020: df7a 07bd 9d4b e5bc 186e 633b 0871 223c
00000030: 4f2a 293b 4cd1 23bd d96b 58bc d83b 9dbc
00000040: 17ed 3c3a 7164 2cbd b69a c5bc ce3d a8bc
00000050: a47e fe3b 6ff8 44bc b8ea b1bb 45e7 76bb
00000060: cdbb 803c e6c8 c5b9 39a3 a33b ceb5 90bc
00000070: f122 b6bc 59e2 b33c 4119 82bc 8906 f5bc

cnn.1.running_mean f4 [32]
-0.29747114 0.116298415 0.1767112 0.21248724 -0.3155006 0.26919383 0.2597981 0.3445634
-0.2450585 0.2073051 -0.012902558 -0.11787937 0.35109577 -0.053662013 -0.086145364 -0.101692
-0.22943921 -0.17116371 0.29554006 0.16312946 0.0090338485 0.3372857 0.10446088 -0.18132259
-0.367859 0.2370945 -0.071482696 0.024187593 -0.27860454 0.047228847 0.37272832 0.0022743214
00000000: 234e 98be dd2d ee3d c8f3 343e 4196 593e
00000010: 4b89 a1be c6d3 893e 4204 853e 9d6a b03e
00000020: 9ef0 7abe ca47 543e 4065 53bc bd6a f1bd
00000030: d3c2 b33e b3cc 5bbd fb6c b0bd e543 d0bd
00000040: 1df2 6abe 8a45 2fbe 0751 973e 690b 273e
00000050: b502 143c b6b0 ac3e 96ef d53d a1ac 39be
00000060: 0458 bcbe e7c8 723e 8565 92bd 0f25 c63c
00000070: 41a5 8ebe 0973 413d 3fd6 be3e c80c 153b

cnn.1.running_var f4 [32]
0.09637868 0.0041403 0.36046195 0.042791028 0.3405782 0.67390794 0.34565523 0.051545568
0.62155384 0.25284186 0.2693864 1.3386958 0.35172674 0.031182945 0.035525497 0.08658201
0.44398132 0.3029727 1.1789228 0.030040704 0.56559217 0.46743566 0.59090954 0.101846494
0.021397304 0.9944508 0.13981736 0.4907405 0.13631703 0.46564072 0.23139468 0.06590939
00000000: 2f62 c53d 5bab 873b 788e b83e a545 2f3d
00000010: 4460 ae3e 3b85 2c3f b9f9 b03e 7221 533d
00000020: 271e 1f3f 7d74 813e 04ed 893e 625a ab3f
00000030: 8715 b43e 6073 ff3c 2f83 113d e951 b13d
00000040: 8551 e33e 3d1f 9b3e f1e6 963f ec17 f63c
00000050: a6ca 103f ba53 ef3e d945 173f e594 d03d
00000060: 6649 af3c 5494 7e3f 482c 0f3e 5742 fb3e
00000070: b196 0b3e 7668 ee3e baf2 6c3e 81fb 863d

cnn.4.weight f4 [64, 32, 5]
0.05161957 0.01603981 -0.026245682 0.07217102 0.06255438 0.055008043 0.0035873628 0.024943357
0.09357003 -0.061848823 0.011807001 0.07060627 0.025508191 -0.055798985 0.020478098 0.0051030708
0.06417479 -0.0145392455 -0.033226598 0.042691916 0.03679969 0.00076044124 0.02833304 0.034349807
-0.050822347 0.014305008 0.04770334 -0.019937811 -0.10447693 -0.1035572 -0.04813287 0.08377202
-0.023505947 -0.04822517 -0.034322273 0.03263404 -0.033808794 -0.015514714 -0.01717014 -0.06333391
0.051873166 0.030894041 0.021492263 0.08274352 0.006324883 -0.011317389 -0.0020073648 0.09197177
0.016062886 -0.019217184 0.053392302 -0.06275604 0.019472534 -0.040466662 -0.04845126 -0.078122914
0.0144242905 0.068727955 0.018857423 -0.03142863 -0.0583939 -0.063798554 -0.006521698 0.029792277
0.013787895 -0.005173438 -0.055959687 0.021592068 -0.036429044 -0.019500732 0.03845499 -0.00208411
0.06475544 -0.04600245 -0.054611083 -0.041632388 0.07531303 -0.022615325 0.04066539 -0.012489003
-0.00663597 0.0651395 -0.018877512 -0.06874559 0.04553636 -0.028214388 0.04782197 0.0036671765
-0.04014238 0.021511244 0.06949146 0.04055424 -0.0032614663 0.06992448 0.042853873 -0.05988011
-0.06653199 0.009027113 0.0005692067 -0.04862922 0.003777931 0.08869651 0.025623877 -0.09402235
-0.000338265 0.0403261 0.023789316 0.03532732 -0.06757794 -0.006037367 -0.069451235 -0.03240011
-0.043486543 0.037732553 -0.029375914 -0.015734807 0.06606258 -0.05675469 -0.040259864 0.043100264
0.04567624 -0.01827242 0.014071565 -0.051509302 -0.04574084 -7.9796206e-05 0.0370576 0.021138107
0.027332092 0.05187086 0.039757367 -0.06432781 -0.015410853 0.026179457 -0.063925296 -0.004664581
0.08076447 0.072511226 -0.0071930476 0.02958983 -0.004982561 -0.052242402 0.03434042 -0.052205596
-0.044752285 -0.033019777 0.04191809 -0.041435514 0.0864464 -0.03911389 -0.046824574 0.06576339
-0.030419458 -0.040183797 -0.070066966 -0.017763307 0.03517647 0.05321217 -0.017967768 -0.059783146
0.026529357 -0.035757367 0.011325937 0.064717494 0.02285523 -0.04893778 0.052199885 0.058983494
0.0046462244 0.030396974 0.026226662 0.049992573 0.057252143 0.0878462 0.051542617 -0.025885196
-0.01075075 0.04070706 -0.022719378 0.020821024 0.027557204 0.014055065 -0.067426674 -0.0009921835
0.08418811 0.0019403823 0.034781624 0.0708257 0.07922787 0.054055896 -0.06221884 0.03337947
-0.04677031 -0.025744623 -0.047720086 0.04812251 -0.015110117 -0.04868672 -0.026295807 0.007916815
0.08591382 0.06213122 -0.014834504 -0.035953164 0.04458813 -0.014575344 0.008147014 -0.060483463
0.08111514 -0.014795761 -0.042186074 0.013950317 0.052521054 0.08093342 -0.04572356 0.06937559
0.061093953 -0.06339579 0.009690428 0.041856755 -0.01620454 0.061595045 -0.06349362 -0.027270345
9.9352954e-05 0.06036818 0.049110763 -0.008157707 0.09222172 -0.037185602 -0.0837357 0.06653126
0.0015765312 0.015026034 0.012152352 0.06409444 0.076162286 -0.014722051 -0.07942261 0.058856692
0.024907954 -0.07135978 0.04363002 -0.02242949 0.05310311 0.011763564 -0.029889066 -0.007908488
0.022967158 0.021014182 0.07171203 -0.038264543 0.068337664 -0.018726842 -0.070709966 0.09234786
00000000: 0b6f 533d eb65 833c 2f01 d7bc 66ce 933d
00000010: 831c 803d 1d50 613d f619 6b3b 0356 cc3c
00000020: a5a1 bf3d 3155 7dbd 2772 413c 059a 903d
00000030: 8ef6 d03c 7a8d 64bd afc1 a73c a937 a73b
00000040: 136e 833d 0436 6ebc 9d18 08bd b8dd 2e3d
00000050: 46bb 163d 5958 473a b11a e83c 62b2 0c3d
00000060: 182b 50bd 8d5f 6a3c 9464 433d 9f54 a3bc
00000070: 00f8 d5bd cc15 d4bd f926 45bd aa90 ab3d
00000080: 8b8f c0bc c187 45bd 8395 0cbd 45ab 053d
00000090: 177b 0abd 6d31 7ebc 65a8 8cbc 36b5 81bd
000000a0: f578 543d 8015 fd3c 8b10 b03c 6f75 a93d
000000b0: f740 cf3b 926c 39bc fe8d 03bb b25b bc3d
000000c0: 5096 833c 5b6d 9dbc e3b1 5a3d 3d86 80bd
000000d0: dd84 9f3c 5fc0 25bd d474 46bd e8fe 9fbd
000000e0: dc53 6c3c 3ec1 8c3d e27a 9a3c 4fbb 00bd
000000f0: 712e 6fbd d1a8 82bd f8b3 d5bb ef0e f43c
00000100: a0e6 613c f285 a9bb fc35 65bd d9e1 b03c
00000110: 9f36 15bd 00c0 9fbc fb82 1d3d 9095 08bb
00000120: 809e 843d 116d 3cbd dfaf 5fbd b986 2abd
00000130: b83d 9a3d c643 b9bc c190 263d ad9e 4cbc
00000140: 8d72 d9bb dc67 853d 03a5 9abc 7dca 8cbd
00000150: 5684 3a3d dc21 e7bc f8e0 433d 0355 703b
00000160: 566c 24bd 5938 b03c 8a51 8e3d 341c 263d
00000170: 53be 55bb 9134 8f3d 8b87 2f3d d944 75bd
00000180: ed41 88bd 75e6 133c d136 153a 6f2f 47bd
00000190: 2a97 773b 84a6 b53d 2ae9 d13c ca8e c0bd
000001a0: 2959 b1b9 fb2c 253d d0e1 c23c 61b3 103d
000001b0: 4e66 8abd 1bd5 c5bb 733c 8ebd fab5 04bd
000001c0: f21e 32bd 738d 1a3d c2a5 f0bc 48e6 80bc
000001d0: d14b 873d 9b77 68bd 87e7 24bd e789 303d
000001e0: 0217 3b3d 0bb0 95bc 6c8c 663c 6bfb 52bd
000001f0: bf5a 3bbd 4358 a7b8 b6c9 173d d329 ad3c
00000200: 8de7 df3c 8a76 543d 9fd8 223d 4dbe 83bd
00000210: cd7d 7cbc 4d76 d63c 44eb 82bd 57d9 98bb
00000220: d867 a53d c480 943d a8b3 ebbb 5f66 f23c
00000230: c044 a3bb 21fc 55bd 8aa8 0c3d 89d5 55bd
00000240: 2c4e 37bd bf3f 07bd 4eb2 2b3d 49b8 29bd
00000250: cf0a b13d e335 20bd 20cb 3fbd f5ae 863d
00000260: 3a32 f9bc c497 24bd 457f 8fbd 5b84 91bc
00000270: 3415 103d 01f5 593d 2431 93bc 2cdf 74bd
00000280: 1854 d93c 5176 12bd 6c90 393c 9b8a 843d
00000290: e43a bb3c fb72 48bd 8ccf 553d ad98 713d
000002a0: 5b3f 983b 1303 f93c 4cd9 d63c 03c5 4c3d
000002b0: 3981 6a3d b5e8 b33d 5a1e 533d 310d d4bc
000002c0: ea23 30bc 72bc 263d fd1d babc da90 aa3c
000002d0: a5bf e13c 3747 663c ff16 8abd 270c 82ba
000002e0: d16a ac3d 6d54 fe3a 2d77 0e3d 110d 913d
000002f0: 3942 a23d b769 5d3d 2fd9 7ebd e9b8 083d
00000300: 3992 3fbd 63e6 d2bc 2376 43bd 1c1c 453d
00000310: 6d90 77bc ba6b 47bd 4e6a d7bc 87b5 013c
00000320: 96f3 af3d 4e7d 7e3d 6b0c 73bc a043 13bd
00000330: 0ba2 363d 6ccd 6ebc 0e7b 053c 82bd 77bd
00000340: b21f a63d eb69 72bc 4ecb 2cbd df8f 643c
00000350: 5120 573d 6cc0 a53d a148 3bbd ca14 8e3d
00000360: a73d 7a3d a7d5 81bd 9ac4 1e3c fd71 2b3d
00000370: 62bf 84bc 164b 7c3d f108 82bd 0f66 dfbc
00000380: b65b d038 a044 773d 5e28 493d e7a7 05bc
00000390: bede bc3d ee4f 18bd 9f7d abbd 8b41 883d
000003a0: 9ca3 ce3a c12f 763c a91a 473c f243 833d
000003b0: f9fa 9b3d c234 71bc 52a8 a2bd b713 713d
000003c0: c40b cc3c 1425 92bd 64b5 323d 0dbe b7bc
000003d0: a682 593d f7bb 403c ead9 f4bc 9a92 01bc
000003e0: 9f25 bc3c ef25 ac3c c2dd 923d 48bb 1cbd
000003f0: 9ef4 8b3d 0969 99bc 63d0 90bd e020 bd3d

cnn.4.bias f4 [64]
0.04736442 0.023987228 0.06625753 0.044805717 -0.0053818715 0.043163884 -0.07419153 -0.03904123
-0.010280872 -0.065139905 0.029956957 -0.016121527 -0.020341912 -0.02431507 -0.011545643 0.02248563
0.067923866 0.028023731 -0.003643176 0.014417948 0.008432007 0.07323132 0.071585365 0.0014920038
-0.00091601704 0.081968516 0.04590473 0.063958995 -0.03992214 0.05451219 -0.071107544 0.06088956
-0.02951512 -0.07676081 -0.029416157 -0.025964584 -0.02197833 -0.0503135 -0.03721844 0.026978489
0.0684492 0.045312945 -0.033286516 0.013426755 0.073171556 -0.070659585 -0.016057873 -0.08010952
0.06970349 -5.919931e-05 -0.01109501 -0.040824205 -0.04512475 -0.04124019 0.07944837 -0.0702404
0.02981007 0.07665335 -0.07030079 0.076468155 -0.072892435 0.050976742 -0.055434797 0.020786745
00000000: 3201 423d dd80 c43c 07b2 873d 3386 373d
00000010: 695a b0bb 9dcc 303d bbf1 97bd b2e9 1fbd
00000020: 1a71 28bc 1268 85bd 4b68 f53c 4b11 84bc
00000030: 15a4 a6bc 6630 c7bc f029 3dbc c933 b83c
00000040: ab1b 8b3d 0692 e53c 5ac2 6ebb 4239 6c3c
00000050: 6726 0a3c 4dfa 953d 599b 923d 578f c33a
00000060: dd20 70ba 1cdf a73d 9906 3c3d effc 823d
00000070: 6685 23bd 2d48 5f3d d5a0 91bd 5567 793d
00000080: b1c9 f1bc c634 9dbd 27fa f0bc aeb3 d4bc
00000090: e60b b4bc 8715 4ebd 5d72 18bd fe01 dd3c
000000a0: 182f 8c3d 119a 393d 7157 08bd e4fb 5b3c
000000b0: f8da 953d f9b5 90bd cd8b 83bc 7610 a4bd
000000c0: b4c0 8e3d c64c 78b8 d8c7 35bc 4837 27bd
000000d0: bbd4 38bd 79eb 28bd d4b5 a23d 33da 8fbd
000000e0: 3f34 f43c 6efc 9c3d dcf9 8fbd 569b 9c3d
000000f0: a148 95bd fdcc 503d 990f 63bd f748 aa3c

cnn.5.weight f4 [64]
1.001482 1.008729 1.0063834 0.99491894 0.99901557 1.0000291 1.0153953 1.0085266
1.0139959 0.9925088 1.0016872 1.0150985 1.0045441 0.9982704 1.00826 1.00177
1.0040681 0.9873957 1.0069554 1.0047199 1.0108773 1.0097325 1.0294863 0.9919062
1.0155375 1.0226126 1.016764 1.0131227 1.004481 0.9774109 1.0010133 1.004515
1.0178992 1.0195401 0.9973995 1.009412 1.0037364 1.0157979 0.9984846 1.0032758
0.99770314 0.9984505 0.9918141 1.0065454 1.0026772 1.0190492 1.012822 1.0144423
1.0188473 0.9988823 0.99215215 1.0123792 1.0048715 1.0076249 0.9981716 1.0028061
0.9905963 1.018179 0.9937654 0.99140716 1.0060195 1.0012578 1.0114833 1.0117947
00000000: 9030 803f 081e 813f 2cd1 803f 02b3 7e3f
00000010: 7cbf 7f3f f400 803f 79f8 813f 6617 813f
00000020: 9eca 813f 0f15 7e3f 4937 803f bfee 813f
00000030: e794 803f a68e 7f3f aa0e 813f 003a 803f
00000040: 4e85 803f f7c5 7c3f eae3 803f a99a 803f
00000050: 6d64 813f ea3e 813f 35c6 833f 91ed 7d3f
00000060: 22fd 813f f8e4 823f 5325 823f 01ae 813f
00000070: d592 803f 9a37 7a3f 3421 803f f393 803f
00000080: 854a 823f 4a80 823f 9355 7f3f 6a34 813f
00000090: 6f7a 803f aa05 823f b09c 7f3f 576b 803f
000000a0: 7969 7f3f 749a 7f3f 87e7 7d3f 7bd6 803f
000000b0: ba57 803f 3470 823f 27a4 813f 3fd9 813f
000000c0: 9769 823f c0b6 7f3f affd 7d3f a495 813f
000000d0: a19f 803f daf9 803f 2d88 7f3f f35b 803f
000000e0: b897 7d3f b153 823f 6967 7e3f dccc 7d3f
000000f0: 3fc5 803f 3729 803f 4978 813f 7d82 813f

cnn.5.bias f4 [64]
0.0118279215 0.0029451663 -0.0032833782 -0.0068718293 -0.00427982 -0.0034559232 0.011005189 0.011776698
0.01551074 -0.008232685 -0.0031859486 0.0019482144 0.003850829 0.0037581793 0.014252417 -0.0040862923
0.009676418 -0.009680176 0.007582873 0.0061971876 -0.00032930804 0.0015180907 0.025005495 -0.010328679
-0.0011539414 0.019538464 -0.0044072988 -0.007926998 0.007935562 -0.013868896 0.0036918963 0.0035623168
-0.009010624 0.006104666 -1.0818336e-05 0.012363022 -0.0040004863 0.021801421 -0.005700922 -0.01570712
0.0016321003 -0.0010136216 -0.0026490146 0.0018153099 0.0055493703 -0.0038824964 0.011791303 0.014422035
0.018450914 -0.0020134777 -0.007284123 0.0033863257 0.0039195963 0.0055824695 -0.0037942529 0.0016808308
-0.0030268582 -0.005322888 -0.0075873584 -0.0037298775 -0.005696961 -0.0051082363 0.011379342 -0.024756089
00000000: e6c9 413c b103 413b f22d 57bb 152d e1bb
00000010: bb3d 8cbb c57c 62bb 1c4f 343c 0df3 403c
00000020: c220 7e3c 62e2 06bc 59cb 50bb 3a5b ff3a
00000030: 315e 7c3b c94b 763b f882 693c 4ee6 85bb
00000040: d789 1e3c 9a99 1ebc c079 f83b c711 cb3b
00000050: faa6 acb9 acfa c63a 53d8 cc3c 9f39 29bc
00000060: d93f 97ba 210f a03c 1a6b 90bb 3de0 01bc
00000070: 2904 023c 5e3a 63bc bef3 713b c275 693b
00000080: 4ca1 13bc a609 c83b 6680 35b7 468e 4a3c
00000090: 8316 83bb e598 b23c cdce babb 38ac 80bc
000000a0: 33ec d53a 7fdb 84ba 179b 2dbb b1ef ed3a
000000b0: 7ed7 b53b 7b71 7ebb 4f30 413c 664a 6c3c
000000c0: 5f26 973c 8df4 03bb a7af eebb 1eed 5d3b
000000d0: f56f 803b 26ed b63b 00a9 78bb 534f dc3a
000000e0: 415e 46bb 9f6b aebb 609f f8bb f670 74bb
000000f0: 93ad babb fe62 a7bb 6b70 3a3c 48cd cabc

cnn.5.running_mean f4 [64]
0.15817511 0.46962264 0.55395275 -0.602759 0.5358976 0.33880225 -1.1374538 0.034728393
0.09506816 0.5082087 0.8112894 0.54455364 -0.016666355 0.2367343 -0.8044092 0.83066493
0.23579265 0.6936746 0.2603146 -0.96911544 0.4929589 0.5252552 0.14221796 0.23592667
0.43052727 0.07215075 0.28301314 1.1088398 0.3152316 0.79795355 0.13307866 -0.49013135
0.55934435 0.42993465 0.23284902 -0.33011994 0.48616824 -0.45574924 0.45525953 0.2725487
0.40074372 0.18881628 0.65350246 -0.03719085 0.28304374 0.19564313 -0.67091566 0.32762
0.048066113 -0.47858116 0.2953158 0.2783146 -0.059985016 0.408278 0.10919489 0.013512089
-0.05541362 0.37644544 0.5656557 0.600467 0.36650196 -0.68785006 -0.67289424 0.91304266
00000000: a8f8 213e 6172 f03e d9cf 0d3f 6a4e 1abf
00000010: 9630 093f 7d77 ad3e 1698 91bf 5c3f 0e3d
00000020: 18b3 c23d f719 023f aab0 4f3f de67 0b3f
00000030: e187 88bc 7a6a 723e c3ed 4dbf 75a6 543f
00000040: a173 713e a994 313f f547 853e f317 78bf
00000050: 1c65 fc3e 2077 063f 96a1 113e c396 713e
00000060: 126e dc3e c6c3 933d 19e7 903e 76ee 8d3f
00000070: 0966 a13e af46 4c3f c645 083e 7ff2 fabe
00000080: 3131 0f3f 6520 dc3e f96f 6e3e 7b05 a9be
00000090: 0beb f83e f757 e9be c717 e93e 818b 8b3e
000000a0: 482e cd3e 0e59 413e f04b 273f 6f55 18bd
000000b0: 1ceb 903e ac56 483e 21c1 2bbf cfbd a73e
000000c0: f9e0 443d 9708 f5be a233 973e 407f 8e3e
000000d0: d9b2 75bd d009 d13e 92a1 df3d cf61 5d3c
000000e0: 64f9 62bd 75bd c03e d0ce 103f 35b8 193f
000000f0: 25a6 bb3e f116 30bf cc42 2cbf 2abd 693f

cnn.5.running_var f4 [64]
0.4415543 0.20668085 0.17585929 0.306057 0.10080048 0.09905116 0.36904246 0.09607628
0.07509717 0.24819708 0.2786998 0.25680792 0.25927097 0.08983381 0.2810226 0.277782
0.39657253 0.57653964 0.205137 0.3067577 0.24598905 0.15132585 0.18022208 0.6727735
0.11955256 0.09436463 0.10939744 0.32579765 0.83317244 0.31785616 0.34432572 0.22913815
0.1714605 0.25743297 0.35123962 0.3058352 0.23876415 0.23252697 0.42766395 0.2504306
0.325843 0.2633483 0.506902 0.1294366 0.14079154 0.11654852 0.3185829 0.22401547
0.09061077 0.19121642 0.15099853 0.19364084 0.07878998 0.3027719 0.4277804 0.12844843
0.50071174 0.16299666 0.48244977 0.38066077 0.23049368 0.22761334 0.13087635 0.3781007
00000000: 6813 e23e 25a4 533e 7514 343e 81b3 9c3e
00000010: 7b70 ce3d 56db ca3d 22f3 bc3e a4c3 c43d
00000020: 8ccc 993d 6027 7e3e bdb1 8e3e 547c 833e
00000030: 2abf 843e cafa b73d 32e2 8f3e 7139 8e3e
00000040: 8e0b cb3e 1a98 133f 6f0f 523e 580f 9d3e
00000050: 8ee4 7b3e 2af5 1a3e 238c 383e e23a 2c3f
00000060: f9d7 f43d 3e42 c13d c40b e03d f3ce a63e
00000070: ca4a 553f 0bbe a23e 764b b03e 31a3 6a3e
00000080: 5793 2f3e 41ce 833e aed5 b33e 6e96 9c3e
00000090: 977e 743e 8d1b 6e3e c5f6 da3e 7138 803e
000000a0: e5d4 a63e 97d5 863e 54c4 013f 078b 043e
000000b0: a82b 103e feb0 ee3d 4c1d a33e 5064 653e
000000c0: 2492 b93d 3dce 433e 5c9f 1a3e c949 463e
000000d0: a45c a13d eb04 9b3e 0806 db3e fc87 033e
000000e0: a52e 003f 99e8 263e a803 f73e f8e5 c23e
000000f0: 8906 6c3e 7913 693e 7304 063e 6a96 c13e

lstm.weight_ih_l0 f4 [256, 64]
-0.044637315 0.1276039 0.033512555 0.13202628 0.14104214 0.103502214 0.041678943 0.0862343
0.085455045 -0.079738125 0.12354923 0.13396654 0.010753377 -0.011368693 0.12013042 0.07260488
-0.049229324 -0.06807357 -0.030865513 0.059547205 -0.086028926 0.033029106 0.039990686 -0.026177505
0.062999204 0.026908781 -0.034733314 0.14649728 0.009240492 0.04595952 -0.07303568 -0.017516095
0.0071209297 -0.017722515 -0.08222945 0.011883621 0.07005041 0.10875718 0.1046301 0.029039595
-0.07148089 0.059612844 -0.06251213 -0.10358557 -0.06937825 -0.06968353 0.0070513687 0.09996958
0.039110973 0.10890518 -0.111577876 -0.01979332 0.0676588 0.019425936 0.08385927 -0.07029521
-0.044513445 0.020840034 -0.007385541 -0.104157336 0.0034985403 0.12166962 0.0933745 -0.031646565
0.026704011 -0.042632565 0.065619096 -0.094642915 -0.060555805 0.031955447 -0.065000415 0.10979455
-0.023358427 0.13234456 0.032301158 -0.06967152 0.15226251 0.08856676 -0.08827281 0.12395064
0.016068663 -0.06174311 0.020941969 0.1422713 0.024893923 0.007324733 0.0726407 -0.101499036
-0.072217435 0.09005736 -0.0680881 0.095412955 -0.1202995 0.0429119 0.09020103 0.06246567
-0.0252955 -0.0049730223 0.11997393 0.101887174 -0.07710591 0.08129468 0.03273865 -0.02901284
-0.017491983 -0.0645778 -0.03499765 0.013036865 0.08959661 -0.014900122 -0.038468726 -0.036371633
0.080759175 0.0047890726 0.12369032 -0.0008702256 0.009670724 0.10124381 0.12164503 0.118107446
0.12090855 -0.014494795 -0.021114852 -0.07433502 -0.096661046 0.097882114 -0.07969837 -0.019091038
-0.07533507 0.11290773 0.04300097 -0.09594766 0.0058610993 -0.042281818 0.06236985 0.032888655
0.02744749 -0.06320852 -0.038879897 -0.104533985 0.06542661 -0.09830701 0.115304135 0.13095056
0.09604503 -0.038929142 -0.11251648 0.0348018 0.0034889928 -0.0022312566 -0.057324674 0.026452122
0.111149475 0.12728642 -0.08368925 0.034111023 0.067070715 -0.08327641 -0.01724756 0.0019225214
0.05736034 0.103648774 -0.02676671 0.085917905 -0.036106475 -0.08633545 0.087138675 -0.02952053
-0.042804357 0.03392297 -0.04081584 0.06641602 -0.055345405 0.13569078 0.08253221 0.027489807
-0.11016769 0.043226544 0.053181257 0.036414 0.12350559 0.10029234 0.025664747 -0.037264347
0.06764488 -0.09685195 -0.057003196 0.051566042 0.002054472 0.026989525 0.10561179 0.08423573
-0.049508605 0.06340654 -0.09554816 0.07125001 -0.029218275 0.028467253 -0.110817626 -0.05771369
-0.01704528 0.071160056 -0.06653002 0.07965496 -0.053951904 0.050626084 0.029816447 0.07480957
-0.025324576 -0.01925979 0.0003720745 -0.106003515 -0.01914008 -0.08870992 0.017564481 0.10258319
0.063187525 -0.062010814 -0.00035928623 -0.09454849 -0.06414624 0.112375736 -0.094984666 -0.10335399
-0.034830857 0.022097997 -0.03251001 0.080191255 0.0047583045 0.03463308 -0.08211534 0.11627605
-0.016480533 0.015528603 0.10760472 -0.00025461303 -0.10641687 0.10053367 0.053879872 -0.061554007
-0.051597975 -0.025529556 0.12455858 0.14797185 -0.0105459085 0.078428745 0.10423325 -0.08345086
0.024786673 0.019829761 -0.054679383 0.10395975 -0.019306097 0.040718842 0.12739998 -0.008506193
00000000: 9ed5 36bd 99aa 023e 7644 093d e631 073e
00000010: 5a6d 103e f8f8 d33d 8ab7 2a3d 9c9b b03d
00000020: 0e03 af3d be4d a3bd 6107 fd3d 862e 093e
00000030: ef2e 303c c143 3abc f006 f63d deb1 943d
00000040: b0a4 49bd 286a 8bbd acd9 fcbc c5e7 733d
00000050: ef2f b0bd 8749 073d 46cd 233d 3572 d6bc
00000060: ba05 813d ce6f dc3c 8544 0ebd 6203 163e
00000070: 6f65 173c 0d40 3c3d bb93 95bd ea7d 8fbc
00000080: b056 e93b cf2e 91bc ea67 a8bd 85b3 423c
00000090: 9776 8f3d 16bc de3d 4e48 d63d 72e4 ed3c
000000a0: 9364 92bd 992c 743d 5c06 80bd ac24 d4bd
000000b0: 2f16 8ebd 3db6 8ebd 2b0f e73b dabc cc3d
000000c0: d432 203d ae09 df3d f182 e4bd 9a25 a2bc
000000d0: b290 8a3d 2423 9f3c 69be ab3d eff6 8fbd
000000e0: bb53 36bd b8b8 aa3c 6902 f2bb 7150 d5bd
000000f0: c447 653b ec2d f93d 213b bf3d d49f 01bd
00000100: 5fc2 da3c 7c9f 2ebd 4e63 863d 25d4 c1bd
00000110: 5d09 78bd b7e3 023d f01e 85bd f7db e03d
00000120: 2c5a bfbc 5585 073e 384e 043d f1af 8ebd
00000130: b4ea 1b3e 7d62 b53d 60c8 b4bd d5d9 fd3d
00000140: 6ea2 833c 58e6 7cbd 7e8e ab3c 91af 113e
00000150: 57ee cb3c 5004 f03b a6c4 943d bade cfbd
00000160: bce6 93bd fe6f b83d c671 8bbd de67 c33d
00000170: 965f f6bd 63c4 2f3d 51bb b83d 01dc 7f3d
00000180: 8238 cfbc bcf4 a2bb e4b4 f53d 39aa d03d
00000190: b4e9 9dbd d37d a63d f618 063d 56ac edbc
000001a0: 594b 8fbc 5e41 84bd b259 0fbd 9398 553c
000001b0: 6d7e b73d a41f 74bc 6291 1dbd 6cfa 14bd
000001c0: 1165 a53d a7ed 9c3b 5a51 fd3d da1f 64ba
000001d0: f571 1e3c ea58 cf3d 0821 f93d 51e2 f13d
000001e0: e79e f73d 947b 6dbc 0ef9 acbc f53c 98bd
000001f0: 3af6 c5bd 6b76 c83d e638 a3bd cf64 9cbc
00000200: 4649 9abd 2b3c e73d c921 303d 3580 c4bd
00000210: 770e c03b b32f 2dbd 8777 7f3d 41b6 063d
00000220: 8fd9 e03c 7873 81bd 8740 1fbd ea15 d6bd
00000230: 63fe 853d 3055 c9bd 9324 ec3d e717 063e
00000240: 42b3 c43d 2a74 1fbd 0a6f e6bd 558c 0e3d
00000250: 96a7 643b 463a 12bb 47cd 6abd 1fb2 d83c
00000260: 56a2 e33d 5f57 023e 4565 abbd 00b8 0b3d
00000270: 5f5c 893d d38c aabd c14a 8dbc 1dfd fb3a
00000280: adf2 6a3d cf45 d43d dc45 dbbc baf5 af3d
00000290: 62e4 13bd a4d0 b0bd c375 b23d 0ad5 f1bc
000002a0: 9f53 2fbd d0f2 0a3d 832e 27bd 1f05 883d
000002b0: ddb1 62bd 86f2 0a3e a606 a93d 4e32 e13c
000002c0: 999f e1bd 510e 313d 97d4 593d d926 153d
000002d0: 80f0 fc3d 1266 cd3d e03e d23c 80a2 18bd
000002e0: 6689 8a3d 515a c6bd 2f7c 69bd ea36 533d
000002f0: 52a4 063b 2319 dd3c ff4a d83d c883 ac3d
00000300: 89c9 4abd 4adb 813d c1ae c3bd 86eb 913d
00000310: 2a5b efbc 2834 e93c 5af4 e2bd 3165 6cbd
00000320: 8ba2 8bbc 5dbc 913d e440 88bd 2422 a33d
00000330: acfc 5cbd 4c5d 4f3d 9f41 f43c c335 993d
00000340: 7c75 cfbc b5c6 9dbc fe12 c339 5f18 d9bd
00000350: a8cb 9cbc 8cad b5bd 63e3 8f3c 2317 d23d
00000360: 7668 813d 0dff 7dbd 955e bcb9 a4a2 c1bd
00000370: 1b5f 83bd 4025 e63d 5287 c2bd 42ab d3bd
00000380: cdaa 0ebd dc06 b53c 3729 05bd 503b a43d
00000390: 8deb 9b3b 6bdb 0d3d 162c a8bd 2322 ee3d
000003a0: 2f02 87bc af6b 7e3c dd5f dc3d 957d 85b9
000003b0: 17f1 d9bd 99e4 cd3d 24b1 5c3d 0e20 7cbd
000003c0: 6658 53bd 5c23 d1bc 9218 ff3d ef85 173e
000003d0: bfc8 2cbc 409f a03d 3e78 d53d 49e8 aabd
000003e0: 6c0d cb3c 0672 a23c 7df7 5fbd d9e8 d43d
000003f0: d227 9ebc cdc8 263d 2475 023e 8f5d 0bbc

lstm.weight_hh_l0 f4 [256, 64]
0.08762013 0.043314274 -0.0024538466 0.039501674 0.037663553 0.018285327 0.07999678 -0.06796081
-0.08709799 0.008565103 0.08457451 0.015886206 -0.05215287 0.13211937 0.091105595 0.09749869
0.017355062 -0.0635161 0.033433534 0.04194043 -0.026407398 0.0829025 -0.009343953 0.051564895
-0.1096172 -0.04802713 -0.12246175 0.070288 0.048707232 0.07424168 0.065204166 0.0125210015
-0.024138093 -0.013115836 -0.0033257466 0.021076862 -0.08970849 0.055101395 -0.11431141 -0.10586995
0.059169028 0.047608428 -0.019222448 -0.010288446 -0.028183168 0.096609 -0.0074003967 0.04821655
0.09813281 0.07937689 -0.028927399 0.03216521 0.093110904 0.14022915 0.040826667 -0.08169416
-0.0392855 -0.08054979 -0.08159526 -0.0220235 -0.0017960188 -0.0021188026 -0.12042087 0.022202155
0.114893004 0.038485445 -0.11278539 -0.056219384 0.082137026 -0.039280917 -0.010399303 -0.0038454358
0.086896 -0.022157323 0.14158405 0.10644623 -0.06226263 0.0043977345 -0.10392883 -0.086045615
-0.013536407 0.108009614 -0.104802795 0.105019525 0.06337248 -0.0064920466 -0.047885865 -0.08665338
-0.076643184 0.056019735 0.06597393 0.07712024 -0.014868296 -0.0058157113 -0.08885074 -0.08924846
-0.069620095 -0.042208817 -0.090378836 0.083022006 0.009784091 -0.080111496 0.058175877 -0.0030265097
0.028814632 0.04869436 0.0794791 0.054654505 -0.051086992 -0.03520688 0.051045075 0.11185495
-0.018222125 -0.07698665 0.08853231 0.036806606 -0.042728886 -0.011129901 0.116541065 -0.06536848
-0.021057572 -0.019703116 0.06348857 -0.08609682 -0.054350544 -0.008997877 -0.10487624 0.0985772
-0.04550478 0.085463926 -0.017369194 0.07899813 -0.10039483 -0.066989414 -0.089746915 0.09879249
-0.08801212 -0.007507818 -0.09832729 0.0060129515 0.09001164 0.059343167 0.038042285 -0.10340149
0.08185249 -0.082563005 0.10248828 0.010693134 0.024034819 0.010257029 -0.05087564 0.06692184
-0.01646967 0.029254992 -0.02169476 -0.09740488 -0.050666932 -0.01984403 -0.049681336 -0.0335645
0.10755305 0.022738041 -0.1289802 -0.102627665 -0.067816004 -0.04052907 -0.0018349531 0.025427952
0.112983845 0.022249825 0.027685245 0.0706796 -0.03206012 -0.10025652 -0.0071730767 -0.10670132
-0.01537522 0.0725214 0.056473505 0.10865783 -0.012851951 -0.0365024 0.07849352 0.05392685
0.06950399 0.061191384 -0.09716801 0.051950905 0.06844621 0.011964784 0.12578169 0.11381747
-0.0942267 -0.058013745 -0.03150253 0.014619993 -0.017490605 -0.008214489 -0.016325576 0.06804912
-0.10087886 -0.0067728767 -0.07092163 0.10623905 -0.119660035 -0.018054103 0.12306995 0.08127847
0.12645079 0.018079555 0.047830895 -0.11127454 0.05250392 -0.06066725 0.011479339 -0.040898155
-0.040532522 0.054679044 -0.10017487 -0.054434765 -0.0791954 0.032648545 0.0052396436 -0.04905696
-0.08535885 0.048233178 0.09400548 -0.029551862 -0.121110186 -0.103659816 -0.12677373 0.009916111
0.01843595 0.04120368 -0.047976233 -0.06179626 -0.11815434 0.00757198 -0.11301834 -0.0841352
-0.022416085 -0.10213789 0.15369627 0.016409118 -0.048276924 0.022989688 -0.09525876 0.028892059
-0.004268009 -0.07406331 -0.010172178 0.08920553 0.009636986 0.0701101 0.034352507 0.04913385
00000000: 2f72 b33d 4f6a 313d b7d0 20bb 82cc 213d
00000010: 1945 1a3d 1ccb 953c 5ad5 a33d 0a2f 8bbd
00000020: 6e60 b2bd a554 0c3c 6735 ad3d ca23 823c
00000030: 3f9e 55bd 4d4a 073e 9295 ba3d 65ad c73d
00000040: 342c 8e3c bb14 82bd 9af1 083d bac9 2b3d
00000050: 5454 d8bc c9c8 a93d 6117 19bc b635 533d
00000060: fc7e e0bd 19b8 44bd 3acd fabd 28f3 8f3d
00000070: 3c81 473d 060c 983d c389 853d e324 4d3c
00000080: 40bd c5bc cee3 56bc c5f4 59bb 62a9 ac3c
00000090: 16b9 b7bd 00b2 613d 1a1c eabd 58d2 d8bd
000000a0: 395b 723d 0e01 433d 6578 9dbc df90 28bc
000000b0: 63e0 e6bc f0da c53d 077f f2bb b87e 453d
000000c0: dbf9 c83d 5a90 a23d 27f9 ecbc abbf 033d
000000d0: eeb0 be3d 3b98 0f3e dd39 273d 454f a7bd
000000e0: d5e9 20bd 4af7 a4bd 6a1b a7bd a16a b4bc
000000f0: 6468 ebba 9cdb 0abb 389f f6bd 4be1 b53c
00000100: 064d eb3d eaa2 1d3d 07fc e6bd 4c46 66bd
00000110: 7537 a83d 07e5 20bd d761 2abc b503 7cbb
00000120: 88f6 b13d 4683 b5bc 69fb 103e 7b00 da3d
00000130: 1907 7fbd df1a 903b a3d8 d4bd af38 b0bd
00000140: cec7 5dbc 2534 dd3d d9a2 d6bd 7a14 d73d
00000150: 6ec9 813d 3cbb d4bb f823 44bd 5477 b1bd
00000160: 1af7 9cbd f374 653d 571d 873d 37f1 9d3d
00000170: 279a 73bc b991 bebb 60f7 b5bd e6c7 b6bd
00000180: fb94 8ebd 27e3 2cbd 8a18 b9bd 7107 aa3d
00000190: 744d 203c 7f11 a4bd d449 6e3d 6858 46bb
000001a0: aa0c ec3c bd73 473d f0c5 a23d 67dd 5f3d
000001b0: 9840 51bd 1735 10bd a414 513d 3514 e53d
000001c0: 9146 95bc 2dab 9dbd 6e50 b53d 86c2 163d
000001d0: 7c04 2fbd 305a 36bc 15ad ee3d e9df 85bd
000001e0: ee80 acbc 6e68 a1bc 4c06 823d 8853 b0bd
000001f0: ad9e 5ebd d56b 13bc 5bc9 d6bd d8e2 c93d
00000200: 3863 3abd b607 af3d d749 8ebc c6c9 a13d
00000210: ce9b cdbd bf31 89bd 3bcd b7bd b853 ca3d
00000220: b33f b4bd 2404 f6bb d15f c9bd 4b08 c53b
00000230: 0658 b83d d211 733d 3ad2 1b3d 29c4 d3bd
00000240: 47a2 a73d cb16 a9bd 60e5 d13d 4132 2f3c
00000250: abe4 c43c 190d 283c fa62 50bd 510e 893d
00000260: 67eb 86bc 2aa8 ef3c 36b9 b1bc 367c c7bd
00000270: 2188 4fbd f28f a2bc a87e 4bbd ee7a 09bd
00000280: c644 dc3d 2145 ba3c 6313 04be 742e d2bd
00000290: 1ee3 8abd cf01 26bd cf82 f0ba 484e d03c
000002a0: 1364 e73d 4445 b63c 2bcc e23c 77c0 903d
000002b0: 7951 03bd 4a53 cdbd 210c ebbb 3986 dabd
000002c0: 59e8 7bbc 1a86 943d c350 673d ff87 de3d
000002d0: fd90 52bc 8a83 15bd 36c1 a03d 67e2 5c3d
000002e0: 1c58 8e3d d1a3 7a3d 0600 c7bd 79ca 543d
000002f0: 872d 8c3d f107 443c eacc 003e 2219 e93d
00000300: eef9 c0bd d29f 6dbd cc08 01bd b288 6f3c
00000310: 7548 8fbc 1096 06bc 37bd 85bc 565d 8b3d
00000320: 9399 cebd 02ef ddbb 5c3f 91bd dc93 d93d
00000330: 5210 f5bd 33e6 93bc 190c fc3d 5475 a63d
00000340: 517c 013e 931b 943c 54ea 433d e8e3 e3bd
00000350: 5a0e 573d 397e 78bd d613 3c3c d384 27bd
00000360: 6e05 26bd 22f7 5f3d 7b28 cdbd fdf6 5ebd
00000370: 3331 a2bd 7bba 053d 51b1 ab3b f3ef 48bd
00000380: 9fd0 aebd 2790 453d f285 c03d bf16 f2bc
00000390: 9e08 f8bd 994b d4bd f9d0 01be 2f77 223c
000003a0: fd06 973c 31c5 283d ba82 44bd 131e 7dbd
000003b0: e7fa f1bd 5f1e f83b 2976 e7bd 134f acbd
000003c0: f0a1 b7bc ac2d d1bd 8e62 1d3e 6a6c 863c
000003d0: 06be 45bd df54 bc3c 0617 c3bd 0aaf ec3c
000003e0: a8da 8bbb 81ae 97bd 35a9 26bc 64b1 b63d
000003f0: 73e4 1d3c e295 8f3d 37b5 0c3d 9340 493d

lstm.bias_ih_l0 f4 [256]
-0.052696317 0.032164603 0.09985328 0.0022128199 0.03671259 -0.048336267 -0.015941778 -0.045448333
0.0013300029 0.033347312 0.04203298 -0.073941216 0.11828858 0.110223785 0.053018853 0.021644814
0.054640613 -0.018873679 -0.008130276 -0.06329924 0.0065804888 -0.03334826 0.0734005 0.081908934
-0.09466469 -0.06762368 0.13436191 0.0814892 -0.051463783 -0.0046825805 0.082357675 -0.07409654
0.080042616 0.02571729 0.1368866 0.13004377 -0.11322843 -0.030547608 -0.08014171 0.08277409
-0.0021592458 -0.02896742 0.03778264 0.123692594 0.06730073 0.05592999 0.07688642 -0.10819615
-0.021642344 -0.016423298 0.08847288 -0.10615139 -0.036780603 0.0005001239 0.08324196 -0.054856263
0.080389336 -0.06200337 -0.050971847 -0.044207692 0.071462415 0.033780348 -0.064801015 -0.0030068464
-0.016062088 -0.1107049 0.12033014 -0.023159178 -0.012574115 -0.009500902 0.04264899 0.047814615
-0.102274366 0.019364558 -0.091833316 -0.045366272 0.032879952 0.06717753 -0.0054681087 0.112964876
0.104993455 -0.08826113 -0.07508424 0.13047303 -0.0696005 -0.05108402 0.023961762 0.037028994
0.11009007 -0.019248849 0.09822877 -0.1092495 0.02442936 0.07138821 -0.08973298 0.050357144
0.00827813 0.060865067 -0.038537502 0.054403488 -0.07300753 0.11500754 -0.039004598 0.06446561
-0.09087949 -0.042237252 -0.12372251 0.012342672 0.01969807 0.035340227 -0.0093114395 -0.042668343
0.08564269 0.0060799466 0.09645457 0.05580126 0.12505278 -0.03666229 0.07294852 0.060643375
-0.061441593 -0.056171615 -0.0071447017 -0.103001945 -0.10353746 -0.015088988 -0.07993467 0.115071125
-0.10802822 -0.013910709 0.10487386 -0.09062171 -0.10381796 0.056260355 -0.03883027 -0.0469594
-0.109987065 0.11582184 -0.08639831 0.09317347 0.11467978 -0.050451748 -0.018036852 0.059997816
0.07327241 0.14301366 -0.032944206 -0.06481607 0.089108475 -0.08589032 -0.06636377 0.08026731
-0.08016089 0.05022674 -0.08698866 0.002972498 -0.052598096 -0.031988014 0.0585315 -0.11226447
0.057402167 -0.08725824 0.06902385 -0.019078547 -0.119202405 -0.12484532 0.0954059 -0.038384616
-0.059973545 0.06122905 -0.09718541 0.12802254 -0.09030955 -0.07992131 0.013960057 0.07867317
-0.022609549 -0.041724626 0.040122446 -0.10617995 -0.028120482 0.11782952 0.114726745 -0.123880364
0.10038163 -0.03823018 0.12274387 0.06786445 -0.0022748634 -0.08908812 -0.015273799 0.08481289
2.5505733e-06 -0.09001982 0.008432323 0.06927676 -0.017799988 0.091829695 0.060526542 0.083393954
0.038763333 0.043197215 0.10656 -0.019239454 0.051938035 0.01658225 -0.0032796066 -0.087723956
-0.0012687383 0.06319825 0.051798884 0.11035861 0.022335991 -0.0038132844 0.08683164 -0.048072726
-0.114547476 0.08665252 0.12305013 0.072934374 -0.057837714 -0.08502377 0.12573248 0.025175575
0.022113487 -0.05990376 -0.0021007566 0.07134222 -0.032129988 -0.11954249 -0.056195922 0.024011618
0.09519667 -0.070429295 -0.07581837 -0.041995242 0.030811153 0.025467465 -0.011991086 0.08245552
-0.025928346 -0.0079963105 0.0021529763 0.086499326 -0.07721376 0.089951396 0.042461663 0.1183586
0.12635927 -0.099329405 0.0038591465 0.091506526 0.020961232 0.040297914 0.050454408 -0.09660645
00000000: 18d8 57bd 08bf 033d e07f cc3d f504 113b
00000010: f15f 163d 40fc 45bd 5598 82bc 0828 3abd
00000020: 7e53 ae3a 3197 083d c62a 2c3d 7e6e 97bd
00000030: 4841 f23d 02bd e13d 4c2a 593d 7750 b13c
00000040: d6ce 5f3d f99c 9abc d934 05bc 08a3 81bd
00000050: 24a1 d73b 2f98 08bd 0053 963d dfbf a73d
00000060: 90df c1bd 497e 8abd 2b96 093e cfe3 a63d
00000070: b0cb 52bd 5570 99bb 24ab a83d edbf 97bd
00000080: 62ed a33d 11ad d23c 002c 0c3e 322a 053e
00000090: 4fe4 e7bd fa3e fabc 5621 a4bd 7685 a93d
000000a0: 2282 0dbb 154d edbc f8c1 1a3d 8b52 fd3d
000000b0: f7d4 893d d816 653d a176 9d3d f195 ddbd
000000c0: 494b b1bc 278a 86bc 4531 b53d e665 d9bd
000000d0: 42a7 16bd bf1a 033a c37a aa3d f6b0 60bd
000000e0: 2aa3 a43d 3ff7 7dbd dbc7 50bd 2013 35bd
000000f0: e35a 923d 435d 0a3d 65b6 84bd 830e 45bb
00000100: a494 83bc 40b9 e2bd a66f f63d 51b8 bdbc
00000110: a903 4ebc aca9 1bbc b5b0 2e3d 42d9 433d
00000120: 3975 d1bd 6ca2 9e3c 1b13 bcbd fcd1 39bd
00000130: 21ad 063d 5f94 893d d22d b3bb 215a e73d
00000140: cf06 d73d 40c2 b4bd c4c5 99bd b99a 053e
00000150: b58a 8ebd 7a3d 51bd 754b c43c b7ab 173d
00000160: e776 e13d c3af 9dbc 2a2c c93d 34be dfbd
00000170: 1520 c83c fb33 923d edc5 b7bd 4b43 4e3d
00000180: fea0 073c a64d 793d 80d9 1dbd 31d6 5e3d
00000190: f984 95bd 1389 eb3d 49c3 1fbd 8c06 843d
000001a0: 071f babd f800 2dbd 3a62 fdbd eb38 4a3c
000001b0: d95d a13c eac0 103d 028f 18bc 00c5 2ebd
000001c0: 6f65 af3d 4a3a c73b f989 c53d dd8f 643d
000001d0: d60d 003e 332b 16bd 0966 953d 3065 783d
000001e0: 2eaa 7bbd 3514 66bd 1a1e eabb aff2 d2bd
000001f0: 730b d4bd cd37 77bc cab4 a3bd 69aa eb3d
00000200: e63d ddbd bee9 63bc 1bc8 d63d e097 b9bd
00000210: 839e d4bd 4271 663d 7d0c 1fbd 8058 40bd
00000220: e640 e1bd 0034 ed3d 99f1 b0bd bbd1 be3d
00000230: 3cdd ea3d 7ea6 4ebd 05c2 93bc 45c0 753d
00000240: d80f 963d 2c72 123e 81f0 06bd 4abe 84bd
00000250: 817e b63d 44e7 afbd bae9 87bd 3063 a43d
00000260: 652b a4bd 8eba 4d3d 1c27 b2bd 3ece 423b
00000270: 1a71 57bd dd05 03bd babe 6f3d eaea e5bd
00000280: 891e 6b3d 73b4 b2bd 605c 8d3d 9d4a 9cbc
00000290: 6420 f4bd e7ae ffbd 2b64 c33d 3039 1dbd
000002a0: d2a6 75bd 50cb 7a3d 2509 c7bd 5718 033e
000002b0: 37f4 b8bd c9ad a3bd b9b8 643c 661f a13d
000002c0: a937 b9bc 71e7 2abd 6f57 243d e074 d9bd
000002d0: ed5c e6bc 9a50 f13d dbf5 ea3d fdb4 fdbd
000002e0: e294 cd3d 4097 1cbd 2361 fb3d 84fc 8a3d
000002f0: e015 15bb d573 b6bd f53e 7abc 61b2 ad3d
00000300: 842a 2b36 505c b8bd ba27 0a3c f9e0 8d3d
00000310: 48d1 91bc 3511 bc3d aeea 773d 73ca aa3d
00000320: 4dc6 1e3d 90ef 303d 213c da3d 0f9c 9dbc
00000330: fabc 543d 80d7 873c abee 56bb 9ea8 b3bd
00000340: cb4b a6ba 166e 813d 112b 543d b203 e23d
00000350: f8f9 b63c 4ce8 79bb c9d4 b13d e8e7 44bd
00000360: de97 eabd e076 b13d b501 fc3d 9e5e 953d
00000370: 3de7 6cbd f120 aebd 04c0 003e 023d ce3c
00000380: 5827 b53c a55d 75bd d9ac 09bb df1b 923d
00000390: bc9a 03bd b1d2 f4bd b22d 66bd 03b4 c43c
000003a0: 79f6 c23d 3c3d 90bd a946 9bbd 3403 2cbd
000003b0: ac67 fc3c 25a1 d03c 4376 44bc 71de a83d
000003c0: af67 d4bc f502 03bc f318 0d3b 8f26 b13d
000003d0: 3f22 9ebd 7038 b83d 48ec 2d3d fe65 f23d
000003e0: 5364 013e 376d cbbd bce9 7c3b c667 bb3d
000003f0: e4b6 ab3c 6d0f 253d 48a9 4e3d 9ad9 c5bd

lstm.bias_hh_l0 f4 [256]
0.11256726 0.049575154 -0.09776438 0.00079336023 0.06760407 0.006373617 -0.046545386 -0.006289485
0.0785553 -0.07794406 0.100986004 -0.062150687 -0.083896644 0.012578498 0.065053165 0.06781733
0.119885914 0.09941172 -0.05216861 -0.057230156 0.06960661 -0.025151866 0.101444766 -0.0747043
0.029934192 0.03445754 -0.0576103 -0.08726853 0.1164955 -0.0045480253 0.050829913 0.11704106
0.047104344 -0.013920215 0.09679566 0.08585722 0.10167392 0.014177848 0.11864271 0.032042354
0.11114471 0.07325306 0.093696594 0.088518485 -0.013060887 -0.06318884 -0.14864865 -0.045702964
0.033657134 -0.069949105 -0.036116518 0.06724864 -0.016446764 0.019897077 0.08104598 -0.054945163
-0.015953148 -0.0073849866 -0.11415653 -0.096921064 -0.06689643 0.038087647 -0.06108118 -0.02310557
-0.0009951137 0.037318155 0.07653846 -0.11235596 0.0016131871 -0.02424876 -0.022418534 0.060490098
0.061661273 -0.073134795 0.09423663 0.10000699 0.120130494 0.110291325 0.07184981 -0.05723223
-0.025529409 -0.10877572 0.09517677 -0.049042244 0.06857586 -0.033375643 -0.071833335 0.077970184
0.105272286 0.012652455 0.07835756 0.075618565 0.03506489 -0.09015911 0.057686765 -0.04640512
0.013595088 -0.028769905 0.068015076 0.016271213 0.026993277 0.08861762 0.1423013 -0.1064051
0.15011624 -0.11279617 -0.0908067 -0.04440371 -0.01648892 0.10489824 0.11931889 -0.132987
0.080814965 0.08882061 -0.073494285 -0.0832561 -0.08924663 0.0773036 -0.0687278 0.03648803
0.08964675 0.0071341833 0.08634911 -0.0566485 0.029379558 -0.098144025 -0.08444182 0.06318898
0.08923097 -0.081204295 0.06594027 0.032095302 0.09365467 0.003707116 -0.0029457826 0.09545709
0.055086084 -0.10732609 0.08528107 0.08553473 0.013834132 -0.11180569 -0.045145467 0.06870388
0.007659752 0.0002523072 -0.10686972 0.120427854 -0.02438575 -0.012756485 0.034394447 0.023779053
0.008312353 0.017161308 0.046753403 0.110973015 3.4995548e-05 0.06498627 -0.034447894 -0.03441685
-0.0071649738 0.10001505 -0.10938284 -0.00635077 -0.10649618 -0.12896514 -0.075386174 -0.09546382
-0.07508166 0.004442616 -0.0094168335 0.07322184 -0.1027952 -0.05129993 0.02756407 0.060252413
0.042552635 0.11594583 -0.08340933 0.11942544 -0.0021469756 0.009288215 0.009096702 0.0011341644
-0.08190277 0.026591836 -0.07657849 -0.080255575 0.049640507 0.049889453 -0.07481481 0.11006432
0.11145307 0.037891448 -0.033287816 0.10206075 -0.04562726 -0.08226953 -0.015343733 0.015491306
-0.009992526 0.06722558 0.10290786 -0.09883301 -0.056243464 -0.08804598 0.023943206 -0.0074924454
-0.0031564871 -0.09084118 -0.032645486 -0.018282631 0.10223379 -0.10945192 0.008299385 0.025131242
-0.08682417 -0.04463665 -0.040223107 -0.02684622 0.019522889 0.014672613 0.04319862 0.019469814
-0.016702734 0.064603224 0.062302038 -0.097856686 -0.040473297 -0.111072056 0.09909139 -0.024792349
0.043581642 0.03649561 0.07150162 -0.08028878 0.037893776 -0.03045683 -0.04407589 -0.09570516
0.10330936 0.06776304 0.046412993 0.099810004 0.0868753 -0.07399532 -0.082348876 -0.055691805
-0.035436638 -0.10453171 0.055809442 -0.015655372 0.02776373 0.10725342 0.09109811 -0.038327333
00000000: aa89 e63d 510f 4b3d b138 c8bd 81f9 4f3a
00000010: 0174 8a3d c6d9 d03b 60a6 3ebd 0618 cebb
00000020: 9ae1 a03d 23a1 9fbd c0d1 ce3d b891 7ebd
00000030: 01d2 abbd 0b16 4e3c 983a 853d d0e3 8a3d
00000040: bf86 f53d 5f98 cb3d c1ae 55bd 2b6a 6abd
00000050: e98d 8e3d 490b cebc 46c2 cf3d 91fe 98bd
00000060: 8d38 f53c 5923 0d3d c7f8 6bbd d8b9 b2bd
00000070: 3195 ee3d 9a07 95bb 0733 503d 39b3 ef3d
00000080: 7cf0 403d 9d11 64bc ce3c c63d e9d5 af3d
00000090: 6b3a d03d 344a 683c f3fa f23d d83e 033d
000000a0: d69f e33d b305 963d 00e4 bf3d 2e49 b53d
000000b0: 55fd 55bc 2769 81bd 5a37 18be 0833 3bbd
000000c0: 10dc 093d 7a41 8fbd eaee 13bd a8b9 893d
000000d0: 5dbb 86bc 32ff a23c 6ffb a53d 2e0e 61bd
000000e0: 2db0 82bc c2fd f1bb e6ca e9bd 8d7e c6bd
000000f0: ff00 89bd cb01 1c3d 4230 7abd e447 bdbc
00000100: 7a6e 82ba ecda 183d 32c0 9c3d e21a e6bd
00000110: 9471 d33a 56a5 c6bc 13a7 b7bc 77c4 773d
00000120: 8890 7c3d b2c7 95bd 22ff c03d 77d0 cc3d
00000130: fa06 f63d 6be0 e13d fe25 933d 586c 6abd
00000140: 0d23 d1bc cec5 debd 0aec c23d 85e0 48bd
00000150: 8071 8c3d e6b4 08bd 5b1d 93bd d5ae 9f3d
00000160: ff98 d73d 3e4c 4f3c ee79 a03d e8dd 9a3d
00000170: 34a0 0f3d 57a5 b8bd f548 6c3d 4c13 3ebd
00000180: efbd 5e3c ddae ebbc 7d4b 8b3d 354b 853c
00000190: 0121 dd3c 287d b53d 6fb7 113e ebea d9bd
000001a0: 12b8 193e ae01 e7bd ddf8 b9bd aae0 35bd
000001b0: c613 87bc e3d4 d63d 765d f43d be2d 08be
000001c0: 5182 a53d 94e7 b53d 2c84 96bd 2d82 aabd
000001d0: f0c6 b6bd 5a51 9e3d 29c1 8cbd 7974 153d
000001e0: b798 b73d dec5 e93b cdd7 b03d 4208 68bd
000001f0: 66ad f03c bcff c8bd d5ef acbd 3969 813d
00000200: babe b63d 704e a6bd b10b 873d 5d76 033d
00000210: 05ce bf3d 16f3 723b 080e 41bb 027f c33d
00000220: f2a1 613d c8cd dbbd d7a7 ae3d d52c af3d
00000230: 8ea8 623c 62fa e4bd 74ea 38bd 9fb4 8c3d
00000240: a8fe fa3b 1948 8439 83de dabd e1a2 f63d
00000250: a0c4 c7bc 9300 51bc 31e1 0c3d 4acc c23c
00000260: 8930 083c df95 8c3c 7f80 3f3d d245 e33d
00000270: 2fc8 1238 8617 853d 3c19 0dbd aff8 0cbd
00000280: 28c8 eabb b1d4 cc3d 1c04 e0bd 1f1a d0bb
00000290: ab1a dabd 700f 04be 1164 9abd 8982 c3bd
000002a0: 6ac4 99bd 5d93 913b 1049 1abc 55f5 953d
000002b0: 4a86 d2bd e01f 52bd 0bce e13c 3ccb 763d
000002c0: ac4b 2e3d 0275 ed3d 83d2 aabd 5395 f43d
000002d0: 46b4 0cbb 992d 183c 550a 153c 3ea8 943a
000002e0: a4bc a7bd 1fd7 d93c 2fd5 9cbd 095d a4bd
000002f0: d853 4b3d e258 4c3d 8238 99bd 6769 e13d
00000300: 8241 e43d 1034 1b3d ce58 08bd 3a05 d13d
00000310: a6e3 3abd ed7c a8bd 4864 7bbc 3fcf 7d3c
00000320: b1b7 23bc 91ad 893d 5bc1 d23d f668 cabd
00000330: 8c5f 66bd 7351 b4bd 8b24 c43c 3083 f5bb
00000340: 11dd 4ebb f10a babd 46b7 05bd 75c5 95bc
00000350: f35f d13d 5428 e0bd 25fa 073c 09e0 cd3c
00000360: dfd0 b1bd ebd4 36bd fcc0 24bd 9bec dbbc
00000370: 77ee 9f3c 6665 703c 09f1 303d 297f 9f3c
00000380: 2cd4 88bc b24e 843d 6c30 7f3d 1669 c8bd
00000390: 54c7 25bd bf79 e3bd 6df0 ca3d 5319 cbbc
000003a0: aa82 323d 6c7c 153d 716f 923d 726e a4bd
000003b0: 8136 1b3d 9a80 f9bc ec88 34bd 1101 c4bd
000003c0: dc93 d33d 59c7 8a3d 8d1b 3e3d 3069 cc3d
000003d0: adeb b13d dc8a 97bd 87a6 a8bd 171d 64bd
000003e0: 0226 11bd b914 d6bd 7198 643d b23f 80bc
000003f0: c370 e33c aea7 db3d a591 ba3d 1ffd 1cbd
